artifact/02_12_2024_08_58_37/model_training_artifacts/model.pt (torch, 440907 bytes, 26 tensors)

conv1.0.weight f4 [16, 1, 3, 3]
00000000: 27ef 9f3d 9420 493e 27a9 90be bcdc 8f3e
00000010: 9271 733e 94f3 993e ac0a 9d3d d78d a2be
00000020: df70 97be a321 523e dab8 30be c5a2 623e
00000030: c4b6 2b3d 8553 01be 1d8e 723e 376c 593e
00000040: 5f43 75be 82aa bb3d 72f9 db3d da4f 86be
00000050: 8a72 083e a8b0 963e 77a5 90bd b759 4f3e
00000060: 9715 c2bd 1ec1 68be 4d6e 8c3e 3fa2 873e
00000070: 11df 29bc 77da 0cbe 5c77 5f3e c28c 8a3e
00000080: a40b dbbd b2eb 783e c4f6 463e 6644 ee3b
00000090: 4554 b63d c3fe 14bb 0730 86be 399e 6ebd
000000a0: 3396 423e b04e bfbd 5d7b 0d3e a9eb 9f3e
000000b0: 0da9 e53d f56c 94be c000 dd3c e4a8 3dbd
000000c0: 0bcc 753e 2255 0cbe 90b5 a6be 0bef 6abe
000000d0: cfe1 75be 6411 a4be b04a 80be 95e7 0c3e
000000e0: 13da 5ebd 9b90 833e fcc0 943e 62c8 2e3e
000000f0: bba8 1a3e 6c9c 14be 2e32 c4bd 860d b4bd
00000100: 1e6c a0be 89e5 10be 0e14 97be 4190 803e
00000110: 15ef 443e c1fa 2fbe 5f3c 5fbe 54bf 643e
00000120: 84cd 9b3e fd16 46be 8b9c 6dbe dc6a 4c3d
00000130: 6d08 8cbe c187 543e 6633 70bb bcf7 e03d
00000140: ae21 403e 644a 93bd 86b2 59be 6f62 463e
00000150: 27cd 09bd d43e 06be f01a 44be 9574 7d3e
00000160: aef5 7abe fbd8 953e c514 933e 3f00 2cbd
00000170: 5d68 d1bc 0f79 a9be 2d62 653d 9fd6 1d3e
00000180: c0d4 6e3e 0f8f 193e f0d2 49be 43a3 87be
00000190: 8b7e b83d 6ca0 8dbe 6dff 6a3d fa4a 6bbe
000001a0: d383 aa3e 9474 4ebc fc1f 60be 0c82 473d
000001b0: b25c 5fbd e3c3 843d 9769 57be 66c5 ab3e
000001c0: c807 2dbe 6f26 62be 961b ccbd dd25 84be
000001d0: 3679 953e acc1 a0bd dbe0 36bd ae3f a13e
000001e0: 8ebf dc3c b1e7 95be 375b ed3d 1297 abbd
000001f0: 78e9 17bd 2beb 8f3d 923c 6cbe 5265 58be
00000200: cca3 9b3d 2edd 97be 58f9 8ebe 5f3e 7cbe
00000210: ff4d aabd de8e 36bb a498 8d3e 54ca acba
00000220: 2e35 99be 274e 8d3e 53e7 0e3e 0fd3 893e
00000230: d559 393e b82a 7ebe fca8 a9bc 3344 e43c
0.078092866 0.19641334 -0.28254053 0.28098094 0.23773792 0.30068648 0.07668051 -0.3174884
-0.295783 0.20520644 -0.17258015 0.22132404 0.041922346 -0.12629516 0.23687024 0.21232687
-0.23951481 0.09163381 0.10740937 -0.26232797 0.13324943 0.29431653 -0.0706281 0.20249067
-0.09476774 -0.22729918 0.27427903 0.2649097 -0.010368125 -0.13755213 0.21822876 0.27060515
-0.1069558 0.2430866 0.19430071 0.0072713373 0.08902792 -0.0022734858 -0.26208517 -0.05825636
0.19002609 -0.0934118 0.1381659 0.31234482 0.112138845 -0.28989378 0.026977897 -0.046303645
0.24003617 -0.1370435 -0.32560396 -0.2294275 -0.2401192 -0.32044518 -0.25056982 0.13760217
-0.05440719 0.25696263 0.29053485 0.17068627 0.15103428 -0.14512795 -0.095798835 -0.08791642
-0.31332487 -0.1415006 -0.29507488 0.25110057 0.19231828 -0.17185499 -0.21800373 0.22338611
0.30430233 -0.19344707 -0.23204248 0.049906597 -0.27350178 0.20754911 -0.003665173 0.109847516
0.18762848 -0.07191923 -0.21259508 0.19373487 -0.033642914 -0.13109905 -0.19150901 0.24751504
-0.24507782 0.29267105 0.28726783 -0.041992422 -0.02556246 -0.33100173 0.05600183 0.15413903
0.23323345 0.14995979 -0.19709373 -0.26491746 0.09008511 -0.27661455 0.0573725 -0.2297782
0.333037 -0.012601037 -0.21887201 0.048708007 -0.05453176 0.06482675 -0.21036373 0.3354904
-0.168975 -0.22084974 -0.09966199 -0.25810137 0.2919404 -0.0784944 -0.044648033 0.31493896
0.02694681 -0.2927833 0.115896635 -0.08378424 -0.037087888 0.070272766 -0.2306998 -0.211324
0.07599601 -0.29660934 -0.2792461 -0.24633168 -0.08315658 -0.0027856152 0.27655518 -0.0013182857
-0.29923385 0.27598688 0.1395543 0.26918837 0.18100674 -0.24820983 -0.02071046 0.027864551

conv1.0.bias f4 [16]
00000000: fae4 02be 7341 ecbc 6487 853e d854 a43e
00000010: 8d2e 07be 16e5 5fbd 7c51 a1be 65e3 14be
00000020: 01fc 8bbd 4793 0f3e 41c1 9ebe 328d 62be
00000030: 5dec 4f3e bca1 2abd 7a02 a83e 5358 033e
-0.1278266 -0.028839802 0.26079857 0.3209598 -0.13201351 -0.054661833 -0.3150748 -0.14539869
-0.06835175 0.14021026 -0.31006816 -0.22124174 0.20305009 -0.04165815 0.3281439 0.12826662

conv1.1.weight f4 [16]
00000000: be8c 803f 4f2b 803f c974 803f a8ec 7e3f
00000010: 8622 7f3f 2f9c 7f3f d073 803f 63a2 7f3f
00000020: 39fe 7e3f 2291 803f 2c21 7e3f 1b6a 7f3f
00000030: 0d2a 803f ff75 803f 4ae1 7f3f 9ccd 7f3f
1.0042951 1.0013217 1.003564 0.9957986 0.99662054 0.9984769 1.0035343 0.9985716
0.99606663 1.0044291 0.99269366 0.9977128 1.0012833 1.003601 0.9995314 0.9992311

conv1.1.bias f4 [16]
00000000: 4496 213b fb20 e2bb 23d4 d5b9 4ae8 cb3a
00000010: 0efe 8d3a 2b29 25bb 30c9 c7ba 8fde 77bb
00000020: fc45 a23b 43bd 423b 9bde 033c aac1 a73a
00000030: 043d 943b e5fc 1fbb 6936 00bb 440c e93b
0.0024656216 -0.0069009042 -0.0004078458 0.0015556898 0.001083316 -0.002520154 -0.0015242454 -0.0037821864
0.0049521904 0.002971486 0.008048679 0.0012798805 0.004523875 -0.0024412211 -0.001956368 0.007112058

conv1.1.running_mean f4 [16]
00000000: bfba 0841 d19b 6d41 db7c 3841 cc33 f541
00000010: 1ccb 5841 441b 2ac2 dfe0 6c41 0424 93c1
00000020: 178a a940 9b3b 9dc0 6715 1241 a56c 76c1
00000030: e06e 25c1 685e a0be 046a 00c2 1add 2b41
8.545592 14.850541 11.530482 30.650291 13.549587 -42.526627 14.8049 -18.392586
5.2981067 -4.913526 9.130225 -15.401525 -10.339569 -0.31322026 -32.10353 10.74148

conv1.1.running_var f4 [16]
00000000: e6e5 4547 3c3e 2d47 740a 3a47 c635 8e47
00000010: f1cd 1a47 3a20 b347 db89 0d47 19b8 5047
00000020: 85a5 1b47 af55 0447 1365 9c46 8200 1147
00000030: 7bdb 2147 c8c4 e346 be42 9b47 ce7c 0847
50661.9 44350.234 47626.453 72811.55 39629.94 91712.45 36233.855 53432.098
39845.52 33877.684 20018.537 37120.508 41435.48 29154.39 79493.484 34940.805

conv2.0.weight f4 [32, 16, 3, 3]
00000000: 73a1 453d ff23 76bd abc9 0abd c7bf 39bd
00000010: de24 843d cc23 03bd dfe3 8bbc a228 94bc
00000020: 041e e03b 2b89 343d 7a28 90bd e5ac 543d
00000030: 6e89 0bbd d786 afbc 237c 7ebd 3e2c f83b
00000040: c77b 8d3d 161c 5cbd 7980 19bd 2146 c43c
00000050: 10a8 163d 23ca 09bd a8f1 b53c 4a76 d9bc
00000060: f073 a6bd 9413 0d3d af5e 9abd 968c 823d
00000070: 277f 963d 59d8 a2ba f27d 93bd d438 4f3d
00000080: ebcb 093d 4080 243d 7abe 9a3d c14c c73c
00000090: 835e 853d 4fb6 9e3a 0639 9a3d fe1b 17bd
000000a0: cfc0 23bc cc17 0c3d 604a 8c3d 743d 99bd
000000b0: 78b9 fc3c 16e0 ea3a 8bc9 2d3d 2611 3fbb
000000c0: 2045 80bd 9313 8a3d e303 88bd d4b0 8bbd
000000d0: cece 3cbd 29d5 dabc 719d 793d 5111 d2bc
000000e0: 98fc 6ebd 485b 29bd 9e06 8dbc 7cb6 213d
000000f0: 8e7e 9b3d ab5e 493d edd6 b23a 85f0 37bc
00000100: d5a0 3abd 769d d33b 55eb 1e3c 8b07 85bd
00000110: a7b6 263d cfb2 853c d5d6 083d 3db0 77bd
00000120: 3118 0ebd 3299 81bd 8177 e6bc 7f06 6fbc
00000130: b0eb 493c edea 223b 637b 76bd 5bb7 a4bc
00000140: 0c16 bc3c 8392 93bd a090 33bd 78fe 063d
00000150: ccf5 04bd 7b7b 2c3c fa11 2e3d 242f 03bd
00000160: 64b7 3b3d 8ea6 243d 0b27 783c d8ec 673d
00000170: fe30 343d 3a2f 2bbc 3edd eebc d120 9dbd
00000180: 8787 d63c 216a 993c e2be 43bd 8fe2 ce3c
00000190: 940b 553d aa65 9dbd 2c99 5c3c 276c 333d
000001a0: d04f 933d 9b68 a43d 4038 863d 8af1 c83c
000001b0: edbf 703d 548c 7fbd 0321 00bd c042 98bd
000001c0: 4388 863d 1470 3dbd 9371 023d 0d3e f03c
000001d0: f057 5cbc edb6 aabd 23f0 983d 25f4 b53c
000001e0: d96c 96bd 9e00 ac3c 9bd8 51bc db37 f03a
000001f0: 9608 80bd 34a9 083d c624 abbb 39f3 cabc
00000200: 7f3e 6d3d af8c adbd d89e 78bd a104 df3c
00000210: fa19 883c 8cd4 983b 0686 98bd c714 a93d
00000220: 94b9 afbd ab0e 8cbd 6412 a2bc 85a3 b83c
00000230: cafc 54bd 30f4 863d f04f 883d e1b0 2fbd
00000240: 97c2 8a3d 4345 393d 173a 40bd a9a4 11bc
00000250: e175 9abb 9094 4abd f02c 76bc dde0 503c
00000260: b111 70bd 24c3 7f3d 1d52 093d 8e5d 0b3d
00000270: a02d aabd 7ab8 5cbd 1bc9 c7bb a980 f13a
00000280: ebad a53d 3ee6 a6bd 0f5a 0d3c 2198 97bd
00000290: a507 e0bc 9570 293d 5b92 88bd 367a 3abc
000002a0: ead8 523d 209d 0ebd ea6a 6fbb df56 0d3c
000002b0: f2fe 9bbd 90d9 35bd cdc7 a5bd dcb9 053d
000002c0: 8930 173d c5f5 c53b 747a 8c3d 6e81 06bd
000002d0: fd84 9cbd 2499 de3b cd37 8f3d 8f9a be3c
000002e0: 4894 62bd 4bd8 133d 79f5 8fbc 15e6 933d
000002f0: ad73 4d3c a454 a0bd f8cf 0f3d 73c8 80bd
00000300: 98ce 1f3d 21a4 2c3d 7a2b 88bd ce04 423d
00000310: f911 d03c 5f6c d23c 5f99 d0bc f5f9 48bd
00000320: 2fb9 2f3d d839 9dbd 09ac bebc f3f7 0a3d
00000330: 1619 64bd 84e9 8abc bfd6 65bd f5f5 99bc
00000340: 682b e83c e3f5 99bc 909e a2bd b281 c6bc
00000350: d1f9 90bd eb23 1bbc a22b cabc 989f f1bc
00000360: 3dfa 8f3d 2481 573d a8bd b9bc 2f73 f13c
00000370: 16eb 7cbd fc65 bdbc 2e8c a4bd 0edc 523d
00000380: c9e4 3dbd 2c28 82bc 93a0 85bd eead 5dbd
00000390: d24c 29bd 8a19 89bd 38ff 003d 6800 053d
000003a0: 197a 36bc 98ed 8d3d cdcd 363b 7509 87bd
000003b0: 8757 babc 6c6b cc3c 22bc 403d 7e2f 6a3c
000003c0: 5641 ad3d e7f6 84bd f4f8 44bd a257 7b3d
000003d0: 2840 ad3c 8bd6 853c ab59 82bd 9508 8a3d
000003e0: 8bd6 e33b 83cd 2a3d 1534 2f3d 8459 d73c
000003f0: aadb 943d 02e7 823d bfa5 223c 42a5 72bd
0.048249673 -0.060092922 -0.03388373 -0.04534891 0.06452344 -0.03201656 -0.01707643 -0.018085781
0.0068395156 0.044076126 -0.0703897 0.051922698 -0.03406661 -0.021426601 -0.062130105 0.0075736335
0.06908374 -0.053737722 -0.037476037 0.023959221 0.03678137 -0.03364004 0.022209957 -0.026545662
-0.08127582 0.0344425 -0.07537591 0.06374471 0.07348471 -0.0012424096 -0.072017565 0.050591305
0.033641737 0.04016137 0.07555862 0.024328591 0.06512167 0.0012108776 0.075304076 -0.03689193
-0.0099947 0.034202382 0.068501234 -0.074824244 0.030850157 0.0017919566 0.042428534 -0.0029154508
-0.062631845 0.06742015 -0.06641366 -0.06820837 -0.04609566 -0.02671297 0.060941163 -0.025643023
-0.05834636 -0.04134682 -0.01721507 0.03948067 0.07592498 0.049162548 0.0013644375 -0.011226778
-0.045563538 0.00645798 0.009699662 -0.06495579 0.040701535 0.016320614 0.033408005 -0.06047081
-0.03469104 -0.06328048 -0.028133156 -0.014588951 0.012324259 0.0024859265 -0.060176264 -0.020106962
0.022959732 -0.07205679 -0.043839097 0.032957524 -0.032460973 0.010527487 0.042497613 -0.03202738
0.04582919 0.0401979 0.015146027 0.056622356 0.043992035 -0.010448271 -0.02915823 -0.07672275
0.026187671 0.018727364 -0.047789462 0.025254516 0.052012995 -0.076854065 0.013464253 0.043804314
0.071929574 0.080277644 0.065536976 0.024529237 0.058776785 -0.062389687 -0.031281482 -0.074346066
0.065689586 -0.046249464 0.031846594 0.029326463 -0.0134487 -0.083356716 0.074676774 0.022211144
-0.0734498 0.020996388 -0.01280799 0.0018327193 -0.06251638 0.03336449 -0.0052228896 -0.02477418
0.05792093 -0.08474099 -0.06069836 0.027223887 0.01661395 0.0046640094 -0.07447438 0.08255916
-0.08580318 -0.06838735 -0.01978416 0.02253891 -0.05199889 0.06589544 0.06655872 -0.042893294
0.06775396 0.04523207 -0.0469304 -0.008889356 -0.0047137593 -0.049458086 -0.015025362 0.012748924
-0.05861062 0.06244196 0.033525575 0.034024768 -0.083094835 -0.053886868 -0.0060969717 0.0018425185
0.08089813 -0.08149384 0.008627429 -0.07402063 -0.027347395 0.041367132 -0.0666854 -0.011381676
0.051476397 -0.034817815 -0.0036532232 0.008626669 -0.07616986 -0.044396937 -0.080947496 0.032647952
0.03691152 0.006041261 0.068592936 -0.032838278 -0.07642553 0.006793158 0.06993065 0.023267059
-0.055317193 0.036094945 -0.017573105 0.07221619 0.012539786 -0.07828644 0.035110444 -0.06288233
0.039015383 0.042148713 -0.066489175 0.047367863 0.025399195 0.025686441 -0.025463758 -0.049066503
0.042901214 -0.076770484 -0.023275392 0.03392787 -0.055687986 -0.016957052 -0.056113 -0.01879404
0.02834101 -0.018794006 -0.079404 -0.024231765 -0.07078899 -0.009469013 -0.024679009 -0.029495046
0.07030151 0.052613392 -0.022673443 0.02947387 -0.061747633 -0.023119919 -0.0803455 0.05147939
-0.046360765 -0.015888296 -0.06524768 -0.05412095 -0.041333027 -0.06694324 0.031493396 0.03247109
-0.011137509 0.06930083 0.0027893663 -0.06593601 -0.022746814 0.024953566 0.047054417 0.01429355
0.084597275 -0.064924054 -0.048088983 0.06136287 0.021148756 0.016337654 -0.06364759 0.06739918
0.0069530657 0.041699897 0.04277428 0.026287802 0.0726846 0.063917175 0.009927212 -0.059239633

conv2.0.bias f4 [32]
00000000: 72d4 993d 21e5 fbbb e3f3 88bc f4c4 8fbd
00000010: 5691 c3b9 36a8 ab3c 6a17 24bd 0229 54bb
00000020: 1a89 8e3d c630 9cbc aa9c 063d d89d 51bd
00000030: 2c85 793d 0152 683d 3222 2c3b 417b 79bd
00000040: 9838 053d 2ac3 573d 88bb 033c ca3c 93bd
00000050: d830 acbb e61d f8bc 568e 67bd cf2c d73c
00000060: 3c23 e7bc cc2e 7f3d 4fc1 63bc 9171 25bd
00000070: 3c7f 81bb 833b 3cbb b37e 84bd ae30 923d
0.07511224 -0.0076872264 -0.016717857 -0.07019988 -0.00037301582 0.020954233 -0.040061392 -0.0032373075
0.06959744 -0.019066226 0.03286425 -0.051175922 0.06091802 0.05671883 0.00262655 -0.06090856
0.032524675 0.052676357 0.008040316 -0.07189329 -0.005254846 -0.030287694 -0.056532227 0.026266484
-0.028215043 0.06230049 -0.013901069 -0.04039151 -0.003951935 -0.0028721995 -0.064694785 0.07138191

conv2.1.weight f4 [32]
00000000: afe9 7e3f f296 7e3f bdd5 803f 4c16 803f
00000010: 3328 7f3f 1e1a 803f 4797 803f 9525 803f
00000020: 8921 803f d184 803f 4215 803f bd7f 803f
00000030: 00e7 7f3f 4bcc 7f3f 028e 803f c91d 7f3f
00000040: d2c9 7f3f a81e 803f b122 7f3f 1df7 7f3f
00000050: bc33 803f a64e 7e3f 6212 7f3f 1c9a 803f
00000060: b817 803f cc67 803f c492 803f 46e2 803f
00000070: 824b 803f 200f 7f3f 3ef7 7e3f 5d84 803f
0.9957532 0.99449074 1.0065228 1.0006804 0.99670714 1.000797 1.0046166 1.0011469
1.0010234 1.0040532 1.0006487 1.0038983 0.99961853 0.999211 1.0043337 0.99654824
0.9991733 1.0009356 0.9966231 0.9998644 1.0015788 0.9933876 0.99637425 1.004703
1.0007238 1.0031676 1.0044789 1.0069053 1.0023043 0.99632454 0.9959601 1.0040394

conv2.1.bias f4 [32]
00000000: 7ed2 e73b cc17 9dbb 389f f23b 04e7 4bbb
00000010: 02a5 4c3b b705 e43b 6f39 c03b e211 373b
00000020: d22c 173b 4cda 363b a8fb f93b 887d cabb
00000030: 48af ef3b 8c61 c33b 47c7 993b 8982 2e3b
00000040: 63e8 123b 41ff a238 744e 9abb ab35 133b
00000050: f210 e03b 8e09 1f3b a7ba d839 5a29 0b3c
00000060: d02d d93b 7f1c 67bb b8de c53b d31a 5c3b
00000070: a96b e03b d865 0b3a 3293 32bb ef96 d13b
0.007074653 -0.0047940966 0.0074042343 -0.0031113038 0.0031226282 0.006958689 0.0058662216 0.0027934243
0.0023067486 0.0027901111 0.0076288767 -0.0061795153 0.0073145963 0.005962556 0.004692945 0.0026628098
0.0022416345 7.772307e-05 -0.0047090594 0.0022462409 0.0068379575 0.002426717 0.00041337797 0.008493746
0.0066277757 -0.0035264788 0.006038513 0.0033585324 0.0068487716 0.0005317605 -0.002724838 0.0063961665

conv2.1.running_mean f4 [32]
00000000: a8e7 493d f30d 60bd c224 28be b08b 333d
00000010: 1746 1c3e cc26 7bbd 7e67 b4bc 04c3 26be
00000020: 27bc 353e b18f 06bd a65d 953d 68b6 d13d
00000030: fd96 0f3d 6a6d 203c 68ff 9cbd acf0 9abd
00000040: a4d4 75bc 1394 b03c 59ca f03c 0cf0 11be
00000050: 5e48 c2bd 3cf6 3fbd 7c21 ec3d d20a f6bc
00000060: 8586 8ebd 1e2a 8c3e 5d26 adbd 829a 09be
00000070: f4d8 183e 9708 253c da54 ecbd 54e3 863d
0.04929319 -0.054700803 -0.16420272 0.04383439 0.15261112 -0.061316296 -0.022022005 -0.1628533
0.17747556 -0.03285188 0.07293253 0.10239869 0.035056103 0.009791711 -0.076659024 -0.07565436
-0.015004311 0.021554982 0.029393362 -0.14251727 -0.09486459 -0.046865687 0.11529824 -0.030034456
-0.06959251 0.27375883 -0.08454583 -0.13437846 0.14926511 0.010072849 -0.11539622 0.06586328

conv2.1.running_var f4 [32]
00000000: 76e7 f83e 7d34 103f 1bcb 6a3f a956 303f
00000010: 22da 273f c471 223f 8a79 063f 3a61 8e3f
00000020: cd48 463f 3bed 073f dd8e f53e 8414 413f
00000030: c85d f63e 046d 063f 5d2e 1c3f d4ae 083f
00000040: 98e7 173f aa45 fe3e 03a0 013f 8ce8 233f
00000050: 5255 513f 17da 113f 2a0e 833f 67bf 093f
00000060: 0b2a f03e 073c c73f 7244 113f f718 473f
00000070: 2ccc 5c3f 61cd ed3e 82c8 013f 2336 d93e
0.4861409 0.5633009 0.91716164 0.6888223 0.6556722 0.6345484 0.52529204 1.1123421
0.77454835 0.5309636 0.4796056 0.7542193 0.48118424 0.52510095 0.61008245 0.53391767
0.5933776 0.49662524 0.50634784 0.64026713 0.81770813 0.56973404 1.0238698 0.5380768
0.46907076 1.5565194 0.56745064 0.7777247 0.8624904 0.46445754 0.50696576 0.42424116

conv3.0.weight f4 [64, 32, 3, 3]
00000000: 1b6b 6a3c 282f 2fbd 4590 84bb 4c6f 2cbd
00000010: 9714 92bc ca09 fcbc 27ca db3c ed1b 263d
00000020: f96c 303d 60d1 593d d069 c33c c84d c83c
00000030: 51c6 8d3c b334 233c 40dc ac3c 7a4a 2ebd
00000040: bd99 d4bc 5a30 023d 2e81 90bc af9c 643d
00000050: 0c88 563c 6b1b 183d 9280 58bd 4adb 85bc
00000060: 2511 abbb 5b33 bf3c 41a9 fdbc 2da1 a33c
00000070: f2cb b33c 24a4 debc 01f5 ae3c 83b5 e9bc
00000080: e1d6 5cbd 30fc e739 415b 803c 2b5e 9e3c
00000090: 336d d5bc 2fe6 85bc 8614 6abd 0860 503d
000000a0: fe3d b83c d788 483d 4310 1a3d 54da 12bd
000000b0: 65cf 13bd d6db d3bc 67f4 0e3d 7719 393d
000000c0: 56f5 d3bc 5af5 42bd 5f82 863c e46b e83c
000000d0: 53e4 0cbd 6eda 1ebc ac43 c23c 8c6d 423d
000000e0: 2261 e5bb e3d9 4f3d c1da d23b bc91 62bd
000000f0: c0be 1ebb ba1a db3c e173 fb3c 6e9f 99bc
00000100: 3464 03bd 4a8c 3e3d fab6 e1bc 49a7 4bbd
00000110: bae6 093d c570 a5bb bf3b 2f3a c1d5 a33c
00000120: c4d7 5abc 4cdc 043c 1e17 6b3d 2fed aa3c
00000130: 582e 333c b4f8 e5bb acb4 57ba 8da4 af3c
00000140: 7188 00bd 4f00 e13c 2b42 f13c 785b 113d
00000150: b6fe 95bc 4ae2 cf3c 02fc e4bb 3630 80bb
00000160: 904c 243d 1ec1 273d 5ead 62bc 09a1 dcbb
00000170: f89a 243d 8a72 e6bc 5c92 50bd 90b1 3fbd
00000180: c22d 7e3d 55d0 f33c 9c4a b1bc cf9b a53c
00000190: 4be6 793d 40d3 4c3c b700 1b3d 9e4e 14bd
000001a0: 93fa 64bd 85e7 413c 2b80 eabc acb6 6a3d
000001b0: 1979 42bd 41c5 37bd 0786 a3bc f220 1e3d
000001c0: 0d69 d8bc 8413 0c3d c951 4f3d ba92 f03b
000001d0: be2e 103d bcc8 193a 34ee 493d 34bc a6bc
000001e0: ac0d a4bc b8b7 0dba 8639 9e3c 8f80 6e3c
000001f0: 927f 93bc 18a6 47bd 940d 823d eef0 c9bb
00000200: 8c7a e13c 96f4 bc3c 9aa2 1c3d 3e80 0a3d
00000210: f033 1b3d 7469 6a39 ffba 4e3c d106 ea3c
00000220: 15eb 6d3d a068 a7bc 5047 4e3d 4d44 57bd
00000230: 016f a1bb e6ac 5a3c f648 0cbd 9cfd 513d
00000240: 8957 513d a8b6 3c3d de8a 39bd 69a9 7bbc
00000250: 97a7 4a3d d0ea 08bd 01e2 8cbc 675d 203d
00000260: 53fd 623d fab6 27bd 9335 adbb ed3b 583c
00000270: f7c3 123d 75a4 40bd 07e1 43bd a338 24bd
00000280: 426c 1f3d 3880 0bbd ab8a 253d b391 353c
00000290: b5d5 febc 3c29 0bbc 836a aa3c 5c2a 563d
000002a0: c85c 713d 8266 07bd 2a87 523d b8ba 723d
000002b0: a592 63bd f3a9 273d 9d5a cdbc f698 703d
000002c0: a683 23bd 46d6 6d3d a39e 33bd 7d02 e9bc
000002d0: e10d dfb9 9b51 643d 4b12 0dbd 1c36 e7bc
000002e0: 9750 bebc b940 42bd f2ea 12bd e87f c7ba
000002f0: cbc0 623d 8c46 443d e8d4 a9bb 7d57 233d
00000300: b076 403a 6ae6 393d 8f40 f9bc 4bfd 29bd
00000310: 114a 363d 7c05 fabb 5bda 9abc 867d a9bc
00000320: 1ba6 22bd 0a3a af3c ed7e 2ebc 0d97 b23c
00000330: d5ea 963c 718c cb3c 4e5b e43c 8458 a53a
00000340: cd8a 243c 6e6e 40bc cc07 40bd 07b9 d1bc
00000350: 845b 343d 3407 803b 7858 a0bc 8fc8 203d
00000360: b1e4 23bd 96a4 2fbd f849 e5bc 3216 333d
00000370: 2d72 ab3c 998e c03c ece9 313d c18c 7d3b
00000380: bb77 1cbd aff1 523d 842e be3b 096a 373d
00000390: 938f c2bc 004d 56bd b8f0 e23c bfec 443d
000003a0: edef 553a 3806 e43c 2a90 0b3d 7ca0 75bd
000003b0: c40d 583d 180e 613d 9de3 debc f74e ec3c
000003c0: 9e16 73bd 5a1d 47bd b948 0cbd ad61 0dbc
000003d0: 2187 573c dd43 453d 2079 c2bc 46c6 06bd
000003e0: 9249 183d cbf6 913c eca6 1f3d 1e55 7e3d
000003f0: f812 543d af05 eb3c 5799 683d 6044 69bc
0.0143077625 -0.04276958 -0.0040455186 -0.04209833 -0.017832084 -0.030766387 0.026829792 0.040553976
0.043072674 0.05317819 0.023854166 0.024451151 0.017306479 0.009961295 0.021101117 -0.042551495
-0.025952214 0.031784393 -0.017639723 0.055813488 0.01309396 0.037135523 -0.05285699 -0.016339917
-0.0052205496 0.023339918 -0.030964496 0.019974316 0.021947835 -0.027177878 0.021357061 -0.028528934
-0.053915862 0.00044247648 0.015668513 0.019332012 -0.026053047 -0.016345112 -0.05714848 0.050872833
0.022490498 0.048958626 0.037613165 -0.035852745 -0.03608646 -0.025861662 0.03490105 0.0451903
-0.025873821 -0.047597267 0.016419588 0.028371759 -0.034397434 -0.009695632 0.02371391 0.047467753
-0.0070001045 0.050744902 0.006434769 -0.055314764 -0.0024222583 0.026746143 0.030694904 -0.01875278
-0.032077983 0.04652051 -0.02755307 -0.049720082 0.033667304 -0.0050488436 0.0006684623 0.019999387
-0.013357107 0.0081091635 0.057395093 0.020865051 0.010936342 -0.007018173 -0.00082285213 0.021440769
-0.03138012 0.027465967 0.029450497 0.035487622 -0.018309932 0.025376458 -0.0069880495 -0.003911997
0.04011208 0.040955655 -0.013835279 -0.006733064 0.040186852 -0.028130788 -0.05092083 -0.046800196
0.062055357 0.029762426 -0.021642022 0.020215897 0.06101064 0.012501538 0.03784248 -0.036207788
-0.05590303 0.011834984 -0.028625568 0.057303116 -0.04747877 -0.04486585 -0.01996137 0.038605638
-0.02641728 0.0341983 0.050615106 0.00734171 0.035200827 0.00058663986 0.049299434 -0.020353414
-0.02002605 -0.00054060994 0.019314539 0.014557018 -0.018005166 -0.048742384 0.06350246 -0.0061627543
0.027524255 0.023065846 0.038241006 0.033813708 0.03789133 0.00022355263 0.0126178255 0.028567703
0.05808552 -0.020435631 0.050360978 -0.05255537 -0.004926563 0.013346886 -0.03424927 0.05126725
0.05110887 0.046072632 -0.04529845 -0.015360215 0.049476232 -0.03342706 -0.01719761 0.039151575
0.05541737 -0.040945984 -0.0052859276 0.013197881 0.035831418 -0.04703184 -0.047822025 -0.040093075
0.038921602 -0.034057826 0.040415447 0.011082101 -0.031107763 -0.008493718 0.020802742 0.05228649
0.058926374 -0.033056743 0.051398434 0.0592601 -0.055559773 0.04093356 -0.025067622 0.058739625
-0.03992047 0.058065675 -0.04385246 -0.02844357 -0.00042544215 0.055741888 -0.034441274 -0.028224044
-0.023231788 -0.047425006 -0.035868593 -0.0015220614 0.055359643 0.04791884 -0.005182851 0.039878357
0.00073419046 0.045385756 -0.030426292 -0.041501325 0.04450423 -0.0076300483 -0.018902948 -0.020689737
-0.03970919 0.02138998 -0.010650379 0.021800542 0.018422524 0.024847241 0.027875569 0.0012614881
0.010042858 -0.0117450785 -0.046882436 -0.025600923 0.04403259 0.0039071087 -0.019573435 0.039253768
-0.04001302 -0.04288157 -0.027989373 0.04372234 0.020928467 0.023505496 0.043435976 0.0038688632
-0.03820012 0.05150002 0.005803885 0.044778857 -0.023750102 -0.052319527 0.027702674 0.04807734
0.0008161057 0.027834997 0.034073032 -0.059967503 0.052747503 0.05494508 -0.027208144 0.028846247
-0.05934774 -0.048611976 -0.03424904 -0.008629245 0.013154776 0.048160423 -0.023739398 -0.032903932
0.037179537 0.017817875 0.03897755 0.062092893 0.051775903 0.028689234 0.05678686 -0.014237493

conv3.0.bias f4 [64]
00000000: 0fff 02bd 729e 443d 035b 713c f874 133d
00000010: 1bbc 5c3b 90ea aebc 51f2 45bd 1fd1 2c3d
00000020: 9401 ad3c 7bbb f83b bb17 46bd 2663 03bd
00000030: edfd 5d3d 8e53 1ebd d499 253c 6360 503c
00000040: 7175 a6bc d75b 6b3d 95e9 da3c a3f1 073d
00000050: 5ef2 9c3c f5b9 1f3d 86b7 5c3c 3406 63bd
00000060: e76b c4bc 3873 4ebc 819c 823b 284d 6c3d
00000070: ff11 3ebd d11a 32bb 89dc cb3c 537e 3dbd
00000080: 8419 82bc 0399 0f3d 810d 273d 97c3 63bd
00000090: 111a 89bc 6e63 5cbd 9b6c 0dbc 4032 3c3d
000000a0: 325c 22bc ad35 48bb 642a 693d ba94 4bbd
000000b0: 2368 6139 918b 01bd b012 33bd 6758 483d
000000c0: 953b 93bb d6e9 05bd b219 10bd df15 75bc
000000d0: 57d3 2a3d 2ed7 19bc 98cd 6a3d 169f b1ba
000000e0: 4198 883b 8174 1f3d b6ac 5b3d 1bc6 70bb
000000f0: f4bb 413d 3eaf 193d 2f37 55bd 778d 323d
-0.031981524 0.048002668 0.014731172 0.036000222 0.0033681456 -0.021352082 -0.048326794 0.04219162
0.021118917 0.007590709 -0.048362475 -0.032076977 0.05419724 -0.038653903 0.010107476 0.012718293
-0.020319672 0.057460632 0.026722709 0.033189427 0.019158538 0.0389957 0.01347149 -0.055425838
-0.023977233 -0.0126007125 0.003985942 0.05769077 -0.04640388 -0.0027176628 0.024885433 -0.04626305
-0.015881307 0.035058033 0.040784363 -0.05560645 -0.016736062 -0.05380576 -0.008631851 0.04594636
-0.009909676 -0.0030549571 0.056925192 -0.049702384 0.00021496466 -0.03162724 -0.043718994 0.048912432
-0.0044931867 -0.032693706 -0.035180755 -0.014958828 0.041705456 -0.009389682 0.057324976 -0.001355144
0.0041685407 0.038929466 0.053631507 -0.0036739174 0.047298387 0.03752064 -0.05205458 0.043591943

conv3.1.weight f4 [64]
00000000: 0542 7e3f 8e06 813f 1044 803f 699b 7f3f
00000010: 9e82 7e3f f0bc 803f d88f 803f 5440 803f
00000020: a6c9 7f3f c580 803f 1f96 803f 6116 7f3f
00000030: 8f4b 803f 652b 7f3f 289d 803f 0c1c 7e3f
00000040: 0580 803f d69a 7e3f 823a 803f f95f 7f3f
00000050: da0c 7f3f 8f2e 803f ce09 813f 8c9d 7f3f
00000060: bd64 803f 7b8c 803f 9a92 7e3f 7541 7f3f
00000070: b2e8 803f 183c 803f 0e42 803f 2cb5 7f3f
00000080: a2f2 803f 0098 7e3f 4e05 803f cacf 7f3f
00000090: 890b 813f cd7c 803f 7d63 7f3f 3a57 7f3f
000000a0: 3dc2 7f3f 6f02 813f 23a0 7e3f 89c2 803f
000000b0: 3103 7f3f 6f45 7f3f 11af 7e3f 42c2 803f
000000c0: d5f1 7e3f 9778 7f3f 5154 803f 225c 803f
000000d0: 276b 7e3f 5070 7e3f 6129 803f 0127 803f
000000e0: ef1f 803f da85 803f 5f52 803f ac3d 7f3f
000000f0: cff6 803f 6198 7f3f c831 7f3f 134f 803f
0.9931949 1.0080125 1.0020771 0.9984651 0.99418056 1.0057659 1.0043898 1.0019631
0.99917066 1.0039297 1.0045813 0.9964352 1.0023059 0.9967559 1.004796 0.99261546
1.0039068 0.9945501 1.0017855 0.9975582 0.99628985 1.0014209 1.0081117 0.9984977
1.0030743 1.0042871 0.99442446 0.99709255 1.0071013 1.0018339 1.0020158 0.9988582
1.0074046 0.99450684 1.0001619 0.99926436 1.0081645 1.0038086 0.9976118 0.9974247
0.9990576 1.0078868 0.994631 1.0059367 0.99614245 0.9971532 0.9948588 1.0059283
0.99587756 0.9979338 1.0025731 1.0028117 0.9938225 0.99390125 1.0012628 1.0011903
1.0009745 1.0040848 1.0025138 0.9970348 1.007532 0.99841887 0.99685335 1.0024132

conv3.1.bias f4 [64]
00000000: 6581 f63b 4be9 023c 1424 e6bb 0a64 12bb
00000010: 544c e43b d24e 333a 5277 9d3a e7ad 833b
00000020: 4b74 56bb b3f4 e03b 1197 013c 8f06 f5ba
00000030: 2ccd 31b9 e81e 1738 d2f2 c23a fd3b 9bbb
00000040: b67e e83b 6f74 dfbb fecd 19b9 dbcc 2cbb
00000050: fb07 abba 406d 29ba 977e 023c 6039 2bba
00000060: 4932 a13b 54a8 ed3b f18e c9bb 1260 67bb
00000070: de1c 043c 147e 8bbb 08b5 8a3b 1ae2 d0b9
00000080: 3db1 e93b 3505 88bb b4a3 6c3b 2ba7 42bb
00000090: cc38 f23b ce6b d33b 1f92 953a 4b74 ac3a
000000a0: f4cc 8cbb 71fa fc3b 792c 91bb 6cc6 b03b
000000b0: fb8a b53b be63 96bb c726 7fbb 255c ad3b
000000c0: 29f5 bcba 3873 06bb 4d0b 943a d8a2 e43b
000000d0: bc6d 9abb 5310 6e3b 0334 6d3b 52fb 92bb
000000e0: 15e1 e239 f98a ca3b 472f b5ba 9d77 ddba
000000f0: 8aa8 c63b 04ed 273b ccfd d7b9 aef5 e73b
0.0075227492 0.007990192 -0.007023344 -0.002233746 0.006967107 0.0006840053 0.001201371 0.0040185335
-0.0032723125 0.006865108 0.007909552 -0.0018693971 -0.00016956468 3.602999e-05 0.0014873391 -0.004737376
0.0070951832 -0.0068193 -0.00014667955 -0.002636722 -0.0013048643 -0.0006463118 0.007964752 -0.0006531682
0.0049193245 0.0072527323 -0.006151073 -0.0035305065 0.008063523 -0.004256973 0.0042330064 -0.0003984131
0.007131724 -0.0041510114 0.0036108317 -0.002970169 0.0073920246 0.0064520603 0.0011411345 0.0013157217
-0.0042968933 0.0077202846 -0.0044303504 0.0053947475 0.0055402494 -0.004589527 -0.0038933025 0.0052905255
-0.0014416325 -0.0020515453 0.0011294872 0.0069774203 -0.0047127884 0.0036325648 0.0036194331 -0.004485526
0.00043273778 0.0061811176 -0.0013823294 -0.001689661 0.006062572 0.002562345 -0.0004119709 0.007078848

conv3.1.running_mean f4 [64]
00000000: 2b57 513e 74c1 8abe e2bf 163e 62d1 873c
00000010: 5a7f a7bc 42a1 05bd 6c9d 80be 7fd4 253e
00000020: 3d9d bfbe 66d4 6bbd 2fcd 96be a216 d63c
00000030: 0194 263e 6c3d 40bd 951f 483d 2680 793e
00000040: adf4 2e3e eb3a febc 1524 6ebe dff3 12bd
00000050: ef5b 87bd 9119 623e 7e94 36bd d585 44bd
00000060: 03c6 8fbe b7e6 823d 0fe0 b5bd 8a07 7cbe
00000070: b886 e2bd 1881 1d3e 76ff 0b3d 60ad 423d
00000080: 9aff 62bd d014 dc3d 06f1 db3d f494 ccbd
00000090: 7017 0bbe 71ed 87bc 1571 a33b b212 8cbd
000000a0: dabb 8cbc a208 82be 1c8d be3d cd6f 72bd
000000b0: 7488 2a3c da41 5abc 6d43 0dbd 3574 643c
000000c0: f033 06be 777b bebd ec67 0dbe 85df fdbd
000000d0: 12e7 683d f64a a13d 2b5a 5cbe 0683 9b3d
000000e0: 165f dc3d 2934 23be 0287 3d3e 268f 123b
000000f0: c4cd 2dbe a658 b9bd f699 13bc fa5f d7ba
0.20443408 -0.27100718 0.14721635 0.016579334 -0.020446468 -0.03262449 -0.25120103 0.16194342
-0.3742465 -0.057575606 -0.29453418 0.026133839 0.16267397 -0.046933576 0.048858244 0.24365291
0.17085524 -0.031033954 -0.23255952 -0.035877105 -0.06609332 0.22080065 -0.044575207 -0.047979195
-0.28080758 0.063916616 -0.088806264 -0.24612251 -0.11060852 0.15381277 0.034179173 0.047528625
-0.055419542 0.10746157 0.10739331 -0.09989348 -0.1358316 -0.016592713 0.0049878457 -0.06839503
-0.017179418 -0.2539721 0.09304258 -0.059188653 0.0104085095 -0.013321364 -0.03448813 0.013943722
-0.1310575 -0.09300893 -0.13809174 -0.123961486 0.05686099 0.07875626 -0.21518771 0.0759335
0.10760324 -0.15937866 0.18508533 0.0022363155 -0.16973025 -0.090501115 -0.009008875 -0.0016431801

conv3.1.running_var f4 [64]
00000000: c884 7e3f dfd3 b33f 81e7 2f3f e3dc d33e
00000010: 9b3f d73e fe6c e03e ee46 4a3f 7d65 0b3f
00000020: 8a2f f63f 11dc c73e cfe9 953f af28 f53e
00000030: 61b3 393f d1ef 043f 5981 db3e 017d 843f
00000040: aea2 4f3f 985e f93e 0072 8d3f 83c7 023f
00000050: 4ebb e83e 2f69 353f 98da f83e 7acb f03e
00000060: 6a91 773f 50c8 423f c95b 3c3f 29fe 9b3f
00000070: 4775 e83e 29a3 273f 3e6f cf3e 0d24 203f
00000080: f85c 143f 2aed 0e3f 70a2 083f 60b1 0c3f
00000090: c43c 3a3f 837f dc3e a156 c53e 53ad 2d3f
000000a0: 94b1 073f 0452 8b3f 49dc 113f 4a3b f63e
000000b0: fbea d03e c043 0c3f 6343 e33e 31b2 ea3e
000000c0: 2cf0 353f 0a2d 0a3f 58d0 063f edec 603f
000000d0: cc18 ed3e 6294 eb3e 0f03 8b3f 12aa 1e3f
000000e0: 9195 333f c915 663f 2833 153f 7644 f43e
000000f0: f29e 303f 57a2 343f 0581 e33e 9188 f73e
0.9942136 1.4049033 0.6871262 0.4137946 0.42040715 0.43833154 0.7901448 0.54451734
1.9233258 0.39035085 1.1711978 0.47882602 0.72539335 0.5192843 0.42872122 1.0350648
0.81107605 0.48704982 1.1050415 0.5108568 0.45455402 0.7086362 0.48604274 0.4703024
0.9670626 0.760869 0.73577553 1.2186939 0.45401976 0.6548334 0.4051456 0.6255501
0.5795436 0.55830634 0.5337286 0.5495815 0.7274897 0.43066034 0.38542655 0.67842597
0.5300534 1.0884404 0.56976753 0.4809211 0.40804276 0.5479088 0.4438735 0.45839074
0.710696 0.53974974 0.5266166 0.8786152 0.4630798 0.46011645 1.0860308 0.61978257
0.70150095 0.8987699 0.58281183 0.47708482 0.6899253 0.7056021 0.44434372 0.4834638

conv4.0.weight f4 [128, 64, 3, 3]
00000000: a7d2 00bd 59e1 4d3c 5793 023b 0fe5 b73a
00000010: b7b6 e63c 8ae2 08bd 8a0c 02bd 784c fdbb
00000020: beab de3c c84b a93a 1861 3fbd 1507 20bd
00000030: 74a4 b63c cc74 5a3c 1314 adbc ac1d 89bc
00000040: e185 d2bb f261 b0bb d85b 9bbc be99 fd3c
00000050: e656 573c 7917 1d3d 5090 e13b fa4a 613c
00000060: b0a9 293c 2a9c 16bd 34f5 1d3d 7a37 9c3c
00000070: 6387 983c 4722 4dbc 1b2f cf3c c8c1 dbbc
00000080: 3a06 4b3c 77f4 c33c 38a8 eb3c e647 0fbc
00000090: 152e 5fbc 6539 a5bb 4cef fe3c a06e a8bb
000000a0: fb6f af3b 819b 7cbc e1dd 52bc a885 5dbc
000000b0: eefd 163d 03ec e03c baf0 54bc d8da 04bd
000000c0: 7282 f0bc 5f97 b4bc 3893 01b8 a619 f0bc
000000d0: dac6 e33b 2e1a 9f3c 6e19 72ba c812 58bc
000000e0: 2b8c 003d 5615 d5bc 3c0c 363d f97a ddbb
000000f0: 62ad f0bc 46be 673a 4c58 0cbd 3b15 373d
00000100: 9919 e43c 0e4c babb ea5d bfbc 104f 72bb
00000110: 0a67 c5bb b77e 083d e350 a03c 137c cd3b
00000120: 044e 1cbd 44d8 c6ba d5e2 143c 7411 d83c
00000130: 5ec4 b23c 2774 d8bc 7ff5 9ebb d82b eebc
00000140: 755c a63b 8231 2dbd a7e2 833c 6525 18bd
00000150: e5cb 7c3a c748 b2bb 0d1e 26bd b451 6a3c
00000160: f28b afbc a5a3 37bc 9237 0abd 03e9 bebc
00000170: a7d0 3ebd 6e97 fdbc 9cf2 babc 1053 543c
00000180: ee76 c3bb a13e a33c b036 0c3d 5f4b a33b
00000190: 357d fa3c e515 e8bb 18e7 e5bc 0c7b c7bc
000001a0: 0e08 d4bc e307 debc c624 113d cea5 b53c
000001b0: 932c 98bc 2650 003d 6cb3 d4bb 94c4 983c
000001c0: 326d bbbc 77e9 ab3b 78fd 3a3b 6a36 38bc
000001d0: 0bbc febc dbd0 a5bc 82a9 213d 5d82 2d3c
000001e0: d0b9 8e3c 08d1 35bc 08dc 033d 5ed3 07bd
000001f0: ecf2 e8bc b27c 343d cc9b b8bc 8587 323d
00000200: 83de 273c 0aa7 01bd 8219 d4bc 697f 02bc
00000210: 32b7 17bd a9cb 73bc 39f7 ae3c 194a c83b
00000220: 0ee3 cebb 1a97 333d fe3a 01bd 27e9 d3bc
00000230: ec4c 76bc 35e1 19bd dad7 05bd fc90 5dbc
00000240: 8929 d83c c8fa f93c e60d 913c 7c12 17bd
00000250: 2f52 703c eaf6 1bbd 2502 9fbc 1ce0 bc3c
00000260: 65a2 0fbc d921 c6bb 008b 8e3c 73de 3dbc
00000270: e35a b53c 757a 15bd 3b06 08bd a66d c83b
00000280: c1f3 0fbd 31fb 043d 2d1d d4bc 2147 bbbc
00000290: a37c 03bc cbc5 96bb 0d64 01bd 8c04 f2bc
000002a0: 1a72 943c d736 063d 7acc 8b3c 6cef 313c
000002b0: 5cd9 8e3c c291 ac3a 1d18 b63c 35ec f6bc
000002c0: 3aba 8bbc f30a d9bb 8f6a a23c 1a6f 90bc
000002d0: 26d3 1a3d 86fc ae3c 2e30 fc3a a1dd 0d3d
000002e0: 9c3e 133d 6c45 e63b e299 8c3b 078c 183d
000002f0: c81b 153c 188e 8b3b d102 f43b 84c2 b9bc
00000300: 9d61 16bd c15f 76bc bcef 163d 9526 173d
00000310: 01aa 553b 78ec b63c 4ba3 3ebd 705d c5bc
00000320: d437 85bc 10cc c838 e924 833c 23c7 10bc
00000330: 9932 fd3c d308 123d a5f3 0dbd f335 f23c
00000340: daab 97bc 8475 263d e4f1 293c 779f cb3c
00000350: b5ff 2a3d bc7e 06bc a09a 47b7 8d77 d83c
00000360: 299c 0b3b 9dfb c33c 4e5d 883a f12e f13b
00000370: 8f03 f93c 3ca0 1abd a4dd 0fbd be20 cc3c
00000380: 4a94 c43b 74cb cabc 2499 98b8 ae56 bebc
00000390: 9dcb 0cbd 720d de3c e3a5 2a3d 1949 75bc
000003a0: d933 12bd 9fbe 0bbd 5fa5 fb3b ebe7 013d
000003b0: 2f99 33bc b633 dabb 79b8 ed3c 8e83 243d
000003c0: fab8 0a3d eb0d 1f3d 0814 0a3d 9315 1fbd
000003d0: ca0b 09bd 0d9d f63c 755a d83c a1c1 10bd
000003e0: 4f0c a0bc 8716 f93c 6021 513c c0ca 1fbd
000003f0: 75aa eabc bf23 c43c 4b19 15bd a759 53bb
-0.031450894 0.012565934 0.0019924247 0.0014030057 0.028163297 -0.03341917 -0.03175024 -0.007730063
0.027181502 0.0012916261 -0.046723455 -0.039069254 0.022295214 0.013333511 -0.021127736 -0.016737781
-0.006424651 -0.0053827697 -0.018964693 0.030957099 0.013143277 0.038352463 0.0068836585 0.013750786
0.010355398 -0.036770023 0.038563922 0.019069422 0.018619245 -0.012520379 0.025291016 -0.0268258
0.012391621 0.02392028 0.028766736 -0.008745169 -0.013621827 -0.0050422424 0.031119965 -0.0051401407
0.0053539253 -0.015417934 -0.012870283 -0.013520636 0.03686326 0.02745629 -0.012996847 -0.03243527
-0.029359076 -0.022044836 -3.0893105e-05 -0.029309105 0.006951195 0.019421663 -0.00092353567 -0.013188072
0.031383675 -0.02601115 0.04444526 -0.0067590442 -0.02937955 0.00088403036 -0.034263894 0.04469798
0.027844237 -0.005685336 -0.023360211 -0.0036973394 -0.006024246 0.03332397 0.01956982 0.0062708943
-0.03816034 -0.0015170653 0.009087284 0.02637551 0.02182215 -0.026422573 -0.0048510428 -0.02907364
0.0050769397 -0.042283542 0.016099287 -0.037145037 0.000964342 -0.0054408046 -0.040556002 0.014301706
-0.021429036 -0.0112084495 -0.033744402 -0.023304468 -0.046585705 -0.030955996 -0.022820763 0.012959257
-0.0059651053 0.019927325 0.03423184 0.00498335 0.030577281 -0.007082688 -0.028064296 -0.024350666
-0.025882747 -0.02710337 0.03543546 0.022173788 -0.018575942 0.031326436 -0.0064911153 0.018648423
-0.022879217 0.005246337 0.0028532427 -0.011243442 -0.031095525 -0.020241192 0.039468296 0.010590163
0.017422587 -0.0110972 0.03219226 -0.03316056 -0.028436147 0.04406423 -0.022535227 0.043586273
0.010245922 -0.03165344 -0.02589107 -0.007964947 -0.037039943 -0.014880099 0.02135812 0.0061123488
-0.006313688 0.043845274 -0.0315504 -0.025868012 -0.015032988 -0.03756829 -0.032676555 -0.0135233365
0.026386993 0.03051509 0.017706823 -0.036882862 0.014668032 -0.038077272 -0.019410202 0.023056082
-0.008766745 -0.0060465154 0.017400265 -0.011588681 0.022138065 -0.036493737 -0.033209067 0.0061165867
-0.03514457 0.032466117 -0.025892818 -0.022861065 -0.008025321 -0.0046012155 -0.031589556 -0.029543184
0.018120814 0.032767143 0.017065275 0.010860305 0.01743763 0.0013165998 0.022228295 -0.03014193
-0.017056573 -0.0066236197 0.019826202 -0.017631102 0.037799023 0.021360647 0.0019240433 0.03463519
0.03594838 0.0070273187 0.004290805 0.037242915 0.009100862 0.0042588823 0.007446625 -0.02267576
-0.036714185 -0.015037478 0.036849722 0.03690203 0.003260255 0.022329554 -0.046542447 -0.024092406
-0.016261972 9.574753e-05 0.016008811 -0.00883654 0.030907916 0.035652947 -0.034656186 0.02956674
-0.018514562 0.040639415 0.010372613 0.024856312 0.041747767 -0.008208927 -1.1897326e-05 0.026424194
0.0021302796 0.02392369 0.0010403784 0.007360332 0.030397205 -0.037750468 -0.035123482 0.024917956
0.0059991227 -0.024755217 -7.2764495e-05 -0.023234691 -0.03437387 0.02710602 0.04166211 -0.014971041
-0.035693977 -0.034117337 0.007679626 0.031715315 -0.010961815 -0.0066589965 0.029018627 0.040164523
0.033867814 0.038831633 0.03371051 -0.038838934 -0.03345851 0.030104185 0.02641032 -0.03534091
-0.01953712 0.03040625 0.012764305 -0.039011717 -0.028645733 0.023942826 -0.036401074 -0.0032249482

conv4.0.bias f4 [128]
00000000: 04df 933c bc15 1fbd 44d2 09bd e8dd 7dbc
00000010: 05c6 9e3a 356a d2bc c3d1 a6bc b3aa 16bd
00000020: 3517 1dbd 6e54 0bbd db84 043d 16ec 613a
00000030: b65e b83c 1b39 2c3b 1ff3 03bd bae6 d4bb
00000040: 8145 ca3b d87e edbc 54da 6ebb e6e2 e539
00000050: 2213 b2bc 07ce 15bd 9ad7 333c b7fd ba3c
00000060: 482d 71bc 149f c83c 4fcb 2b3b b324 17bc
00000070: ce40 9cbc 4788 173c 4f3f 2bbc 847c cd3c
00000080: bbde ef3c 1f4e d7bc aed8 2abd c6a3 293b
00000090: 00c6 8abb 2dd0 25bd b6c0 a2bc a01d a43c
000000a0: d2b7 113d bb52 0bbd 44c1 133d 9c32 cdbc
000000b0: 793c 8c3c 9c2d b23c c1c8 5bbc 066d 8d3c
000000c0: e18f e439 6ca6 a83c 2317 c63a 0f76 d6b9
000000d0: 9258 c23c 4383 053d 5c4c 503c bfa2 b9bc
000000e0: c7db 13bd 8e13 f13c b21c 96bc bfec 0fbd
000000f0: 4aeb e93c 52b8 03bc bdbf d33c 1f1d eebb
00000100: 750a 13bc fdd7 25bd 7523 37bc 7f13 b4bc
00000110: cc0e 66bc 1231 8bbc 9df3 d23c 3941 e13c
00000120: 7af4 bb3c a3c8 c83c 48ea 873c 40f7 ebbc
00000130: bfc7 b53c 0b61 b03c 8230 e63c 22c4 ca3b
00000140: f04f d93c eb54 69bc ca8e 263d fda6 efbc
00000150: b8ba 9d3c 78c4 19bd b102 80bc 85f9 8c3c
00000160: 22c8 553a 3d74 173d 6324 57bc 1f16 9abb
00000170: 5942 e63c de2a 1a3c b5fc 8abc 963b 223d
00000180: f92d 843c fa65 a0bc af4f b239 8d35 e0bc
00000190: e0f4 273d a603 24bc 2207 293c 01c9 ffbc
000001a0: 86a5 04bb 2012 07bd 125c 38bc dc78 0b3d
000001b0: 5e93 123d 8347 123d 3a5a 053d fa34 143d
000001c0: ffe0 a6bb 4235 bfbc 828e d9bc 38f5 0a3d
000001d0: c0f5 093d e5a7 babc a740 de3c cdfd ad3a
000001e0: c1c2 f43b 982b 15bd a175 fd3c 057b 223d
000001f0: 6a3f 203d 778e 333b 6fc3 12bb a386 26bd
0.018050678 -0.038839087 -0.03364779 -0.015494801 0.0012113458 -0.02568541 -0.020363694 -0.036783885
-0.03835221 -0.034016065 0.032353263 0.00086182484 0.0225061 0.0026279155 -0.03221428 -0.0064972313
0.0061728363 -0.028991148 -0.0036446052 0.00043847336 -0.021737639 -0.036573436 0.010976696 0.022826059
-0.014720269 0.024489917 0.002621371 -0.009225058 -0.01907387 0.0092488 -0.010452106 0.025083788
0.02928101 -0.026282368 -0.041710548 0.002588497 -0.004235029 -0.040481735 -0.019867282 0.020033658
0.035575695 -0.034014445 0.036072984 -0.025048546 0.01711868 0.021750264 -0.013414563 0.0172639
0.00043594747 0.020587169 0.0015113096 -0.0004090522 0.023723874 0.032595884 0.012713518 -0.022660611
-0.036098268 0.02942827 -0.01832423 -0.035137888 0.028554577 -0.008039551 0.025848264 -0.007266655
-0.008974661 -0.040489186 -0.011177887 -0.021981953 -0.014041614 -0.016991172 0.02575093 0.02749692
0.022943724 0.024509734 0.016591206 -0.028804421 0.022189973 0.021530649 0.028099302 0.0061879316
0.026527375 -0.014241437 0.040663518 -0.02925443 0.019254074 -0.037540883 -0.015626283 0.017208824
0.0008155127 0.036976088 -0.013131234 -0.004702344 0.028107809 0.009409634 -0.016966203 0.039607607
0.016135203 -0.019579876 0.00034010175 -0.027369285 0.041005015 -0.0100106355 0.010316642 -0.031223776
-0.0020240261 -0.03297627 -0.01125242 0.034050807 0.03578507 0.03571273 0.03255675 0.036183335
-0.0050927396 -0.023340825 -0.02655721 0.033925265 0.03368163 -0.022785136 0.027130438 0.0013274491
0.0074695055 -0.036418527 0.030939879 0.0396681 0.039122976 0.0027398148 -0.002239432 -0.040655743

conv4.1.weight f4 [128]
00000000: f2ef 803f aa12 803f becf 7f3f bbd3 803f
00000010: bd02 803f ddc7 7e3f b8d5 803f f546 7f3f
00000020: 6bc0 803f 2740 803f 0a6b 7f3f e298 7e3f
00000030: 5fd8 803f 1b96 803f f38c 803f 410f 813f
00000040: ba92 7f3f 2745 803f 3936 7f3f 7032 7f3f
00000050: 2157 803f a103 803f 69e2 7f3f 5634 803f
00000060: 698b 7f3f 5a71 803f cbf7 7f3f 07e7 803f
00000070: eac4 803f 28a2 7f3f 49cd 7e3f b9b0 803f
00000080: ce27 7f3f 1361 803f 712a 803f c159 7f3f
00000090: 13b6 803f 379e 803f 69fd 803f 953b 803f
000000a0: 66a9 803f e951 7f3f f7e1 7f3f e852 803f
000000b0: f453 803f cef6 803f d993 7f3f 87bd 803f
000000c0: b7f1 803f bb21 7f3f de33 803f 691c 803f
000000d0: 8473 7f3f 51dc 7f3f 070a 803f 8caf 803f
000000e0: 04d1 7e3f b05f 803f 6dc1 7e3f 89b0 803f
000000f0: 6a0f 7f3f 6ea1 7f3f cb0c 803f ed84 803f
00000100: 2177 803f 1b8a 803f f246 803f 846d 803f
00000110: e67f 803f 9098 803f 10a6 7f3f c879 7f3f
00000120: 9171 803f 0528 803f 3d3e 7f3f 3e08 803f
00000130: dc5b 7f3f 514f 7f3f 0eae 7f3f 5e04 7f3f
00000140: 7a06 7f3f 2e6e 7f3f 96a3 803f 5e3f 803f
00000150: ccf7 803f dd53 803f 318d 803f 581f 803f
00000160: 009f 803f 0472 7f3f 857b 803f 6015 803f
00000170: 7058 7e3f 3801 803f 4e8f 803f c790 803f
00000180: 4503 803f aa95 803f 3900 813f f862 803f
00000190: 1110 803f 2896 803f 5b58 7f3f b1d5 7f3f
000001a0: 354b 803f 6ed1 803f c763 803f 0f0d 813f
000001b0: 7b01 813f b014 813f 8902 803f a653 803f
000001c0: 5e1d 803f 5987 7f3f fff5 803f d9ce 7f3f
000001d0: 59f3 7f3f 63ce 803f edf7 803f 697d 7f3f
000001e0: abbd 803f b242 803f e2cf 803f e2bc 803f
000001f0: be64 803f 2384 803f 0701 803f 7d61 803f
1.0073225 1.0005696 0.99926364 1.0064615 1.0000836 0.9952372 1.0065222 0.99717647
1.0058721 1.0019578 0.99772704 0.9945203 1.0066031 1.0045809 1.0043014 1.008278
0.9983326 1.0021104 0.9969211 0.99686337 1.002659 1.0001107 0.9995485 1.0015972
0.998221 1.0034592 0.9998748 1.0070504 1.0060093 0.99856806 0.9953199 1.0053931
0.9967011 1.0029625 1.0012952 0.9974633 1.0055565 1.0048283 1.0077335 1.0018183
1.0051696 0.9973436 0.9995417 1.0025301 1.002562 1.0075319 0.9983497 1.0057839
1.0073766 0.99660844 1.0015829 1.000867 0.9978564 0.9994555 1.000306 1.0053573
0.9953768 1.0029202 0.99513894 1.0053874 0.99632895 0.998557 1.0003904 1.0040566
1.0036355 1.0042146 1.0021651 1.0033422 1.0039032 1.0046558 0.99862766 0.997952
1.0034658 1.0012213 0.99704343 1.0002515 0.9974954 0.997304 0.9987496 0.9961604
0.9961926 0.99777496 1.0049922 1.0019338 1.0075622 1.0025593 1.0043088 1.0009565
1.0048523 0.9978335 1.0037695 1.0006523 0.99353695 1.0000372 1.0043733 1.0044183
1.0000998 1.0045674 1.0078193 1.0030203 1.0004903 1.0045824 0.99744195 0.9993544
1.0022951 1.0063913 1.003045 1.008211 1.0078577 1.0084438 1.0000774 1.0025527
1.0008962 0.998159 1.0075072 0.99925 0.99980694 1.0062984 1.0075661 0.99800736
1.0057882 1.0020354 1.0063441 1.0057642 1.0030744 1.0040325 1.0000314 1.0029751

conv4.1.bias f4 [128]
00000000: f88b db3b 8a3f 8c3a 42f7 1c3a 2fff df3b
00000010: ddba d0bb 9da3 9dbb 81d4 bf3b b493 9bba
00000020: 1df3 34ba 1c9c d13b 8452 9bbb d7c2 c7bb
00000030: 070a e53b e8a2 053b 10b3 d43a 5a25 013c
00000040: 138a 78bb a1d5 e4ba b7d5 aabb 68f1 5f3a
00000050: 20f3 f13b 0a56 013c 83c7 8dba 1550 0b3b
00000060: 068a 5b3b ef34 883b 1bc3 8a3b b848 a33b
00000070: 5e85 ba3b fe2d 6c3b 34b8 afbb f61e a8bb
00000080: a8b2 8dba dc89 fdbb 651c cb3b 3f25 f4bb
00000090: f652 81b9 dc7b 013c 9c47 f83b 8653 79b9
000000a0: dda8 66bb ff66 a0bb b843 e1bb d080 e2bb
000000b0: f3c4 dfbb 3a6e dd3b b2fe 893a 2a79 f13a
000000c0: 55b8 f83b 4627 9fbb 22b0 bebb bc4a 773a
000000d0: b84c 873b 21a6 e23b 2753 a53b 1063 023c
000000e0: a208 9fbb 6f58 a8b9 ae91 d4bb 34aa 103b
000000f0: 1f5b 67bb d195 8ebb 3b74 d8bb 674b 493b
00000100: ce8a ff3b 388d 9e3a c0f2 b03a b71f 903a
00000110: 2864 06bb b4be 6fbb b1cd a53a d83d b73a
00000120: 3a43 013c 9a72 c3bb 978b a8ba ed1a 9ebb
00000130: 1d25 6dbb b074 08bb 36cc 1b3a 00c9 78bb
00000140: aedb b9ba be99 003a 3c22 013c 406b 31b7
00000150: 4bfe acba 41ad d3ba b7d0 8f3b d877 cfbb
00000160: e62c b2bb 5a65 0b3a 35d7 0d3a 5bcb d6bb
00000170: edae e5bb cc17 9fba af94 203b 6ee1 ec3b
00000180: 25fe 84bb 70fe a83b 8836 ed3b 7f67 7dbb
00000190: 6dd7 e33a 02eb ed3b 759d d9ba a47c bb3b
000001a0: be03 30bb d89c ee3b 2f50 353b 5cdc ef3b
000001b0: 9434 f9b9 b7ad 7a3b 8eeb b3bb cbf7 7439
000001c0: 63c9 033c 97c0 76bb d475 703b 7e84 a33b
000001d0: 971d fbba cc60 633b fa96 df3b bcb6 db3b
000001e0: 206a 113b 520a cfbb 013f 5e3b fbec 0ebb
000001f0: 82f4 c5bb 5f59 f33b 5230 9ebb f1fd 2dbb
0.006700035 0.0010700088 0.0005987772 0.00683584 -0.006369932 -0.004810764 0.00585419 -0.001186958
-0.0006902682 0.0063967835 -0.0047400612 -0.0060962248 0.0069897207 0.002039129 0.0016227681 0.00788244
-0.0037924096 -0.0017458686 -0.005213465 0.0008542747 0.007383719 0.0078940485 -0.0010816905 0.002125745
0.0033499016 0.004156701 0.004234684 0.004983034 0.005692168 0.0036038156 -0.005362535 -0.005130644
-0.001081069 -0.0077373814 0.0061984533 -0.007450729 -0.00024666608 0.0079030655 0.007576896 -0.00023777605
-0.0035195865 -0.0048950906 -0.006874528 -0.0069123283 -0.006828898 0.006757525 0.0010528176 0.001842295
0.0075903335 -0.0048569767 -0.0058193365 0.00094334385 0.0041290186 0.0069167768 0.005045313 0.007958189
-0.004853324 -0.00032109345 -0.006487093 0.0022074105 -0.0035302115 -0.0043513556 -0.0066056526 0.003071511
0.007798529 0.001209653 0.001350008 0.001099578 -0.0020506475 -0.0036582174 0.0012649802 0.0013980223
0.007889563 -0.0059645893 -0.0012858984 -0.004824987 -0.0036185451 -0.0020821504 0.00059432106 -0.0037961602
-0.001417985 0.0004905722 0.007881697 -1.0574993e-05 -0.0013198344 -0.0016149656 0.0043888944 -0.006331425
-0.005437481 0.0005317532 0.00054107915 -0.0065550036 -0.007009378 -0.0012137829 0.0024502685 0.0072290218
-0.0040586167 0.0051572844 0.0072391666 -0.0038666425 0.0017382927 0.007260681 -0.0016602712 0.0057216454
-0.00268577 0.007281881 0.0027666201 0.00731997 -0.00047532155 0.0038250515 -0.005490727 0.00023361963
0.00804362 -0.0037651414 0.0036691325 0.0049901595 -0.0019158599 0.0034695147 0.0068234177 0.0067051332
0.00221885 -0.006318369 0.0033912065 -0.0021808732 -0.0060411105 0.0074264253 -0.0048275376 -0.0026549066

conv4.1.running_mean f4 [128]
00000000: 966a fc3d 9c95 d7bd ccfb 19bd fb24 0c3e
00000010: 5ab7 8e3d c848 443e 364b 3a3b 58bd 443e
00000020: 2dc6 34bd b105 47bd 5dd9 993e 762b fe3d
00000030: e1d0 ef3c 453a 333d 0b4c 673d ff2a 29be
00000040: 8a9e cfbb 961e f7bb fd86 483e 93f5 5e3e
00000050: 51c6 9cbe 8931 2fbc ce48 0cbe f683 993c
00000060: 3a06 d7bd de44 ca3d 32f1 b0bd 54c5 32bc
00000070: 6700 a73c 6026 f73d 624f b8bc edf6 443e
00000080: 49d1 b6bd 8bf7 933e 1c03 8bbe 7ab9 983d
00000090: eb77 283d 87a7 8dbe 55d0 83be e0c1 5a3d
000000a0: 77e9 253e 8c60 f03d 2969 b23d a094 2d3e
000000b0: 28cb 1e3e 86d9 81bd 3884 babd 49e0 85bc
000000c0: af49 83be dd87 473d bb74 413e 00d8 79be
000000d0: a3c0 253e fec3 0bbe e398 29bd 50e5 e1bd
000000e0: ab2f 513d 65ae 083e 9e6b 693e d86d 67be
000000f0: 7175 513e f8ba 0b3e e5d5 0f3e 9c45 2d3e
00000100: 0e0d 29be ab8f 5c3d 5a73 47be 3bd8 163e
00000110: 9d2e 443e 9e31 7a3e c0d4 3cbd 11fa ad3d
00000120: fc9a 89be 1a3a e73d 5d60 a4bd 3874 253d
00000130: 1412 dbbc 75cd 2ebe cef4 713d 06f7 1a3d
00000140: ab7f 9f3d d1ed 653d f212 69be e4c9 f73c
00000150: 0752 b43d 1003 123e 038b 82be 6a96 763e
00000160: bbc1 533e 862c 4cbe 5b74 833d ae4d 8a3e
00000170: 6c7a c03d ea8f 13bc 90c2 0c3d 3c59 94be
00000180: 5bea 2c3e 78de a9be 2811 17be b9bc c03d
00000190: 460b 31be 7851 2bbe f058 27bc d5aa 9ebe
000001a0: 3d7c 8b3d 6d62 8bbc 3225 0d3e ee17 b0bd
000001b0: 68b9 933d fb76 613d bfb0 953e a403 c43d
000001c0: 1845 3bbe c744 18bd 4bea 883d 78b5 323c
000001d0: 9267 233e d679 93bc ff79 823c 729c 0e3e
000001e0: 3aac 053e 6c0f 483d 4daf eb3d 5e50 343e
000001f0: 53c0 2d3e 6e2e 13be 6de6 9dbd 2243 5d3d
0.12325017 -0.105265826 -0.037593648 0.13685982 0.06968565 0.19168389 0.0028426177 0.19212854
-0.044134308 -0.048589412 0.30048648 0.12410633 0.029274406 0.043756742 0.056469005 -0.16520308
-0.006336038 -0.007541488 0.19582744 0.21773367 -0.30620053 -0.010692962 -0.13699648 0.018739682
-0.104992345 0.098764166 -0.08639754 -0.0109113045 0.020385934 0.12067866 -0.02249879 0.1923482
-0.08926637 0.28899798 -0.2715081 0.07457252 0.041129988 -0.27666876 -0.25744882 0.05340755
0.16202341 0.11737165 0.08711464 0.16951227 0.15507185 -0.063403174 -0.0910725 -0.016342299
-0.25642154 0.048713554 0.18892185 -0.24398804 0.16186766 -0.13648984 -0.04140557 -0.11030066
0.05107085 0.13347776 0.22794959 -0.22600496 0.20454957 0.13645542 0.14046438 0.16921085
-0.16508886 0.05384795 -0.19477597 0.14730923 0.19158407 0.2443299 -0.04610133 0.08494962
-0.26876056 0.11290379 -0.08026192 0.040394038 -0.026742019 -0.17070563 0.059071355 0.037833236
0.077880226 0.056135003 -0.22761133 0.030247636 0.08804708 0.14258981 -0.25496683 0.24080816
0.20679371 -0.1993886 0.064186774 0.2701239 0.0939835 -0.00900648 0.034365237 -0.2897433
0.16886275 -0.33177543 -0.14752638 0.09410996 -0.17289457 -0.16730297 -0.010214075 -0.3098971
0.06810806 -0.017014707 0.1378372 -0.08598314 0.07213098 0.05504511 0.2923641 0.09571007
-0.18288076 -0.037174966 0.06685313 0.010907523 0.15957478 -0.018002432 0.015927313 0.13926867
0.1305398 0.048842832 0.11508045 0.17608783 0.16967897 -0.1437318 -0.07709966 0.0540191
