artifact/02_12_2024_10_11_42/model_training_artifacts/model.pt (torch, 440907 bytes, 26 tensors)

conv1.0.weight f4 [16, 1, 3, 3]
00000000: 8591 89be 2cf6 83be ce87 a53d 5a38 2a3e
00000010: af4f 5b3e cae2 fabc 7351 b2bd 3b57 98be
00000020: 3530 df3d 607c 1ebe a6bc 363e fe0d 783e
00000030: ea2c 73be 7e5e 15be b97e 05be cdc0 65be
00000040: 4a47 3f3e d5b6 35be ec4d 6c3e 2dd2 a4bd
00000050: 1e48 223e 3787 8ebd 35e1 fe3c 1dff 46be
00000060: 25cc 9a3e c93e eebb eb51 2e3c 6e5e 913c
00000070: 6965 32be 02e3 8a3e 3767 59be 04f6 a4be
00000080: e75f 8abe 1cc8 2c3e ff7c a8be edc0 3b3d
00000090: ff63 1e3d 8956 243e 053b 6abc 13ec d5bd
000000a0: caa4 de39 3e24 4dbe df43 543d 5621 443e
000000b0: 6bc3 6dbc 2104 373e 18be 3b3e 1073 03bc
000000c0: 68a9 8ebe 3422 9f3e 805f 29be ce8a 44ba
000000d0: 5616 2b3e 3fd9 963d 9c1e 81be 0ec1 a8be
000000e0: 09c2 8e3e fb9c aabe 5dd5 803d 7526 893e
000000f0: c2bc 693e 80f0 78bd c70b 4c3e 66b3 8cbe
00000100: e8e2 78be fd83 8a3c ce87 473e 9067 9dbd
00000110: 9f6f ee3c 2c9d 8dbe a86e 353d 9dcc 6d3e
00000120: 23c2 da3c 9171 4b3e eadb 5bbe 03bb f1bd
00000130: d2fd 303e 7b29 88be d6f2 0d3e 16a1 28bd
00000140: 900e 7b3e 1459 96be c5f3 a83e a755 1bbe
00000150: 1350 edbc c76d 9dbe ec30 46be de2f 493e
00000160: f797 40bc 1de8 a8bd ccbd 86bd 0f82 8f3d
00000170: 4b36 88be 0896 bdbd 5c97 17bd d592 e13d
00000180: a366 863e 1f5c a03e bf16 a9be f217 aa3e
00000190: b14e 603e 84ee d73d 5e9b 833d 6999 7c3e
000001a0: 9c5b 5d3d 9611 f73c e2bd 0d3e d417 a5be
000001b0: 266a d7bb edc3 11be a74b 3d3e 8536 aa3e
000001c0: 1589 ecbd 0939 a1bd f9bd 9abd e9e4 f93d
000001d0: c237 02bc e256 d2bd a060 39bd 85ba 933d
000001e0: 3b47 133d 7ce5 a33e d5c2 0bbe c058 733d
000001f0: 8ea2 a53c fcf2 ff3d 2333 46bd 1fd2 9cbe
00000200: e372 9bbd 484a 84be ade1 16bd 642f 41be
00000210: 5569 623e 833c d1bd fdc1 10be 1f7f 533c
00000220: 98c0 6abe 237b 813e 5d57 ac3d 313d 14be
00000230: ee9c 3a3e 531e 44be f8f7 31be 2990 c3bd
-0.26868835 -0.25773752 0.08082543 0.16623059 0.21417116 -0.03062572 -0.087069415 -0.29754052
0.10897867 -0.15477133 0.17845401 0.24224088 -0.23747602 -0.14586827 -0.13036622 -0.22436829
0.18679538 -0.17745526 0.230766 -0.080479 0.15847823 -0.06959384 0.031113246 -0.19433255
0.30233875 -0.007270668 0.010639648 0.017745223 -0.17421497 0.27126318 -0.2123078 -0.32218945
-0.27026293 0.1687321 -0.32907864 0.045838285 0.038669582 0.16048636 -0.014296298 -0.10445418
0.00042465917 -0.20033357 0.05182254 0.19153342 -0.014511923 0.17872669 0.18334234 -0.0080230385
-0.27863622 0.31080782 -0.16540337 -0.000749749 0.16707739 0.07365655 -0.25218666 -0.3295979
0.27882412 -0.33322892 0.06290696 0.26787153 0.22825912 -0.060776234 0.19926368 -0.2748062
-0.24305308 0.01690864 0.19485399 -0.076857686 0.02910596 -0.27658975 0.044294983 0.23222585
0.0267039 0.19867541 -0.2147061 -0.11803248 0.17284325 -0.26594147 0.13862166 -0.04116925
0.24517274 -0.29364836 0.3299848 -0.15169393 -0.028968846 -0.30747816 -0.193546 0.19647166
-0.011754981 -0.08247397 -0.0657917 0.070072286 -0.26603922 -0.09257132 -0.037009582 0.11014334
0.2625018 0.31320283 -0.33025166 0.33221394 0.21905018 0.1054354 0.06426118 0.24667896
0.054042444 0.030159753 0.13841966 -0.32244742 -0.006573933 -0.14234896 0.1848589 0.3324472
-0.11549584 -0.07872207 -0.07555766 0.12201864 -0.007947864 -0.10270478 -0.045258164 0.0721331
0.035956603 0.3201102 -0.13648541 0.05941081 0.020219114 0.124975175 -0.04838861 -0.3062906
-0.07590272 -0.25837922 -0.036836315 -0.18865734 0.22110493 -0.1021662 -0.141365 0.012908726
-0.22925031 0.25289258 0.08415101 -0.14476468 0.18223926 -0.19152193 -0.17379749 -0.09548981

conv1.0.bias f4 [16]
00000000: a227 a43e 9e1e 8d3d be36 9f3e cac8 313e
00000010: acab 45be 145f c13d 3941 3fbe a39d 963e
00000020: 5f9e 853e 8419 aa3e 0c03 3b3e 2214 a43e
00000030: d410 433d bd13 77bc ba62 55bd 7b72 93be
0.32061487 0.068906054 0.31096452 0.17361751 -0.19303769 0.09441963 -0.18677224 0.29417142
0.2609739 0.33222592 0.18262881 0.3204661 0.04762347 -0.01508039 -0.052096106 -0.2879828

conv1.1.weight f4 [16]
00000000: bdcd 7e3f f552 803f cf60 803f 244a 803f
00000010: cb95 803f 732b 803f 8b35 7f3f 3a26 803f
00000020: 0942 803f fa5e 803f 6f2f 7f3f 4a4f 7f3f
00000030: 2971 803f b304 7f3f 4551 7f3f d3c8 7f3f
0.9953268 1.0025316 1.0029544 1.0022626 1.0045713 1.001326 0.99691075 1.0011666
1.0020152 1.0028985 0.9968175 0.9973036 1.0034534 0.99616545 0.9973338 0.9991581

conv1.1.bias f4 [16]
00000000: 30e0 80ba 1e44 803b 0491 313b 890c 94b9
00000010: 5f31 c2ba 4511 87bb 22be adba 4bde 253b
00000020: 3dc0 98bb d257 7fba 9df7 7d3b 7231 5eba
00000030: 2b9a 94bb bd9e 0abb 6a3d 69ba ea57 d8ba
-0.0009832438 0.00391437 0.0027094493 -0.000282381 -0.0014815739 -0.0041219317 -0.0013255517 0.00253095
-0.0046615885 -0.0009740564 0.0038752325 -0.0008475996 -0.00453498 -0.0021151744 -0.0008897396 -0.0016505693

conv1.1.running_mean f4 [16]
00000000: 6b7d dcc0 061b 12c1 1e65 f440 9ae8 7cc1
00000010: 2830 e93f 602e 0d41 d71a b33f 890f dbc0
00000020: e1d8 3740 531f 2bc1 be4b bfbe bdda 8941
00000030: 105e 8240 6796 dc40 a81f 90c1 fb66 c7c0
-6.89031 -9.1315975 7.6373434 -15.8067875 1.8217821 8.823822 1.3992566 -6.8456464
2.8726122 -10.6951475 -0.37362474 17.231806 4.0739822 6.8933597 -18.015457 -6.231321

conv1.1.running_var f4 [16]
00000000: 79cf 4c46 07a7 c646 e02a 3b46 dc0f 2647
00000010: f2a1 e045 74ee b446 5fc4 2d47 f7dc 9046
00000020: 94da 8746 9c67 cd46 33ce 9c46 f1c3 2147
00000030: 964c 2a46 daf0 2046 cb63 f146 fea5 a546
13107.868 25427.514 11978.719 42511.86 7188.243 23159.227 44484.37 18542.482
17389.29 26291.805 20071.1 41411.94 10899.146 10300.213 30897.896 21202.996

conv2.0.weight f4 [32, 16, 3, 3]
00000000: f0f2 6bbd 72b4 b73c b667 ed3c 6df7 94bd
00000010: e25d 783b 3f01 953c 9e12 a9bd 23e7 49bd
00000020: 677e 7a3d 98b5 00bd 7c2a 883d 0554 f7bc
00000030: 2ffc d9bc 65d9 9f3d bdc1 6cbd 4837 febc
00000040: 537f 68bd 077b 963d 8a36 3c3d 33cb 473d
00000050: 656d 8f3c 2d86 923d 4e63 983b 8aad ac3d
00000060: 698c fc3c 172c 12bd fdd6 08bc 1f8e 6cbd
00000070: 305f 793d 04e9 8b3b 1075 32bd b6ed 693d
00000080: 4b5d a73c 2172 cabc 9729 313d 07d1 143d
00000090: c11c c6bc 85f4 493d e2e8 9d3d 8b8e fa3b
000000a0: 2403 23bd 3e78 903d 7078 a13c a299 5f3d
000000b0: 832c 0f3d 29f3 903c c768 99bd e850 9cbd
000000c0: fb8b cc3c 7c9b 70bd b766 9abd 7125 713d
000000d0: 78de 58bd 23bc 673c 0137 3e3c f25d 983d
000000e0: c0c6 81bd 3a8e 253d 8bef b23c ca29 a9bd
000000f0: 9ce5 903d 48fe aa3d 64a2 c1bb 1156 6b3d
00000100: 8e5b 793d 6062 8e3d f136 483d 321d a13d
00000110: c171 123d c3d6 023d b669 7d3d 6088 50bd
00000120: 21d3 1bbd 6b4c ecbc 79c6 30bd cb36 ab3a
00000130: fad1 913d e195 94bd 4bf5 053d 30c8 62bc
00000140: 3c9c 0a3d 13ec bb3c 6023 f43c e7a8 74bd
00000150: ca4c 6ebd fcd6 503c de60 96bc 826e 8e3c
00000160: d29e 2e3d 1f5b aabc f882 cc3a fbef 8cbd
00000170: 9dbb 9a3c 17a0 e03c 9629 44bd ae68 82bc
00000180: f2cc 873d 945d acbc 5a8f 5cbd f904 dbbb
00000190: 1dc3 95bc 26b2 82bd da6a 6cbc 6f79 783d
000001a0: 7020 60bd 140e 1ebd 47f3 a13d 98fd 203a
000001b0: c329 9fbc adb2 103d fd9f 6b3d 25e5 ce3c
000001c0: 8eef b43b c083 76bd ae31 d7bc 19d2 a03d
000001d0: f746 9bbd 73b9 11bd 0502 153d ae17 b5bc
000001e0: e06d 44bc 5fcc 79bd d5a6 293d 7cb7 a8bc
000001f0: 9906 4a3d 94eb f73c 4ed0 a53a f468 df39
00000200: f57b 263d e3f9 d23c 9e75 49bd 3e7c 0d3b
00000210: 12c5 86bd 7881 033c ea7f 5abd 57ea e33b
00000220: 9653 783d 15be 9bbb cd89 b23d 3cc3 2f3d
00000230: 3653 8f3c 0656 243c f13d 773d d764 e23b
00000240: 71e1 72bd 1a64 743d c937 543c 5c93 663d
00000250: 51de 28bc d725 adbc 1256 1f3d 6276 29bd
00000260: ffd6 1bbd 7582 3f3d a5a9 a23c fbbc 493c
00000270: 774c 083d e6d0 0a3d 411e 8dbd 5a0d 9bbd
00000280: 208e e73c 5d04 7fbd 82b1 913b f0ce a0bd
00000290: 9b4b e03c ccc9 50bd 702c aa3d 8e8f 2dbd
000002a0: e6ed 62bd 680f b8bc 10fd 95bd 9784 993d
000002b0: 4e73 e3bc 8a01 5db9 b5b0 7e3d 7cb9 0ebd
000002c0: fcf6 7f3d c779 ef3c d053 21bc 64be 493d
000002d0: 3ed4 37bd dd33 9a3d 995c e53c 9558 71bd
000002e0: 43d8 6abd bc14 a33d c54b 0cbd f937 6fbd
000002f0: b2fe 8d3d 4972 7bbd bdcf 9e3c 3049 a53d
00000300: b1fe 59bc 9e94 68bd 43bb 133d ceff debc
00000310: 14ad 163d f70d 6cbc a706 62bd 6485 88bd
00000320: 5928 d73c ff74 9a3d 8287 933d 619d 44bc
00000330: d7bd 6bbd 43e9 e33b f728 f1bc 86ab 76bd
00000340: 8537 62bd dfe2 8d3c 0cc7 9abd 012b 74bd
00000350: 6b62 8ebd 7ef7 f038 0789 083d 71be ad3d
00000360: 3e0b 20bc 316f 8e3b ec43 273d 4c35 87bd
00000370: a632 963d b941 2a3d a2d1 1a3b 1c3d 1cbd
00000380: fd70 4cbd 9079 353d 1026 9d3d 2d5e 7a3d
00000390: 099d 913d a4e5 2fbd 319c a0bb 6963 1e3d
000003a0: b3cc 95bd 5af3 2d3d 260a 503d 310b a3bd
000003b0: 0af0 96bd c3bf 3f3d ef90 13bd 410e 8ebd
000003c0: 0d5c 1a3d 3681 7f3d 1668 c13c 1b2e 753d
000003d0: 6d28 88bd 7311 ee3c 046a 6f3d efdb ccbc
000003e0: 55dc 793d 6eeb 96bd a2c8 97bc c1c5 da3c
000003f0: 8aa0 f83a 97f8 2f3d 84a5 29bd e3ee fa3c
-0.05760473 0.02242491 0.028980117 -0.07273755 0.0037897755 0.01818907 -0.08255504 -0.049292695
0.061155703 -0.03142318 0.06648728 -0.03019143 -0.026609508 0.078051366 -0.05780195 -0.03103222
-0.05676205 0.07347684 0.04595045 0.04877777 0.017508218 0.07154498 0.00465051 0.084315374
0.030828672 -0.03568658 -0.008352038 -0.057752725 0.060881793 0.004269721 -0.04356867 0.057111464
0.020430228 -0.024712624 0.043252554 0.036332157 -0.024183633 0.049305458 0.077104345 0.007646387
-0.039797917 0.070541844 0.01971075 0.054589875 0.03495456 0.017694073 -0.07490688 -0.07632619
0.024969092 -0.05874203 -0.075391226 0.058873598 -0.052946538 0.014143976 0.011609794 0.07439794
-0.06336737 0.04041884 0.021842739 -0.08259924 0.070750445 0.083492815 -0.005909251 0.057455126
0.06087833 0.06952357 0.04888052 0.07866897 0.035753015 0.031943094 0.061868392 -0.050911307
-0.038043145 -0.028845033 -0.04315803 0.0013062594 0.07120128 -0.0725515 0.032704633 -0.013841674
0.033840403 0.022939717 0.029802024 -0.05973139 -0.0581787 0.012746569 -0.018356737 0.017386679
0.04263193 -0.020795403 0.0015602997 -0.0688171 0.01888829 0.027420087 -0.047891222 -0.015919056
0.06630887 -0.021040715 -0.05384765 -0.0066839424 -0.018281514 -0.06381635 -0.014429772 0.060662683
-0.054718435 -0.038587645 0.079077296 0.0006141304 -0.019429093 0.03532665 0.057525624 0.025255749
0.005521721 -0.06018424 -0.026268806 0.07852573 -0.07581895 -0.03557725 0.03637888 -0.022106018
-0.011989087 -0.06098592 0.04141887 -0.020595305 0.0493227 0.0302637 0.0012650581 0.0004261207
0.04064556 0.02575392 -0.049184434 0.0021588947 -0.06580557 0.008026473 -0.053344645 0.0069554257
0.06062659 -0.004752884 0.0871769 0.0429108 0.017495733 0.010030275 0.060361806 0.0069089937
-0.05929703 0.059665777 0.012952753 0.056292877 -0.010306911 -0.021136208 0.038900442 -0.041372664
-0.038046833 0.046755273 0.019856283 0.012313123 0.033276048 0.033890627 -0.06890536 -0.07570906
0.028266013 -0.06226002 0.0044462094 -0.0785197 0.027379801 -0.0509737 0.08309257 -0.042373233
-0.05540266 -0.022468284 -0.073236585 0.07495993 -0.027764942 -0.00021076776 0.06218024 -0.03484486
0.062491402 0.029232873 -0.009846643 0.049253836 -0.044880144 0.075294234 0.027998256 -0.05892237
-0.05733515 0.07962939 -0.034251947 -0.05840299 0.06933345 -0.061388288 0.019386167 0.080706
-0.013305352 -0.056782357 0.03606726 -0.027221587 0.036786154 -0.014407626 -0.055182125 -0.06666067
0.026264356 0.075418465 0.072035804 -0.012000413 -0.057554092 0.006955297 -0.029438479 -0.06022217
-0.05522873 0.017320095 -0.075574964 -0.059611324 -0.069523655 0.00011490191 0.033333804 0.084835894
-0.009768305 0.004346751 0.04083626 -0.066019624 0.07333879 0.041566584 0.0023623486 -0.038144216
-0.04991244 0.044305384 0.076732755 0.06112497 0.0711003 -0.04294361 -0.004901432 0.038669024
-0.07314434 0.042468406 0.05079093 -0.07961119 -0.073700026 0.046813738 -0.03602689 -0.069363125
0.037685443 0.062379085 0.023609202 0.059858423 -0.066483356 0.029061055 0.058450714 -0.025007216
0.06100114 -0.073691234 -0.018528286 0.026705625 0.0018968743 0.042961683 -0.041417614 0.030631488

conv2.0.bias f4 [32]
00000000: ed8e d3bb 9f11 ab3d 72c0 02bd e886 9b3c
00000010: 53d7 4d3d 99b6 d73b 6263 e2bc 6d8a 043d
00000020: b5d8 573d 7617 443c 7e59 ea3b 7420 ec3c
00000030: 6caa 9bbd c7c9 0a3d e871 12bd da29 e13c
00000040: e1e3 7cbd d447 bdbb 5adf 6e3c bc6f dbbc
00000050: cc98 abbc 2ed0 413d 1a1a fbbb 2444 973d
00000060: a9ab a53d 3560 a13d 726b 7e3d 17e0 c8bb
00000070: 5dfe 32bd e850 86bd 6a9b f1ba 5c76 5fbd
-0.006456247 0.0835297 -0.03192181 0.018985227 0.050254177 0.0065830466 -0.02763528 0.032358576
0.052696902 0.011968484 0.0071517816 0.028824069 -0.07600865 0.033883836 -0.03575316 0.027485777
-0.06174076 -0.005776385 0.014579618 -0.026786678 -0.020946883 0.047317676 -0.0076630237 0.07386044
0.08089382 0.07879678 0.062114187 -0.006130229 -0.04369961 -0.065584004 -0.0018433158 -0.054556236

conv2.1.weight f4 [32]
00000000: 0bc6 7f3f 698f 803f d7b2 7f3f 29e3 7e3f
00000010: 2c43 7f3f 2488 803f 9dfb 7e3f 2644 803f
00000020: 1847 803f 6f63 803f 9b09 7f3f 489a 803f
00000030: 740f 7f3f 9367 803f 9030 7f3f 803a 7f3f
00000040: fc80 803f 8cf6 7e3f 3f16 803f eaa0 7e3f
00000050: 5b09 7f3f 2229 803f c411 803f 49b6 803f
00000060: 7248 803f 4263 803f 614b 803f d583 803f
00000070: 7925 7f3f 7966 803f 9b42 803f 1586 803f
0.99911565 1.0043765 0.9988226 0.9956537 0.9971187 1.0041547 0.9960268 1.0020797
1.0021696 1.0030345 0.9962403 1.0047083 0.99632955 1.0031608 0.99683475 0.9969864
1.0039363 0.9959495 1.0006789 0.99464285 0.9962365 1.0012553 1.0005422 1.0055629
1.0022109 1.0030291 1.0023004 1.0040232 0.99666554 1.0031272 1.0020326 1.0040919

conv2.1.bias f4 [32]
00000000: e8ec 47bb e73e b23b e4f7 a0bb 2ca7 0dbb
00000010: fc51 98bb 3fa0 2fbb c3e0 9cba 4b8a 62bb
00000020: 4f36 2e3b b7d2 a43b 4bc8 37bb 7690 9e3a
00000030: 0c4f 8cbb 1610 a63b ee5e b1ba 81bf 5ebb
00000040: 0d1d a7bb c1d4 7dbb 2f2a aa3a e7d1 96bb
00000050: 29ee 713b 46e8 bd3b ed49 ebba c06e 603b
00000060: b74d 683b ad78 11bb 9752 d23a 3edf 6fbb
00000070: 81ac 2fbb d743 62bb f8d3 98bb 6a99 073b
-0.0030506197 0.0054396274 -0.0049123634 -0.0021614535 -0.004648445 -0.0026798395 -0.001196884 -0.0034567292
0.0026582663 0.005030002 -0.0028042968 0.0012097496 -0.004281884 0.0050678356 -0.001353232 -0.0033988657
-0.0050998987 -0.0038731548 0.0012982542 -0.004602659 0.0036915636 0.0057955114 -0.0017951109 0.00342457
0.0035446712 -0.0022197173 0.0016046342 -0.0036601569 -0.0026805701 -0.00345253 -0.0046639405 0.0020690807

conv2.1.running_mean f4 [32]
00000000: 287a 773d faa9 1e3d d77b 163d f001 95bd
00000010: 8fb8 153c a3a8 613d ef32 07be 8674 cd3b
00000020: 03f9 06bd 8a38 973c c2f2 a7bd 8977 8d3c
00000030: bfab 813d 2a09 3fbd 400f 103c b0c9 d33d
00000040: 655c 043e 909d a93c 1ac9 113c c471 6abd
00000050: 5f6c 1dbd 34d6 1abd 63c4 9fbd 1042 dabc
00000060: 90fc 3c3d f402 c03d 9800 c23c 3c30 53ba
00000070: 409a 55bd 9a07 81bc 0591 72bc e4fb 9a3c
0.06041923 0.03873632 0.036739197 -0.0727576 0.0091382405 0.055092465 -0.13203023 0.006269994
-0.03295232 0.018459577 -0.08200599 0.017268913 0.06331586 -0.0466396 0.008792698 0.10341203
0.1292587 0.020705014 0.008898044 -0.0572374 -0.03843343 -0.037801936 -0.0780113 -0.02664283
0.0461393 0.09375563 0.023681924 -0.0008056199 -0.052149057 -0.015750695 -0.014805083 0.018918939

conv2.1.running_var f4 [32]
00000000: 67ea 323f 4c3d 223f cfdf 333f a020 483f
00000010: 725a 203f 0bc9 333f a177 813f fb01 313f
00000020: e825 3c3f 6a2b 2f3f ba58 483f 8859 433f
00000030: eb79 463f b2bd 413f 9d61 293f 1107 803f
00000040: 67ec ae3f feeb 453f 1553 2e3f dc9d 2c3f
00000050: 2967 363f e473 553f 345e 243f ba9a 503f
00000060: 0177 1e3f cb3f 513f 7214 2f3f dc2d 213f
00000070: 12ed 293f 66f7 293f 22a4 3c3f e210 2f3f
0.6988892 0.6337478 0.7026338 0.7817478 0.6263801 0.7022864 1.0114633 0.69143647
0.7349534 0.6842562 0.78260386 0.7630849 0.7752978 0.7568008 0.6616457 1.0002156
1.3665894 0.7731322 0.68095523 0.67428374 0.7125116 0.8337996 0.6420624 0.81486094
0.61900336 0.81737965 0.6839057 0.629606 0.66377366 0.66393125 0.73687947 0.68385136

conv3.0.weight f4 [64, 32, 3, 3]
00000000: cab4 653c f8a9 573d f394 f1bc b412 54bd
00000010: de6f 07bd b877 92bc c317 82bd 2252 30bd
00000020: 92e0 c33c e223 52bd 04e7 7d3b dc60 fabc
00000030: 22b8 693b cd2a 313d 39e3 02bd fc46 63bd
00000040: a475 38bd fda3 b33c aefe 80bc 70bc 5ebd
00000050: 57b6 353d 9db1 0bbd 1043 45bd afd6 c23c
00000060: c7b5 6abd b4a2 0bbd ea84 f13c 7852 97bb
00000070: eb53 9b3c d817 1bbd b16d 2fbc 9d03 11bd
00000080: 43f3 d13c 04ff ce3c 5477 00bd daf6 f03c
00000090: b9cd 2aba ebf3 f93c cf73 0bbd ee82 5e3d
000000a0: c64b 60bd 7490 c63c a8d2 8a3c dc32 2f3d
000000b0: 985d 2c3d 7059 573d a2f3 07bd 2bad e23c
000000c0: 0266 e2bc be6c 543d 8ffc 323d a10d 173d
000000d0: 2b0d c03c 98ad ad3c 240b d23c 6aea 17bd
000000e0: 13fd fcbc 8126 923c 3337 613d 9e6f d83b
000000f0: 78f6 2e3d f559 a23c 3d48 bcbc 0165 f0bc
00000100: 449a 5a3c bf32 be3c 08cb 2e3d f8d5 17bd
00000110: 82f2 48bd 865c e6ba 28cc 483c b73b 373d
00000120: 6e28 5abd 316f ce3c 63da 053d 60ec 673c
00000130: 369e 0dba eafa 443d c28d 0cbd 7fbb 393d
00000140: ae18 f5bc 7fc9 53bd 0f0e 71bc 64ab 68bd
00000150: e71a 28bc f7b5 3fbd 6772 a4bc 75cf 0b3d
00000160: 2ad4 cf3c a430 203d 1b0d ffbc bbc5 74bd
00000170: f570 7ebd 47cd 87bc 71e6 2abd 4fd1 673c
00000180: f780 cabb 7862 25bd a459 0bbd 86ab 2c3d
00000190: 8c35 97bc 3c33 01bd 9728 74bd 6418 26bb
000001a0: 43f0 233a ef4a b6bc fa3c 873c 643d 94bc
000001b0: 6bf0 c8bc af25 023d 8385 3b3d 1e7f a2b9
000001c0: 317d 0c3d 78d6 e13c 6b69 38bd f345 a63c
000001d0: c500 393d 771b 543d d42f 31bd 959a d63c
000001e0: 6cac 343c eafc b63c 6b37 19bd 96f1 40bd
000001f0: 1a1b c93c 94c1 a03b 6ef8 1a3d 7a29 6fbd
00000200: 5d99 1b3d b3fa 69bd 2fbe 3bbd 8e5f 7dbd
00000210: 0449 01bd 56b9 fa3b 9397 1ebd ebc2 1c3d
00000220: acbf 553c a507 60bb ffda 41bd b1ea 2b3d
00000230: 1033 da3c 6a8a e0bc faf0 c9bc c5e2 0e3d
00000240: 3f0f 4e3d 0763 3c3d 1009 fd3c 695d d63c
00000250: e256 37bd bbde 133d 3173 e53c 1250 08bc
00000260: bed6 043d 4c60 e9bc 57d3 e93c b94c 373d
00000270: e5f4 61bd e652 5e3d 297e 483d 2879 ab3c
00000280: bbca b7bc 3ebf 89bb 55d1 babc f84d 66bd
00000290: 8981 143d 993f 34bd ec0f 8fbc 9b86 22bd
000002a0: 10d3 1e3d 0dab 55bd ff19 03bd 19b7 423c
000002b0: 148c 49bc 6c5c 30bd 9ee0 3e3d 15f8 753b
000002c0: 1274 0e3c a4fc 183c f471 b73b ab5c 5a3d
000002d0: ad8c 233d 6c5c 83bc fdc7 e3bc cda9 6abd
000002e0: 903d 973c f222 39bd 125d af3c 77a0 f43c
000002f0: a764 1a3d feff 07bc 037e 37bd 7ab7 343b
00000300: 4ef0 613b 4fbc 013c 251b 2c3c 311b 74bd
00000310: f36a 093d 5e73 a83b eda5 f2bc e456 e139
00000320: 8b52 30bd 1d2c 49bc a2bd fc3b 10a5 cc3c
00000330: 8a96 2abd 7481 9b38 a894 c43c 5c19 7f3c
00000340: 1366 8ebc d910 dfbc 7f8b 54bd c0d7 c13c
00000350: df8f 283d db43 53bd 1f65 08bd 0b67 873c
00000360: ef2a 10bc 112a 40bd d4f8 d23c 9b69 dbbc
00000370: 3e58 00bd d35d 74bd 8d7f a13c 5f89 333d
00000380: 2087 c5bc 0aec 78bd d5b1 01bd 49cb 5a3d
00000390: 197e c23c 12cd 223d fd37 aebc 3774 6cbd
000003a0: 1c65 0c3d 526f 69bd 59f5 8dbc ed93 63bd
000003b0: a912 81bc 8c7d cbbb ec5c 24bd b7aa 68bd
000003c0: b00f 3d3d de5f 05bd 31aa 063d affb 18bd
000003d0: f42b b43c 372a 67bd 37b0 423d d832 bc3c
000003e0: 55d2 cc3c db76 72bc fe35 61bd b699 3b3c
000003f0: 7802 443d 5cc6 b2bc 063b 8d3b 90f0 50bd
0.014020154 0.05265233 -0.02948997 -0.05177565 -0.03306567 -0.017879352 -0.063521884 -0.043047078
0.023910794 -0.05130375 0.0038742432 -0.030563764 0.003566273 0.04325371 -0.031954978 -0.055487618
-0.045034066 0.021928782 -0.01574644 -0.054378927 0.044363346 -0.034104932 -0.04815966 0.02378401
-0.057302263 -0.034090713 0.029482324 -0.0046179853 0.018960914 -0.037864536 -0.010707305 -0.035403837
0.025628692 0.025268085 -0.0313638 0.029414583 -0.00065156404 0.030511817 -0.03404599 0.054324083
-0.054759763 0.024238802 0.016946152 0.042773113 0.042081445 0.05257553 -0.03319133 0.027670464
-0.027636532 0.051861517 0.04369789 0.036878232 0.023443779 0.02120094 0.025640078 -0.03708879
-0.030882394 0.017840626 0.054984283 0.0066051027 0.04271552 0.019818285 -0.022983665 -0.029345037
0.013342444 0.023217557 0.042674094 -0.03706929 -0.0490594 -0.0017575182 0.012255706 0.044734683
-0.053261213 0.025199505 0.032678973 0.014155477 -0.00054022984 0.048090853 -0.03431488 0.045344826
-0.029918995 -0.051705834 -0.0147128245 -0.056804076 -0.01026032 -0.046804395 -0.020074083 0.034133393
0.025369722 0.039108887 -0.031134179 -0.059758883 -0.062119443 -0.016577376 -0.041723672 0.014149024
-0.0061799246 -0.04037711 -0.034021035 0.042155765 -0.01845815 -0.031543 -0.059609022 -0.0025344128
0.00062537583 -0.022252528 0.016508568 -0.01809568 -0.024528703 0.03177422 0.045781624 -0.00030993758
0.03429908 0.027568087 -0.04502241 0.020297026 0.04516675 0.051784005 -0.043258503 0.026196757
0.011027437 0.022337396 -0.037406366 -0.047105394 0.024549056 0.004905889 0.037834577 -0.058389165
0.037988055 -0.05712385 -0.04583567 -0.061858706 -0.031563774 0.0076514883 -0.03871877 0.038271826
0.013046186 -0.0034184244 -0.04732799 0.041971866 0.026635677 -0.027409751 -0.02465104 0.034884233
0.05030751 0.045992877 0.03088811 0.026167588 -0.044760592 0.036101084 0.02800903 -0.0083198715
0.032431357 -0.0284883 0.028543158 0.044750903 -0.05516519 0.054278277 0.04894844 0.020931795
-0.022435537 -0.004203706 -0.022804895 -0.0562267 0.036256347 -0.044005964 -0.017463647 -0.03967915
0.038775504 -0.05216508 -0.032007214 0.011884474 -0.012301464 -0.04305689 0.04660093 0.0037531902
0.0086946655 0.009337578 0.005598301 0.05331103 0.03992908 -0.016035281 -0.027805323 -0.05729084
0.018461972 -0.045199342 0.021406684 0.029861672 0.037693646 -0.008300779 -0.04479791 0.002757518
0.0034475508 0.007918431 0.010504519 -0.059596244 0.03354926 0.005140706 -0.029620135 0.00042980083
-0.04304747 -0.012278584 0.0077130357 0.024981052 -0.04164747 7.4150885e-05 0.023996666 0.015570011
-0.017382657 -0.027229713 -0.051890846 0.023662448 0.04115283 -0.051578384 -0.03329956 0.016528627
-0.008799299 -0.046915118 0.025753416 -0.026783755 -0.031334154 -0.05965979 0.019714141 0.04383218
-0.024112284 -0.06077198 -0.031663734 0.053416524 0.023741769 0.03974635 -0.021266932 -0.05772802
0.034276113 -0.05699093 -0.017328905 -0.055560995 -0.015755968 -0.0062100347 -0.04012768 -0.05680343
0.04615754 -0.03256213 0.03287715 -0.0373494 0.021993615 -0.056436744 0.047531333 0.022973463
0.025002638 -0.014798845 -0.05498313 0.011450222 0.047853917 -0.0218231 0.0043100147 -0.05101067

conv3.0.bias f4 [64]
00000000: f553 19bd 2525 13bd 6857 833c 7d3f 6a3d
00000010: 3994 07bd b367 30bd 1e8a 283c 3d8e 5dbc
00000020: c592 fd3c 088f 5dbd e1d2 05bd ab1b 5dbd
00000030: e123 42bc 6e0f 623d 913f 53bd c147 d7bc
00000040: 7461 c23c f575 54bd ea41 243d f4e3 1dbd
00000050: 3fa9 5a3d a673 27bd 006c 473d fba1 5fbd
00000060: f54c a03c 0697 943b dcd4 d43c 0746 643d
00000070: 0981 023d 6efb f5bb 8931 9f3c fe45 503d
00000080: 7fc3 633a dd89 9cbb 33a2 4b3d 9502 59bd
00000090: 25ea 1dbd 5238 d33c f217 2cbd 52e2 c23c
000000a0: 1988 26bd 34f9 533d 3195 1ebd 737c 113d
000000b0: 2a45 45bd c48f 7a3c 2c68 5b3d c513 603d
000000c0: 091c 633d 9474 6cbd 219c d7bb 9d66 743c
000000d0: 8bcb a1bc 54a4 283c ec01 ebbb 8939 253c
000000e0: fd03 c7ba 7815 bfbc a3fb 9fbc 3b55 6fbd
000000f0: 876f 5c3d 3195 8abb e493 d3bc 3e9c 59bd
-0.037433583 -0.035924096 0.01603289 0.057189453 -0.03310034 -0.043067645 0.010286836 -0.013522682
0.030953774 -0.054091483 -0.032671813 -0.053981464 -0.0118493745 0.055190496 -0.051574294 -0.026279332
0.02372811 -0.051870305 0.040101923 -0.03854747 0.053384062 -0.040881775 0.04868698 -0.054597836
0.019567946 0.004534605 0.025980406 0.055730846 0.03186134 -0.0075067794 0.0194328 0.050848
0.0008688494 -0.004777177 0.049715232 -0.052980978 -0.038553376 0.025783692 -0.042015024 0.023789559
-0.040657137 0.05175133 -0.0387165 0.035519075 -0.048161663 0.015293065 0.053566143 0.054706354
0.05544666 -0.057728365 -0.0065798913 0.014917043 -0.019750377 0.010293085 -0.00717186 0.010084518
-0.0015183684 -0.023325667 -0.01952917 -0.05843089 0.0538173 -0.004229211 -0.025827356 -0.05312752

conv3.1.weight f4 [64]
00000000: ca30 7f3f b7ae 7e3f 352d 7f3f 3c2d 803f
00000010: 0255 7f3f e37a 803f fd94 7f3f a24a 803f
00000020: 616e 7f3f 6c63 803f 6190 803f 5323 7f3f
00000030: 1a7b 803f 7bb5 7e3f adf3 7e3f d54a 803f
00000040: e307 803f 5c5f 803f d246 7f3f b641 803f
00000050: 708d 803f 9b6d 803f 353d 7f3f 5a7c 7e3f
00000060: ad31 803f 081e 803f 1ca4 803f 9baf 7f3f
00000070: 4482 803f 7e3a 7f3f 22d5 7f3f fe74 803f
00000080: c317 7f3f 971f 7f3f 0340 7f3f d46f 803f
00000090: a89c 803f 8062 803f 07af 7f3f 1c4f 7f3f
000000a0: 43bb 7f3f 1e46 7f3f af31 803f 162d 7f3f
000000b0: b521 7f3f 3067 803f 428d 803f 191d 7f3f
000000c0: b324 7f3f e365 7f3f ff94 7e3f 4069 803f
000000d0: d327 7f3f f06f 803f 7a8a 803f 212f 7f3f
000000e0: 6659 803f 00ae 803f 3f42 803f e033 7f3f
000000f0: f67e 803f b02a 7f3f 476b 803f 476c 803f
0.9968382 0.99485344 0.99678355 1.0013804 0.99739087 1.0037502 0.99836713 1.0022776
0.997778 1.0030341 1.0044061 0.99663275 1.0037568 0.9949567 0.9959057 1.0022837
1.0002407 1.0029101 0.9971744 1.0020053 1.0043163 1.0033449 0.9970277 0.99408495
1.001516 1.0009165 1.0050082 0.9987733 1.0039754 0.99698627 0.9993459 1.0035703
0.9964563 0.9965758 0.9970705 1.0034127 1.0047808 1.003006 0.99876446 0.99730086
0.99895114 0.99716365 1.0015162 0.9967817 0.9966081 1.003149 1.0043108 0.99653774
0.99665374 0.9976484 0.994461 1.003212 0.9967014 1.0034161 1.004226 0.9968129
1.0027282 1.00531 1.0020217 0.9968853 1.0038745 0.9967451 1.0032738 1.0033044

conv3.1.bias f4 [64]
00000000: 5264 153b 61ab aebb 8552 a2bb ba5e 6c3a
00000010: c3a8 28bb 9050 b039 98ed b33b 04c1 9cba
00000020: a9b5 fbba ed93 1d3b 6515 8ebb c785 b9bb
00000030: 6027 2c3b d3c9 edba 2881 a1bb f354 adbb
00000040: ed76 abbb a3b1 55bb 8e7d b1bb 2a80 daba
00000050: c292 9cbb 1da4 2fbb 6d50 9dbb 62a4 23bb
00000060: 6491 12bb c875 603a 3140 f23a 3a27 93ba
00000070: 3331 753b b1cf 8bbb cb89 b8bb 7dff 81bb
00000080: 1ed0 2d3a d6a4 88bb 52c9 aebb 207c 0fbb
00000090: 1da2 5eba 64ea e639 687c 58bb 993f ebba
000000a0: 2eca ceba 23aa 1c3b 20cb 5239 86e2 043a
000000b0: f49b 303b 7af3 2dba f579 daba 3427 bcbb
000000c0: d430 c8ba c4ab 8dbb 9403 1ebb 4ece 393b
000000d0: f943 a4bb 9e4b 193b 15b0 a9bb c6e7 d839
000000e0: 0e54 a9bb 9791 8d3b 5216 0db9 8b4a 1ebb
000000f0: 9279 393a 5ec0 a6bb 663b 93bb 623c b3bb
0.0022795391 -0.0053304886 -0.0049536848 0.0009016801 -0.0025735355 0.0003362936 0.00549097 -0.0011959379
-0.0019203919 0.002404447 -0.0043360465 -0.0056616995 0.0026268587 -0.0018141813 -0.0049287267 -0.0052896678
-0.005232683 -0.00326071 -0.0054165786 -0.0016670276 -0.004778237 -0.00268007 -0.0048008473 -0.0024969806
-0.0022364492 0.00085624726 0.0018482265 -0.00112269 0.0037413358 -0.004266702 -0.0056316606 -0.003967224
0.0006630438 -0.0041700406 -0.005334058 -0.0021894053 -0.00084927847 0.00044043653 -0.0033033136 -0.0017948031
-0.0015776807 0.002390512 0.0002010283 0.0005069155 0.0026948424 -0.0006635707 -0.0016668426 -0.005741978
-0.0015273341 -0.0043234546 -0.002411102 0.0028351727 -0.005012986 0.0023391019 -0.0051784613 0.00041371415
-0.005167491 0.004320334 -0.00013455123 -0.0024153318 0.00070753053 -0.00508885 -0.004493165 -0.0054698447

conv3.1.running_mean f4 [64]
00000000: d625 91bd 4df7 1dbd 4905 34bd 8ce7 03bd
00000010: 64ec 03be fbda 033d 154e b0bd 9826 ce3c
00000020: e3fe 9cbd 7dc0 a83d 6aaa d53c 7e56 86bd
00000030: c67c 9c3d 7660 8abd a9a3 d0bd d9f6 c6bc
00000040: 2e4b 8a3d 7a52 0b3d 2772 533d 7bd7 24bd
00000050: 1c95 3a3e f6c3 01bd 348e 703d 63ab 89bd
00000060: a7df 133e 9099 e3bc 0f73 55bd d67d 0cbd
00000070: 9746 f13d 97d6 483d 8eb0 a1bd aa34 4e3d
00000080: e851 4ebd 6afb 893d 855b 8b3d 1eb5 4cbc
00000090: 92cc 323e baf9 0abd 21d1 8abd 8e4e a13d
000000a0: 4ba5 e6bd 728d 74bd cc08 673c d7b8 87bd
000000b0: 6ae2 113d 17e2 403d afa0 fa3d aa48 0b3b
000000c0: c53c 1d3d f73b 98bd 215a c53c b2dc ac3d
000000d0: 8c92 b73d 704d 5d3d 3a53 873d bf91 9e3d
000000e0: 9609 e93c a534 2e3c e029 d03d 6b4a 00be
000000f0: 5ba6 373d f89c 84bd caea be3b c81b 713d
-0.07087295 -0.038565923 -0.043950353 -0.032203242 -0.12883145 0.032191258 -0.08608643 0.025164887
-0.07665803 0.08239839 0.026082236 -0.06559466 0.07640986 -0.0675668 -0.10187466 -0.024287628
0.06752621 0.034014203 0.051622536 -0.04024456 0.18220943 -0.031681024 0.058729365 -0.067221425
0.14440785 -0.027783185 -0.05211168 -0.034299694 0.11781042 0.049032774 -0.07895003 0.050343193
-0.05037108 0.067374066 0.06804565 -0.012494354 0.1746085 -0.033929564 -0.067781694 0.07876311
-0.11261996 -0.059705205 0.014101218 -0.06627052 0.035616316 0.047090616 0.12237679 0.0021253028
0.038388032 -0.074333124 0.024090828 0.08440532 0.089634985 0.05402893 0.06607671 0.077426426
0.028446954 0.010632669 0.10164237 -0.12528388 0.044836383 -0.06475252 0.005826329 0.058864385

conv3.1.running_var f4 [64]
00000000: 25dd 2c3f e68e 1d3f d8fe 343f ae7f 253f
00000010: 2ec1 7e3f 5a50 2c3f 50af 393f b07c 233f
00000020: 0bfc 603f ec57 5d3f 8372 2d3f 944a 123f
00000030: ff52 463f 54e1 7f3f 161c 363f 3805 2a3f
00000040: d711 303f 67ac 223f 6b3f 233f da32 313f
00000050: 8b77 943f 5462 1b3f 1d7c 333f 86f6 473f
00000060: ea39 af3f 3df6 1c3f 69e0 3d3f e83e 373f
00000070: f3d6 333f a394 2b3f c3dd 363f ede8 363f
00000080: c0c5 3d3f f184 363f 971f 283f 9b80 283f
00000090: d5d2 ab3f 26ea 2f3f a456 2d3f 7368 443f
000000a0: 2bfd 4f3f 2c20 463f a53c 233f f0da 613f
000000b0: cc8a 2c3f d044 2e3f 6ba1 333f 2811 2b3f
000000c0: 6f25 1d3f 4706 1d3f d3b2 353f 3e85 4f3f
000000d0: 151a 303f 258a 423f 5dcf 613f 531c 483f
000000e0: a81d 3c3f 7c54 203f 603d 5d3f 3223 483f
000000f0: 0ce4 243f 080a 233f 680a 383f ee07 353f
0.6752494 0.6154617 0.7070136 0.6464795 0.9951352 0.67310107 0.7253313 0.63862133
0.8788459 0.86462283 0.67752856 0.5714505 0.7747039 0.999532 0.71136606 0.66414213
0.6877722 0.63544315 0.63768643 0.6921822 1.1598982 0.6069691 0.70111257 0.7811054
1.3689549 0.6131323 0.7417055 0.7158036 0.7024986 0.67023677 0.7143213 0.71449167
0.7412987 0.712966 0.656732 0.65821236 1.3423716 0.6871666 0.6771033 0.76721877
0.8124568 0.7739284 0.6376441 0.882247 0.6739929 0.6807375 0.7016818 0.66823053
0.61385244 0.61337703 0.7097599 0.81062686 0.687898 0.7599204 0.88207036 0.7816822
0.7348275 0.6262891 0.86421776 0.78178704 0.6441047 0.6368718 0.7189088 0.70715225

conv4.0.weight f4 [128, 64, 3, 3]
00000000: 3487 ddbc 81d4 90bc 1202 c6bc 680c f0bc
00000010: 80be ffbc ac09 e9bc 8f4d cfbb b99e 403c
00000020: e08d 69bc 1578 d9bb ccab 3d3a e0a5 f23c
00000030: 2a7a b73c 265a af3c cc4b 833b 87dd 333d
00000040: 7995 02bd 36d1 0c3d f7c5 fcbc 93da d93c
00000050: edad 9c3b 56e9 18bd 4aaf afbb b08d ecbc
00000060: d074 dcbc 3ce1 bdbc be5d d8bc 2a28 48bc
00000070: ff12 4dbc dd33 c5bb 6542 b43c 3c9d 38bb
00000080: 0712 73bc 975c 173d 760b b83c b4cf 14bc
00000090: 4b0e 18bc 303e 2a3c e75f 86bc f2c1 523a
000000a0: 4f98 15bc cbc7 2a3c 71af a63c e85b 04bc
000000b0: dfc0 b73c e7d0 1d3c 10b3 5ebc e666 ce3c
000000c0: 0245 053d 0193 a13c 13eb 2d3d e376 033d
000000d0: 320c ef3b 5ea2 713c 00b4 9d3b 8fcb 1dbc
000000e0: 8ee2 033c 660f 99bb 2e5e 02bd 692e 1f3d
000000f0: 30de a8bc a919 bd3c 0ab0 37bc 878c b2bc
00000100: 260a 91bc a28c 443c 4cd5 75bc 429f bdbc
00000110: eaef 2c3c 059f a2bc de1b 153d e9cd 85bb
00000120: 0002 79bc 23a5 383b a3a6 78bc e154 6dbc
00000130: c0f7 8a3c 5ec5 153d 50ce d9bc ed50 033c
00000140: e6a9 1ebc bc46 e9bc 71d5 e43c a7ef 0dbd
00000150: 30f3 b53c b5e1 4e3c 043a 86bc 5a25 20ba
00000160: e87e 883c 4d91 243d 32c1 143c 8db7 bfbc
00000170: 19cc da3c 7bc6 f93c 94b8 c3bc 4c37 073d
00000180: dc9e e4bc 35dd 353d 618a 2b3d 91a9 ff3c
00000190: 3f88 833c d4f1 44bb 6bad dabc 1e10 bf3c
000001a0: 9697 b4bc 7949 343b 1a22 56bc 4402 e7bc
000001b0: 522b dcbc 7216 a53c 1eee e4bb 3a4b 033d
000001c0: cbd7 e33c 65d8 00bd 90cc 223d e483 243d
000001d0: 48bb c63c 27b2 a2bc e1c1 d43c 6265 2b3d
000001e0: b55d 39bc d28a dabc 82c4 c0bb 513d 06bd
000001f0: b42b 093d 7abc ee3c 9460 063c 492a 05bd
00000200: 5b33 203d 22d1 97bc 0eff 9dbc 0419 debc
00000210: 871c 213d 92e6 a6ba a0f2 0d3d 09c7 833c
00000220: 62e6 3e3c ddb9 0bbd fdab 3a3b 8e8f 993c
00000230: 4b07 02bd 6aa3 27bc 99e0 e43c c32c d43c
00000240: 8d3d c6bc 359b 10bc 6f87 84bc 37d5 96bc
00000250: c08d 86bc 90c9 90ba f043 c13c 0b71 b03c
00000260: 1e49 e5bc c4d0 f2bb 55d7 0abd 37a1 89bc
00000270: ecc7 bcbb e3e3 dc3c 1621 c2bb b38e 84bc
00000280: 2376 493b 3dfc 62bc 6500 593c e94b 603b
00000290: 32ef 183d fe90 9fbc f866 7f3c af23 d2bc
000002a0: 2473 343d d37a 353b 10f7 803c 8243 85bc
000002b0: 2a87 9ebc 5bc0 40bc a7a3 2d3d edf7 08bd
000002c0: 61c3 9bbb e2af debc 8406 ebbc 567b 163c
000002d0: 80ec dfba 082c 5f3c 1f6a 103d 27f9 123d
000002e0: 39b4 f5bc dbee 8cbb 4e2f 283d 0bbe fe3c
000002f0: 4585 333b ae5e f03b f8c9 c8bb 2cda b13c
00000300: 8ad0 263d 7c88 92bc 2481 9e3c f37e 863c
00000310: edba 41bc ec4e a9bc 0b3b d73c 5dd6 e43b
00000320: 870b b63c b3b7 f4bc 0efe 293d 9618 6d3c
00000330: b9f6 313d 4098 903c 1128 b5bc 2a9e f63c
00000340: d124 1b3d d884 10bb 3d84 2d3b c92d aabc
00000350: 28c2 6dbc dd0b 8ebc 03dd 883c ab33 19bb
00000360: aeb2 303c d724 e53c b5d1 1d3b 76ff 423c
00000370: 5c57 3d3c 916c e4bb 9203 abbc 7028 243c
00000380: 3fa8 eb3c 2a9e 113d 54d1 2a3d c4a1 0c3d
00000390: b0f9 12bd 1d38 0e3b f82e 09bd e9ea 1a3c
000003a0: 0b66 a1bc 1501 c83b 6aa1 feba 0d03 b73c
000003b0: bdc9 2f3b 9256 9dbb 2c12 cabc 3eb3 9339
000003c0: e4f9 903c d92c e8ba 4e41 4bbc c9cb d5bc
000003d0: e227 df3c bba6 c33b 027e 2b3d 04c8 b8bb
000003e0: 3faf 1dbd f4b3 bf3c 8856 ebbb c8d9 ac3c
000003f0: a335 a63b fc5e 1abd aa0c d03c 102a 093d
-0.027042009 -0.017679455 -0.02417091 -0.02930279 -0.031218767 -0.028446995 -0.0063263844 0.011756592
-0.014255017 -0.0066366293 0.00072353776 0.029620111 0.02239712 0.02140529 0.0040068384 0.043912437
-0.03188083 0.034379207 -0.030856116 0.026593482 0.0047814758 -0.0373319 -0.0053614723 -0.028876156
-0.02691117 -0.02317869 -0.026411887 -0.012216607 -0.012516736 -0.0060181455 0.022004316 -0.002816989
-0.014835841 0.036953535 0.022466403 -0.009082723 -0.009280751 0.010390803 -0.016403152 0.00080397644
-0.0091305515 0.010423611 0.020347329 -0.008078553 0.022430835 0.009632326 -0.0135924965 0.02519555
0.032536514 0.019723417 0.042460512 0.0320958 0.007295155 0.014748184 0.0048127174 -0.009631052
0.00804962 -0.004671025 -0.031828098 0.03886262 -0.02061376 0.023083525 -0.011211405 -0.021795524
-0.017705034 0.01199642 -0.015004467 -0.02314723 0.010555247 -0.019851217 0.03640353 -0.0040833843
-0.015198231 0.00281746 -0.015176448 -0.014485569 0.01696384 0.036565177 -0.026587635 0.0080149
-0.009684062 -0.028476112 0.027933808 -0.03465238 0.022210687 0.012627055 -0.016385086 -0.00061090814
0.016662076 0.040177632 0.0090792645 -0.023402954 0.02670865 0.03049015 -0.023891725 0.03301172
-0.027907781 0.044400413 0.041880015 0.031208785 0.016056178 -0.0030051367 -0.02669402 0.023323115
-0.022044938 0.0027509613 -0.013069654 -0.028199323 -0.026876125 0.020152304 -0.0069863936 0.032054164
0.027812859 -0.03145637 0.039745867 0.040164843 0.024259225 -0.01986034 0.025971355 0.041844733
-0.011313845 -0.026677523 -0.0058828006 -0.03277332 0.033488944 0.029142607 0.008201737 -0.03251103
0.039111476 -0.01853234 -0.019286659 -0.027111538 0.039333846 -0.001273351 0.034655213 0.016086118
0.011651607 -0.0341128 0.002848386 0.01874521 -0.031745236 -0.010231832 0.027939128 0.02590025
-0.024199272 -0.008826067 -0.016177861 -0.018412216 -0.016425014 -0.0011046398 0.023591965 0.021538278
-0.027988967 -0.0074101407 -0.033896763 -0.016800506 -0.005761137 0.026964134 -0.0059243543 -0.016181326
0.003074058 -0.013854084 0.013244723 0.0034224933 0.03733749 -0.019478317 0.0155885145 -0.02565178
0.04405512 0.0027691617 0.015742809 -0.016267542 -0.01935156 -0.011764611 0.0423924 -0.033439565
-0.0047535156 -0.027183477 -0.02868963 0.009184679 -0.0017084032 0.013621338 0.035257455 0.03588214
-0.029993163 -0.0043009347 0.04106074 0.031096479 0.0027392667 0.0073355054 -0.006127592 0.021710478
0.040726222 -0.017887346 0.019348688 0.016417956 -0.011824352 -0.020667516 0.026273271 0.006983562
0.022222294 -0.02987275 0.04150205 0.014471194 0.043448184 0.017650723 -0.022113832 0.030104715
0.037876908 -0.0022051837 0.0026476525 -0.020773785 -0.0145116225 -0.017339641 0.01670695 -0.0023376744
0.010784788 0.027971668 0.0024081294 0.011901727 0.011556473 -0.00697095 -0.020875726 0.010019407
0.02876675 0.035551228 0.041703537 0.03433396 -0.03588265 0.0021700927 -0.03349206 0.009455421
-0.019701978 0.0061036446 -0.0019426767 0.022340322 0.0026823126 -0.0048015798 -0.024666868 0.0002817157
0.017697282 -0.0017713561 -0.012405707 -0.026098149 0.027240697 0.0059708036 0.041868217 -0.005639078
-0.038497206 0.023401238 -0.007181946 0.02109994 0.005072312 -0.03768824 0.025396664 0.03348738

conv4.0.bias f4 [128]
00000000: 2237 1a3d f5da 273d b1f7 8cba e90d 84bb
00000010: d499 97bc 22aa a3ba d65c 9fbc 6e34 9abc
00000020: d7ad bb3c df42 97bc 1c73 113d 7846 18bd
00000030: 2723 d2bc 0899 f33b 88a9 513b 1b5e 1c3d
00000040: 1642 dc3c b5e0 29bd 88a2 b6bc a2d0 7c3c
00000050: e6ce 7dbb 096b fa3c 7fdf 3bbc d66e 1c3d
00000060: 278a 9fbc 9af2 c7bc 8e66 09bd 75b4 ccbc
00000070: 3424 8e3c 6a41 0f3d cd9f 28bd 8972 d03b
00000080: 54b0 f93c c13a 0f3d 996a 1ebc 2061 fc3c
00000090: 0a71 05bc edb5 e63c 7a47 8e3c 7273 2f3c
000000a0: b56b 963c f3aa 84ba 37ef 68bc 901a 1d3d
000000b0: d7af 0ebd 5e46 e23c ba2e 27bd 3bb4 0dbc
000000c0: 433e 183a 8ca1 3bbb a38c 14bd 29ed b63b
000000d0: 9ac9 af3c 3cca 13bc 0d54 473b 8f31 5cbc
000000e0: fa0a d33c b2e0 cd3c 4e50 d1bc 954b 1c3d
000000f0: 56a3 16bd 8bb8 cabc 9c38 cc3c 7efc 08bb
00000100: a01d 1dbd 4c83 15bb 6d9f 10bb 048d ac3c
00000110: 19a3 653c fd12 a43c a1e8 dcbc 5edf 0d3d
00000120: 5f22 dabc 32ec 7bbc d4d1 deb7 4f3f 00bd
00000130: 445c be3c 6a04 e5bc b07d 2abd d891 dc3c
00000140: 7921 463c 4512 7d3c c5e2 9dbc 948e 11bd
00000150: 55fc 523c c9bc ff3c 7b02 243d c49c 22bc
00000160: e5f7 1fbd ce3a ab3c 842b 773c 648b 59bc
00000170: aa87 143d c68c bc3c 22f5 bbbc fa21 123d
00000180: 4793 053d 7257 08bd 57e2 ed3c f0bd 3e3c
00000190: f075 533c c772 7f3c 6550 a5ba 8bf4 e93c
000001a0: b7ca 0a3d 2941 d1bc 02e4 8b3b 7d94 1cbd
000001b0: 8bd9 c13c 3050 1c3d 1ef4 d3bb 63e8 12bc
000001c0: 13b8 28bd b8b9 f1bc e184 fabb 0176 bcbc
000001d0: 9444 15bc 2f0e 283d 8555 e83c 91fa f93c
000001e0: e1dc a7bc 0707 1ebd a18f fb3c 0844 283c
000001f0: b17b 943c c1b1 1b3b c13b 1dbd 2e10 fe3c
0.037650235 0.040980298 -0.001075497 -0.0040299785 -0.018505968 -0.0012486617 -0.019453447 -0.018823829
0.022910042 -0.018464504 0.035510167 -0.03717658 -0.025651528 0.007434014 0.0031991918 0.038175683
0.026886981 -0.041474063 -0.022294298 0.015430601 -0.0038728057 0.030568616 -0.01146686 0.03819164
-0.019475056 -0.024407674 -0.03354507 -0.024988392 0.017351247 0.034974493 -0.041168023 0.00636131
0.030479588 0.03496814 -0.00966897 0.030808032 -0.008144626 0.02816292 0.017368067 0.010708677
0.018361906 -0.0010121748 -0.0142171895 0.03835541 -0.034835663 0.027621444 -0.040816046 -0.008648927
0.00058076176 -0.0028630225 -0.036266934 0.005582471 0.021458436 -0.009020384 0.0030415088 -0.01343955
0.02576207 0.025131557 -0.025550988 0.03815802 -0.036776863 -0.0247462 0.024929337 -0.002090245
-0.03835833 -0.0022813855 -0.0022067681 0.021063335 0.014015936 0.020028586 -0.026966395 0.034636848
-0.026627718 -0.015376138 -2.6562171e-05 -0.031310376 0.023237355 -0.027956206 -0.04162377 0.026925012
0.012092941 0.01544625 -0.019273171 -0.035536364 0.012877543 0.03121795 0.040041428 -0.009925071
-0.03905477 0.020902064 0.0150860585 -0.013277862 0.03626219 0.023016345 -0.022944037 0.035676934
0.032611158 -0.03328652 0.029038591 0.011641964 0.012906536 0.01559133 -0.001261246 0.02855899
0.03388473 -0.025543766 0.004269124 -0.038227547 0.023663303 0.03816241 -0.00646831 -0.008966538
-0.04119117 -0.029507503 -0.007645235 -0.023005487 -0.009110589 0.04102915 0.028361091 0.030514987
-0.020491065 -0.03858092 0.030708136 0.010270126 0.018125387 0.0023757073 -0.038387064 0.031013574

conv4.1.weight f4 [128]
00000000: 3e62 803f c652 7f3f 4e58 803f d16d 7f3f
00000010: 7234 7f3f 2c3a 803f e157 803f 3352 7f3f
00000020: ccbf 7e3f 6260 803f 2fb2 7f3f 507e 803f
00000030: 576b 803f bd45 7f3f 12c4 803f bbed 7e3f
00000040: 108e 7f3f 27c3 803f be87 7f3f ad23 7f3f
00000050: 986a 803f ac36 803f a5d5 7e3f fa5e 803f
00000060: 5222 7f3f b170 803f 1437 7f3f 626e 803f
00000070: 2175 803f a757 803f e7b4 7e3f 78ae 803f
00000080: 6247 803f 7b30 803f 535d 803f 8d3a 803f
00000090: 9a36 7f3f 6b3d 7f3f e30f 7f3f bc59 803f
000000a0: 464a 803f 13dc 7e3f d403 7f3f 32d0 7e3f
000000b0: 3c61 803f a7b4 803f 283e 7f3f 5baa 803f
000000c0: 7694 803f e77b 803f e44e 7f3f 3e8b 7f3f
000000d0: a347 803f 5266 803f 8e59 7f3f 4e13 7f3f
000000e0: bf78 803f 9ebd 803f 0765 803f 8bc2 7e3f
000000f0: ee51 803f 2a8f 7f3f 1f5b 803f c1b0 7e3f
00000100: 2e1a 7f3f 2c4e 803f 32a0 803f d156 803f
00000110: cc4a 803f 7e24 803f c186 803f b667 803f
00000120: 96f5 7f3f cd60 803f b6a6 803f 8baa 7e3f
00000130: 7ab0 803f 22ce 7f3f b76d 803f 3f4a 803f
00000140: ad48 803f dab4 7e3f 1dc7 7f3f 1fa4 7e3f
00000150: ae3c 7f3f b62f 7f3f 8955 7f3f c070 803f
00000160: aea6 803f 053e 7f3f 06f8 7e3f ca12 7f3f
00000170: a62d 7f3f b5bf 803f a7cd 7f3f e118 803f
00000180: 0089 803f 0923 7f3f 549f 7f3f b95d 803f
00000190: 4972 7f3f 723b 7f3f 0b95 803f 1e63 803f
000001a0: a13f 803f a85c 7f3f 625d 803f 0d0f 803f
000001b0: b720 803f 73f9 7e3f 54e4 7e3f 0e3f 803f
000001c0: 2c27 7f3f e863 7f3f db2f 7f3f 726a 803f
000001d0: c463 803f 7d57 803f 0843 803f 8f04 803f
000001e0: 2f10 7f3f 450b 7f3f e40d 7f3f 43a5 7f3f
000001f0: 261e 7f3f c558 7f3f 67cf 7e3f 92e8 7e3f
1.0029981 0.9973568 1.0026948 0.9977694 0.996894 1.0017753 1.0026819 0.997348
0.9951141 1.0029414 0.9988126 1.0038548 1.0032758 0.9971579 1.0059836 0.995815
0.99826145 1.0059556 0.998165 0.9966381 1.003253 1.0016685 0.99544746 1.0028985
0.99661744 1.0034391 0.9969342 1.0033686 1.0035745 1.0026749 0.99494785 1.0053244
1.0021784 1.0014795 1.002848 1.0017868 0.9969269 0.9970309 0.99633616 1.0027385
1.0022666 0.99554557 0.99615216 0.9953643 1.0029674 1.0055131 0.9970422 1.0051988
1.0045307 1.0037812 0.9972975 0.9982184 1.0021862 1.0031226 0.99746025 0.9963883
1.0036849 1.0057867 1.0030831 0.995156 1.0025003 0.99827826 1.0027808 0.99488455
0.9964932 1.0023856 1.0048888 1.0026494 1.0022826 1.0011137 1.0041124 1.003165
0.9998411 1.0029541 1.0050876 0.9947898 1.0053856 0.9992391 1.0033482 1.0022658
1.0022179 0.9949471 0.999132 0.9946918 0.99701965 0.99682176 0.9973989 1.0034409
1.0050867 0.9970401 0.99597204 0.99638045 0.9967903 1.0058504 0.99923176 1.0007592
1.0041809 0.99662834 0.9985249 1.0028602 0.9978376 0.9970008 1.0045484 1.0030248
1.0019418 0.9975076 1.0028498 1.0004593 1.0009984 0.9959938 0.9956715 1.0019243
0.99669147 0.9976182 0.99682397 1.0032485 1.0030446 1.0026699 1.0020456 1.0001391
0.9963407 0.9962657 0.9963057 0.99861544 0.9965538 0.99744827 0.9953522 0.99573624

conv4.1.bias f4 [128]
00000000: 7c4b 41bb f282 1a3b bc8d d5b9 648e 1e3a
00000010: d323 8ebb e1c3 a5bb 6b6c d3ba 22c8 553b
00000020: a339 b9bb 9c56 7c3a ac16 3cbb 508a 963b
00000030: c124 05bb 6376 403b b809 b43b a093 5438
00000040: 4777 5b3b c4b5 be3b ebeb 93bb e76e 8dbb
00000050: df07 343b 7122 3f3b 48b7 0eba 5f68 3a3a
00000060: c217 69ba 300e 943b cc86 dfba 8010 a53b
00000070: 45a8 07b9 d382 9cbb ea55 afbb dc30 9c3b
00000080: 7a93 2db9 301f b0ba 70f6 d037 46b1 453b
00000090: ec7e f33a 57ed 2aba 3373 8dbb a6df 00bb
000000a0: 93ee 7dba 9a56 49bb d5f0 c0bb 3836 9cbb
000000b0: 650c 323b 8563 be3b 29c6 d339 3536 273b
000000c0: c5d5 a93b 2b3f 873b 51eb 40ba 977e 033b
000000d0: 3564 91ba cf3b 353b 3740 2dbb 81a1 a7bb
000000e0: 9833 b7ba 8ed8 b83b 7f7b 693a b206 babb
000000f0: 35bb 753a 30d5 ab3a e617 b8bb 48d0 bcbb
00000100: 21fa 85bb 063c 33bb 9241 b73b 817f 543b
00000110: 0a8a 373a f51d 113b 142c 7c3b af2b 6c3b
00000120: 3120 abbb c6f5 64ba fde7 b03b e8ee acbb
00000130: 889d 9aba 6d14 8fbb ff35 3b3b a771 14bb
00000140: 670f 8dbb e810 91bb db21 b6b9 b28e 923b
00000150: e155 80bb f2b4 abbb 6f35 cab9 ba16 363b
00000160: c370 993b 40c1 8bba afb2 a3bb 7430 5bbb
00000170: de15 8cbb 4c2f b63b 5b61 89bb 8b88 a1bb
00000180: 44b8 b83b 14a4 55bb d31b a6bb 98a3 013a
00000190: a0f6 643b 5e94 813a ad0e 483b 7616 c43b
000001a0: 0234 beba 6e81 893a 2c66 b5bb 984e 86bb
000001b0: 5930 c3ba c6d2 84bb 3f25 a4bb b54a 9dbb
000001c0: 78b4 e4ba a461 b1bb 8189 83bb dd89 0a3a
000001d0: 0a66 ad3b 2415 23ba e237 c5ba 2522 bdbb
000001e0: 4444 83bb 4cc5 4cbb 9606 86bb 1a1f 373b
000001f0: b249 8cbb 07e1 2f3b ad12 5abb deba 8bbb
-0.0029494455 0.0023576585 -0.00040732126 0.00060484395 -0.0043377667 -0.005058751 -0.0016130334 0.003262051
-0.005652623 0.0009625943 -0.0028700037 0.004594125 -0.0020316096 0.002936744 0.0054943226 5.0682225e-05
0.0033487843 0.005820008 -0.0045142076 -0.004316199 0.0027470512 0.0029164816 -0.0005444181 0.00071108894
-0.0008891785 0.004518293 -0.0017053722 0.0050373673 -0.00012937289 -0.0047763376 -0.005350818 0.0047665667
-0.00016553505 -0.0013437029 2.4910289e-05 0.0030165478 0.0018577254 -0.0006520352 -0.0043167113 -0.0019664555
-0.00096867344 -0.0030721785 -0.0058880844 -0.0047672056 0.0027168032 0.0058102035 0.00040392697 0.0025514488
0.005182954 0.0041274033 -0.00073592836 0.0020064467 -0.0011092486 0.0027654057 -0.002643598 -0.0051156883
-0.0013977168 0.0056410497 0.0008906647 -0.0056770677 0.00093739043 0.00131098 -0.0056180833 -0.0057621337
-0.0040886556 -0.002734901 0.0055925334 0.003242463 0.00070014654 0.00221431 0.003847842 0.003603678
-0.0052223434 -0.0008734133 0.005398749 -0.0052775033 -0.0011796216 -0.0043664486 0.002856612 -0.002265075
-0.0043048146 -0.004427064 -0.0003473897 0.004472577 -0.0039164876 -0.005240076 -0.00038568254 0.0027784542
0.0046826317 -0.0010662451 -0.004995666 -0.0033445628 -0.0042750677 0.0055598374 -0.004192514 -0.0049296073
0.0056372005 -0.003259902 -0.005069235 0.0004945337 0.003493704 0.0009886136 0.0030526326 0.005984123
-0.0014511349 0.0010490844 -0.0055358615 -0.0040987246 -0.0014891728 -0.0040534465 -0.005009323 -0.0048001655
-0.0017448803 -0.005413251 -0.0040141945 0.00052848255 0.005291705 -0.0006221107 -0.0015046562 -0.0057718926
-0.0040059406 -0.0031245528 -0.0040901406 0.0027942122 -0.004281246 0.0026837008 -0.0033275292 -0.0042642197

conv4.1.running_mean f4 [128]
00000000: 6078 ed3d 1507 db3d 1e69 d63d 79b0 05be
00000010: 027f 643d ea8e fd3d de22 dc3d cdd8 c0bd
00000020: 682b 2ebc 70c3 913d 92ff df3c a32a 3a3d
00000030: 606f 513d 7acd 05be 8755 b4bd 04c7 3d3d
00000040: 538c 8abd 549a fdbd 04cb 9f3c e2eb db3d
00000050: 3682 a33d f952 133d baf9 9bbd 13d9 cb3d
00000060: f41e 4bbc 7eae 683c 6a70 06be f26c d0bc
00000070: 37e4 d93d 3cfd d23d 2bcd 2cbd e8fa a03d
00000080: 9820 903d 71d1 da3d 6100 d13d 3387 c33d
00000090: 5f0d f0bd 98b0 dbbd 1b78 2c3e 4930 9c3d
000000a0: 8d8f 8a3d e5a0 3c3d 3b6f 85bd eef0 083e
000000b0: 5bca e8bd 58a6 c93c 50d8 e3bd ecd6 b93d
000000c0: e4f9 febd f755 e0bd 9c1c c3bd 20e2 25be
000000d0: f87d e83b b6c3 973d 14e0 babd fa73 593c
000000e0: 7c8e 903d eed2 55be c164 793d 6340 8e3d
000000f0: a5ac 613d 06ee 20be 8416 163e 31f4 a9bd
00000100: 5fc9 45be 60e5 cd3d 3ae4 5e3c 8934 bf3c
00000110: 8c7b 7b3d 07e3 85bd f8c4 7d3d 397b 373d
00000120: 5874 8b3c 0c1f f93b 345a e6bd 7e6e b83d
00000130: 46c6 e1bb 0da4 b53d 15d6 8d3d 3ff1 0c3e
00000140: f430 b43d 1676 a0bd 434b 313d aedd 843c
00000150: 807f f83c 0250 2bbd 9718 0f3e afd7 a43c
00000160: e57f 4e3d a384 b53c 2450 7b3d 7b8c 91bd
00000170: e284 893d e34d 31bd 4816 893d 7641 533c
00000180: ee66 0fbc ea20 cd3d 4a72 943d 9ef8 373d
00000190: e0a4 3e3e e066 64bd c8d2 57bd b2cf 9dbd
000001a0: 9870 da3c eaac ddbd 9585 123e da78 5fbc
000001b0: 95a4 a73d fffb 82bd 4438 b03b 9e72 783d
000001c0: d625 3bbc f008 0ebd 0292 f03c de01 9e3d
000001d0: 169e 7bbc 900d a03d 5911 bb3d 9d52 353e
000001e0: b804 e2bd 0457 3abe a64b b7bd b427 63bd
000001f0: bf67 1c3e f0b0 e8bd 25b0 c4bd b232 79bd
0.11595225 0.1069471 0.10469268 -0.130556 0.055785187 0.12380774 0.10748838 -0.094163515
-0.010630466 0.07117355 0.027343545 0.045450818 0.051131606 -0.13066664 -0.088053755 0.046332374
-0.06765046 -0.123829514 0.019505985 0.107383505 0.0798382 0.0359678 -0.07615991 0.09953513
-0.0123975165 0.014201758 -0.1312882 -0.025442574 0.10639232 0.10302207 -0.04218785 0.078603566
0.07037467 0.10684479 0.102051504 0.095472716 -0.117213 -0.10727042 0.16842692 0.07626397
0.067656614 0.04605188 -0.06515356 0.13373157 -0.11366721 0.024615452 -0.11125243 0.09074196
-0.124500066 -0.109538965 -0.09526941 -0.16199541 0.007095095 0.07410376 -0.09124771 0.01327228
0.07058427 -0.20881245 0.060887102 0.069458745 0.055096287 -0.15715799 0.14657027 -0.08298529
-0.19315098 0.100535154 0.013604218 0.02334048 0.06139712 -0.06537443 0.061955422 0.04479525
0.01702325 0.007602578 -0.11247674 0.0900545 -0.006890091 0.08869181 0.069255985 0.13763903
0.087983996 -0.07835023 0.043284666 0.016218986 0.030334234 -0.04182435 0.13974224 0.020122377
0.05041494 0.022157973 0.061355725 -0.07106873 0.067147985 -0.04328717 0.06693703 0.012894025
-0.008752568 0.100160435 0.072483614 0.044914834 0.18617582 -0.05576217 -0.05269125 -0.0770563
0.026665017 -0.10823996 0.1430877 -0.013639653 0.081856884 -0.06395721 0.005377801 0.060656182
-0.011422595 -0.034676492 0.029366497 0.077152 -0.015357515 0.07815087 0.09134168 0.17707296
-0.11036056 -0.18197256 -0.08949976 -0.055457786 0.15273951 -0.11361873 -0.096039094 -0.060839362
