artifact/prediction_artifact/prediction_model/model.pt (torch, 440907 bytes, 26 tensors)

conv1.0.weight f4 [16, 1, 3, 3]
00000000: e1fb 0f3e 0b88 14bd 5666 6fbe 051b 9a3e
00000010: 0bb4 0d3e 7088 723e deca 73be d703 2b3e
00000020: 3000 26bd 9c54 083e 8654 bbbd 59f6 743d
00000030: b934 413e 45bf 3ebd b4b5 ce3d d124 b23d
00000040: 02b4 a83e c489 a5be 4c7d a5be 200d 953d
00000050: 294d dbbd 3a92 163e cca2 813c a515 6cbe
00000060: a26d 51be 50fd 2ebd 8255 653e d07a 9abe
00000070: 2c6d 8fbe 132b 1cbd 7b81 e5bd 46d3 7a3e
00000080: b0dc a5be 43bf 473d 9cc9 8a3e 5411 babc
00000090: b0b1 8d3e 914c f2bb b56f 023d 55cd 39be
000000a0: 849e 82be b704 943e b2a1 a93e cb04 0a3e
000000b0: 8a70 36be 590f 863e 4d84 9e3c 5f30 5d3d
000000c0: 59cb efbd 13ad 813e 3bce 3dbe da40 7a3e
000000d0: e7a1 ac3c a8e7 a8be 6ab0 403e ea14 38be
000000e0: 656c 75be ffc6 73bd 414b 5abe 28a4 17be
000000f0: b107 663e 7a2e e1bd 8c2c 92be 8463 8cbe
00000100: 6ac8 013c 3ae7 c0bd 31bd 8abe 21fb 933e
00000110: b2c8 adbc 2fea a73e 7b8f a9bd bd8a 943e
00000120: 8772 0fbd 6702 85bd f78f 4c3e 22b8 6ebc
00000130: 5fc0 863e 0e6e 63bd 55d6 39bd 0cc6 873e
00000140: befa 23be fd82 03be a04d 10be f095 23be
00000150: f6b4 473d 6935 88bd adf1 de3d 06ed 773e
00000160: 8505 a83e dbf6 4bbe 0ca7 963e 8045 00be
00000170: 81e4 a5be 9649 b9bc c868 6c3e e259 703e
00000180: 1068 8dbe 06e1 1abe 0e7d a43e 0866 34bd
00000190: a133 a33e 1365 773e cdf7 3abe a301 a23e
000001a0: f956 9cbe 37c1 95be 4a0d 85be 8541 ba3d
000001b0: dc99 6a3e 61b4 523d c87e b43d 5d63 52be
000001c0: 156e 18bc e9ef e7bc aca7 203e 3c1b a23e
000001d0: d468 733e 2d1e d53d 078a c13d 43e4 3bbe
000001e0: d71c 7e3e 1be2 bbbd 80aa 693e 2ca1 e63d
000001f0: 720f 313d 00f9 573e a307 633e e017 22be
00000200: 8f14 c1ba dccd 5bbc ed62 f93d 8166 ae3c
00000210: 840a 2ebe f571 f03c 3ac5 07be b8da 7fbe
00000220: 5955 873e 8400 00bd 46b8 32be 1d16 52be
00000230: 051d 63be cb2b 19be d745 fe3d e99d 97be
0.14060928 -0.036262553 -0.23378882 0.3009874 0.13838212 0.2368486 -0.23807856 0.16700684
-0.040527523 0.13313526 -0.09146981 0.059805248 0.18867768 -0.046569128 0.10093251 0.086984284
0.32949835 -0.3233167 -0.32322156 0.07277894 -0.107080765 0.14704219 0.015824698 -0.23055132
-0.20451978 -0.042722046 0.223959 -0.30171824 -0.2801298 -0.038127016 -0.11206337 0.24494657
-0.32394934 0.048766386 0.2710694 -0.02271334 0.27674627 -0.0073943813 0.031844813 -0.18144734
-0.25511563 0.28909847 0.33131176 0.13478391 -0.17816368 0.26183584 0.019350195 0.05400121
-0.11708707 0.25327358 -0.18535702 0.24438801 0.021073295 -0.3298924 0.18817297 -0.17976728
-0.2396713 -0.05951595 -0.2131777 -0.14808714 0.22463872 -0.10995193 -0.28549612 -0.27419674
0.007921318 -0.09419103 -0.27097467 0.28902534 -0.021213863 0.32795855 -0.0827932 0.290121
-0.03502133 -0.06494599 0.19976793 -0.014570268 0.26318642 -0.05552488 -0.04537042 0.26518285
-0.1601362 -0.12842937 -0.14092112 -0.15975165 0.048756562 -0.06650812 0.1088594 0.24211511
0.3281671 -0.19918387 0.29424322 -0.12526512 -0.32400897 -0.022618096 0.23086846 0.23471788
-0.27618456 -0.15124902 0.3212666 -0.044042617 0.31875327 0.2415965 -0.18258591 0.31641874
-0.30535105 -0.29248974 -0.259867 0.09094528 0.22910255 0.051441554 0.08813244 -0.20545717
-0.009303589 -0.02831264 0.15688962 0.31661403 0.23770458 0.10406146 0.09450155 -0.18348794
0.24815689 -0.091739856 0.22818947 0.1126121 0.04322762 0.2109108 0.22170882 -0.1582942
-0.0014730858 -0.01341578 0.12177072 0.021289112 -0.16996199 0.029351214 -0.1325883 -0.24985778
0.26432303 -0.03125049 -0.17453107 -0.20516248 -0.22179039 -0.14958112 0.12415665 -0.29612663

conv1.0.bias f4 [16]
00000000: 6b71 063e 1ffa 03be c399 61be 3958 56be
00000010: bc82 4abe 0fff 92bd 0995 81be 8953 153e
00000020: 00bc d83d 5c6e 6ebe d478 d8bd 0095 97be
00000030: 6a7a 5fbd 3c1b 883e a95d 09be 9af8 0cbe
0.13129203 -0.12888382 -0.22031312 -0.20932092 -0.19776434 -0.07177555 -0.25309017 0.14582647
0.10582733 -0.23284286 -0.10569921 -0.29605865 -0.054560103 0.26583278 -0.13414635 -0.13766709

conv1.1.weight f4 [16]
00000000: d22c 7f3f afd8 7e3f 7dab 7f3f ff16 803f
00000010: 20fa 7f3f abc7 7f3f f6e0 803f 4542 803f
00000020: e194 7e3f c6d3 803f 9773 803f d304 803f
00000030: 63fa 7f3f 8a2b 7f3f 0bce 7e3f b62d 803f
0.99677765 0.9954938 0.99871045 1.0007018 0.99991035 0.99914044 1.0068653 1.0020224
0.9944592 1.0064628 1.0035275 1.0001472 0.99991435 0.9967581 0.99533147 1.001395

conv1.1.bias f4 [16]
00000000: b82f 633b 1244 783b 1204 f83b 80f4 79bb
00000010: 8d99 73bb 5768 34bc 8846 183b 6a7d 853b
00000020: 7099 273c 8d2e 163c ed9b e33b cf00 4b3b
00000030: 363d 9eba 4d11 e53b 1ca4 0e3c 6641 29bb
0.0034665894 0.003788237 0.0075688446 -0.0038140118 -0.003717038 -0.011011205 0.00232354 0.0040737884
0.010229453 0.009166372 0.006946078 0.0030975824 -0.0012072686 0.006990588 0.008706119 -0.0025826334

conv1.1.running_mean f4 [16]
00000000: a6ed 9841 ff72 9741 b3a2 9bc1 a48e b5c1
00000010: a15d 9541 6553 1941 c2da 0fc2 2be6 ee40
00000020: ac9a 7741 faeb a03f 33a2 fc40 284a a8c0
00000030: b2ed 1042 ed94 0542 3134 79c0 2df4 22c2
19.11604 18.93115 -19.454443 -22.694649 18.670717 9.58286 -35.96363 7.4655967
15.475262 1.2572014 7.8947997 -5.2590523 36.232124 33.395435 -3.8938105 -40.738453

conv1.1.running_var f4 [16]
00000000: c697 3d47 0347 4647 0452 0b47 7a55 9c47
00000010: 64f1 2947 e7f6 5e47 9c4a b447 ecdd 7b47
00000020: 630a 1e47 670a 2c47 88aa 9047 89b3 a747
00000030: 292b 5047 45b4 5f47 d398 8a46 93ca ab47
48535.773 50759.01 35666.016 80042.95 43505.39 57078.902 92309.22 64477.92
40458.387 44042.402 74069.06 85863.07 53291.16 57268.27 17740.412 87957.15

conv2.0.weight f4 [32, 16, 3, 3]
00000000: 4458 8cbd 8899 763c af4a 0c3d 8268 21bd
00000010: aa64 80bd 2c22 e8bb 640a aabd 2dae 99bd
00000020: 52dc 96bd 76b4 c2bc f1e9 723d b892 063d
00000030: 3f9c 51bc eca0 7b3d 9d43 f13c 3224 853d
00000040: 4269 83bd 5ebc 89bd 71ce bfba df4b 993d
00000050: 41bc 81bd df92 703c 206d 77bd 8707 a5bd
00000060: d4ca 9f3d 2892 83bd 4b55 893c d212 a5bd
00000070: 7050 ebbc 0cd8 523d a39d 74bc 4870 2bbd
00000080: f8c8 95bd 43ba b93b cd18 15bd 0d6a 433d
00000090: 49b2 173d 6637 62bd 0710 933c b852 1ebd
000000a0: ff24 8bbd ff81 92ba 3bbe 3b3d e04e 5abd
000000b0: a9ec aa3d e3ee c7bc 67c1 23bd 24bb 71bc
000000c0: 2c1b 8cbd f31f 6bbd b366 28bd b719 113d
000000d0: 7397 5abd 1dc9 a23d 123a 8e3d 5b95 99bd
000000e0: 5368 9e3d 7e51 883d d8ee 923d 8dc7 953d
000000f0: 5015 f6bc a13b 993c 7c23 b0bc 966e 6abd
00000100: fc16 98bd 7096 9fbd 27a0 8d3d 6b78 a8bd
00000110: 6a32 e0bc 8690 753d eed2 b9bc 2802 983d
00000120: cb9c 943d ee13 383c ac62 2d3d c921 893d
00000130: f9e4 983c a585 9ebd 5372 e5bc ab96 c6bc
00000140: b56d 69bd bc56 88bd a252 0bbd c8b1 8cbd
00000150: 8765 50bd 1871 803d 0596 a2bb 9aba 4bbd
00000160: 2ebe 64bd de9f 7bbd 4ed2 b3bd c162 663d
00000170: 8749 54bd b526 943d 6c93 a2bd b88d 37bd
00000180: 8a39 933c 46db 793d 6049 8dbd 601b 563d
00000190: 3e1f 0abb 8421 69bd 8a76 583c 4db0 12ba
000001a0: 35c0 44bd c15e 743c b438 8f3d d036 483c
000001b0: d46d 99bd e537 79bc e137 d6bc 3b17 f43c
000001c0: 46fd a7bd 0b9e 873d 98dd a53c acd9 c6bc
000001d0: 5432 643d cdd6 5cbd c984 b03c d4b9 a8bd
000001e0: 151f 78bd 219b 8b3d 8498 713d 70a1 aabd
000001f0: e44f 24bd 22ea a33d fb15 6bbd 10c2 65bb
00000200: a476 abbd 8ba0 f93c 4a2d 743c cde5 a9bd
00000210: 83fe 483d 993d ad3c 4e30 29bc 35ba 80bc
00000220: 5e25 193b b560 893d c550 cabc ec57 d63c
00000230: 0a74 86bb 1a39 85bd da39 5f3d 54c6 783c
00000240: 744f 8e3d 46e3 923d 91ce 34bc 79fb 1c3d
00000250: 3071 60bc ea8d 8ebb 2f40 623c eb91 1e3b
00000260: ce21 33bd e687 103d 7d93 363d 4457 21bb
00000270: 8ad6 0ebb 2b79 c9bc c2ff bf3c edaf 80bd
00000280: 8e38 9cbd 5241 223d 81e3 6b3c f642 683d
00000290: d17e b9bb eb21 883c 7d3d ddbb 9c41 f5bc
000002a0: f0cb 9a3d a067 11bd 19c8 533d 4a3c e0bc
000002b0: 4e21 293c 653e 603d 0f5c 79bd 9776 273d
000002c0: 1bc9 a33c 33aa 57bc bf4b dabb 4cd7 bc3c
000002d0: 108a 0ebd a872 9a3d 456e 2bbd 75a3 303d
000002e0: d6f5 d3bc f56b 7abb 6270 a83d 6cbc e63c
000002f0: 421d 9d3d 8d67 8bbd 1a31 ed3c 094a b53c
00000300: ebf6 88bd f1d6 4dbd b366 7cbd d09a 91bd
00000310: 01ef 91bd 5589 b43c fa1e 58bd 8c91 093d
00000320: c0bc 9c3d 0233 313d f730 1fbc 77c1 e03c
00000330: 0642 a83d 4c80 56bd 0a16 533d 1bf6 35bd
00000340: 0c09 e0bc 6eda ebba 0a49 dd3c a3a5 9d3c
00000350: 1d93 0f3c c916 ae3d 7076 24bc a62e 223b
00000360: e7bc 94bc 3ed4 b93c 95af 39bd 72ad 873d
00000370: 652e 1d3d cf5c 85bd a9a8 1f3d 6435 c93c
00000380: 8a15 39bc 3f4e c1bc 43cc 69bd 9378 71bc
00000390: b640 583d 2a3a 943d 9835 1abd 2ea7 903d
000003a0: a6b4 9a3d 257e d4bc 0f25 883b 5100 68bd
000003b0: f8f2 193d 7ff5 8ebc a5ac adbd 2e64 66bd
000003c0: 4a6f 863c cc04 bd3c 908f 703d 822b 5cbd
000003d0: 1f10 bcbc ba11 473d 7aea f9bc ac9f 92bd
000003e0: 7a99 70bd 00bc a33c 6724 8abd 2860 55bd
000003f0: a466 653d b12a 00bd 64db e5bc cd00 5b3d
-0.06852773 0.015051253 0.03425091 -0.039406307 -0.062692 -0.0070841517 -0.08302763 -0.075039245
-0.073662415 -0.023767691 0.059305135 0.032854766 -0.0127936 0.061432764 0.029451186 0.06501044
-0.06416561 -0.06725381 -0.0014633668 0.074851744 -0.06334735 0.014683454 -0.060406804 -0.08058076
0.07802358 -0.064243615 0.016764304 -0.0806023 -0.028724879 0.05147557 -0.014930162 -0.041855127
-0.07313722 0.005667956 -0.036400605 0.04770856 0.03703526 -0.055228613 0.017951978 -0.038653105
-0.06794166 -0.0011177658 0.045835715 -0.053297877 0.083459206 -0.024405902 -0.039979365 -0.01475409
-0.0684112 -0.057403516 -0.041113567 0.035424914 -0.05336709 0.079485156 0.0694467 -0.074991904
0.07734742 0.066561684 0.07174462 0.07313452 -0.03003946 0.018705191 -0.021501295 -0.05723437
-0.07426259 -0.077923656 0.06915312 -0.08226093 -0.02736779 0.05995228 -0.022683587 0.07422286
0.072564684 0.01123522 0.04233043 0.06695897 0.01866387 -0.077403344 -0.028008616 -0.024241766
-0.05698939 -0.06657168 -0.03401435 -0.068698466 -0.050878074 0.06271571 -0.0049617314 -0.049738504
-0.055845432 -0.061431758 -0.08780347 0.056246523 -0.051827934 0.07233945 -0.07938275 -0.044812888
0.017971773 0.06100013 -0.06898761 0.0522722 -0.002107575 -0.05691673 0.013211856 -0.0005595729
-0.048034865 0.014915169 0.06993237 0.0122201 -0.07491651 -0.01521108 -0.026149692 0.029796233
-0.08202605 0.06621941 0.020247266 -0.024273716 0.05571206 -0.053915787 0.021547692 -0.08238569
-0.060576517 0.06816698 0.05898334 -0.08331573 -0.040115252 0.08003642 -0.05739401 -0.0035058297
-0.08372238 0.03047206 0.014903376 -0.08295784 0.049070846 0.021147536 -0.010326458 -0.01571379
0.002336822 0.067078985 -0.024696717 0.026164971 -0.0041031884 -0.06505032 0.05449853 0.015184004
0.06948748 0.07172255 -0.011035577 0.03832576 -0.013698861 -0.0043504136 0.013809248 0.002419586
-0.04373341 0.035285853 0.04457425 -0.0024618665 -0.0021795356 -0.02459391 0.023437385 -0.06283555
-0.076279745 0.039613076 0.014397503 0.056704484 -0.0056608696 0.016617736 -0.0067517147 -0.029938512
0.07558429 -0.035499215 0.0517045 -0.027372498 0.010322882 0.054747004 -0.06087881 0.04088458
0.019993355 -0.013163137 -0.0066618617 0.02305188 -0.034799635 0.075414 -0.041853208 0.043124635
-0.02587406 -0.003821132 0.0822456 0.028166018 0.07671596 -0.0680686 0.028954078 0.02213003
-0.06687721 -0.050253812 -0.06162138 -0.07109606 -0.071256645 0.022038141 -0.052763917 0.03358607
0.07653189 0.043261535 -0.009716264 0.027436001 0.08215718 -0.052368447 0.05153469 -0.044424158
-0.027348064 -0.0017994174 0.027012367 0.01924402 0.008763102 0.0850044 -0.010038003 0.0024747043
-0.018156482 0.022684213 -0.045333464 0.06624879 0.038374323 -0.065118425 0.038979206 0.024561591
-0.011296639 -0.023596881 -0.057079565 -0.01473822 0.05279609 0.072376564 -0.037648767 0.07063137
0.07553987 -0.025939057 0.0041548084 -0.056640927 0.03758523 -0.017451046 -0.08480195 -0.056247883
0.016410489 0.023073576 0.058730662 -0.05375243 -0.022956906 0.04860089 -0.030507315 -0.07159361
-0.058740117 0.019987106 -0.067452244 -0.052093655 0.05600609 -0.031290714 -0.028058715 0.05346756

conv2.0.bias f4 [32]
00000000: bf0d a33d fe30 873d df52 973c f69a 7a3b
00000010: eeef 89bc 6f4c 37bd c7a9 a1bd 98b4 a3bd
00000020: 9589 d6bc 6186 10bd c857 84bd 01dd 82bc
00000030: 2f90 9cbd c38e 813c 1eab 4e3d b060 203d
00000040: be26 a83d 2c3a ddbc f1d5 84bd 21c7 af3b
00000050: 8f2b 05ba e308 9e3c e466 ed3b 050c 8f3c
00000060: 42be 213d 7d07 e93c 046d 20bd e30e 923d
00000070: bdd7 823b c114 98bd efe3 543d 2564 913d
0.07961606 0.066011414 0.018472133 0.0038239337 -0.01683804 -0.044750627 -0.078937106 -0.0799343
-0.026188651 -0.035284404 -0.064620554 -0.015974523 -0.07644688 0.015815144 0.05045616 0.03915471
0.082105145 -0.027005278 -0.064861186 0.005364314 -0.0005080038 0.019291347 0.0072449315 0.017461786
0.039488085 0.028445954 -0.039166465 0.07131746 0.003993003 -0.074258335 0.051975187 0.07099179

conv2.1.weight f4 [32]
00000000: 6e38 803f 2387 803f 57d8 7e3f 39b5 803f
00000010: 8a38 803f 6f58 7f3f fa69 7f3f 5130 803f
00000020: 3768 7e3f a2c7 803f bd27 7e3f 4a4c 803f
00000030: 2c19 803f 095b 803f 22f3 7f3f 8e23 7f3f
00000040: b920 803f 5cb2 803f f090 7f3f e614 7f3f
00000050: 448e 803f 270e 7f3f 05cb 7e3f 8bfe 7e3f
00000060: aebd 7f3f 7324 803f 87a4 803f 005b 803f
00000070: 811d 7f3f 6026 813f aa83 7f3f b8ea 7f3f
1.0017221 1.004124 0.9954886 1.0055305 1.0017254 0.99744314 0.9977108 1.0014745
0.9937777 1.0060923 0.99279386 1.0023282 1.0007682 1.0027782 0.99980366 0.9966363
1.0009986 1.0054431 0.9983053 0.99641263 1.0043416 0.9963097 0.99528533 0.9960715
0.99898803 1.0011123 1.005021 1.0027771 0.99654394 1.0089836 0.9981028 0.9996753

conv2.1.bias f4 [32]
00000000: 033d a13b ff4c 623b 60a4 83bb ecdc 92bb
00000010: 63b9 0a3c f542 eab9 a2aa 1e3c 2ea1 aa3b
00000020: 2154 00bc 17d1 b93b 025f 0f3c 0f63 173c
00000030: 6cde c4ba 605e 35bb 7347 133b b3b2 933b
00000040: decf e13b 1b63 313c 4e18 0e3c c0ad 5ebb
00000050: 78b0 1a3c f4f3 563b 9ea3 0dbc 8d22 4abb
00000060: 6264 c23a 2288 c13b d03b 213c 29eb 1a3c
00000070: 7ea9 e33b 75cf 943b 1ec3 d73b b1fd 113c
0.0049206032 0.0034530757 -0.0040173978 -0.0044819023 0.008467051 -0.00044681845 0.009684237 0.0052072024
-0.007832558 0.0056706774 0.008750679 0.009239926 -0.00150199 -0.002767466 0.0022473007 0.0045073866
0.006891235 0.010826851 0.008672787 -0.0033978075 0.0094414875 0.0032799216 -0.008644966 -0.0030843348
0.0014830942 0.005906121 0.009840921 0.009455481 0.0069476953 0.0045413324 0.006584539 0.008910582

conv2.1.running_mean f4 [32]
00000000: 929c 0abe f5e9 913d 84ef c83c 5a37 8f3e
00000010: b12a e33d 9996 ab3d bb07 a5bd 21f4 183d
00000020: 4047 aebc f067 0fbe c31c f23c c49f 8c3d
00000030: c649 a73d fde0 bc3d 7134 2a3e 64dd 09bd
00000040: 62a6 033e 7b40 163d c4da 6cbd b258 e03d
00000050: aadb 97bd 7990 31be 2aab 043e 15b8 823e
00000060: c5d1 933e c979 b83c 6604 b0bd 93e2 0b3d
00000070: 373b ea3d d995 13be 164c e5ba 6e53 c1bb
-0.1353629 0.07124702 0.024528272 0.27971917 0.11092127 0.083783336 -0.08058115 0.037342194
-0.021274209 -0.14004493 0.02955473 0.068664104 0.08168368 0.092226006 0.16621567 -0.0336584
0.12856439 0.036682587 -0.05782582 0.10954417 -0.074149445 -0.17340268 0.12955919 0.25531068
0.2887098 0.02251901 -0.08594589 0.034151625 0.114370756 -0.14412631 -0.0017493989 -0.005899838

conv2.1.running_var f4 [32]
00000000: 0790 8a3f 02f4 903e c3e2 033f 2f03 583f
00000010: 819b 263f acd8 223f 8ab2 c13e d426 ea3e
00000020: 45a3 223f 2a5e bc3e 6843 023f 4b3a 263f
00000030: 47a1 063f f928 bb3e 3f83 473f e309 083f
00000040: b207 b83e a450 123f e90f 033f 16d6 383f
00000050: 94ef e03e 4ba1 9b3f 47ef 043f 010c 5d3f
00000060: f724 9c3f 5b24 bc3e 9b70 9e3e 5bf3 e23e
00000070: 3be5 f23e a7c8 e53e 9ad3 f53e 0c1d f63e
1.0825204 0.28311163 0.51517886 0.8437986 0.6508103 0.63611865 0.37831527 0.45732749
0.6353038 0.3679059 0.50884104 0.649327 0.5258984 0.36554697 0.7793464 0.53140086
0.3594337 0.571543 0.5119615 0.7220167 0.43932784 1.2158598 0.5192761 0.8634644
1.2198781 0.36746487 0.30945286 0.4432629 0.47440514 0.44879648 0.48013002 0.48069036

conv3.0.weight f4 [64, 32, 3, 3]
00000000: 7723 5dbd 040c c3bc ec59 363d 1e50 f63b
00000010: 05c2 d23c 3278 963b 176e b93c f590 4d3c
00000020: 7003 6f3d d14d 4cbb 0c1e 09bd 5289 2e3d
00000030: 9275 5bbc b18b b13c 1759 40bd 6cb5 503d
00000040: c98e 1ebd 86bd 583d 2377 853c 9055 ca3b
00000050: f443 07bd 315e 553d 7c19 4dbd 46df 213c
00000060: 33de 50bd 5c6b 1dbc b1a1 9bba 9c6c 08bd
00000070: 6064 2dbd a279 20bd 940c 8f3c 2dad 363c
00000080: bff6 733c 977a 453c 81ca cb3c 52c5 7038
00000090: ff7a 5bbd 11ee babc 3f66 543d cb25 093d
000000a0: af2f fcbc 671b 49bd 6b49 4b3d 1c41 c8bb
000000b0: b549 43bd 77be a93c 3f30 a83b 3a83 743d
000000c0: d4d1 ee3c a874 7abc 31f1 1cbd cf94 3bbc
000000d0: 6c73 663c 35b5 27bc efe6 193d 17a4 293d
000000e0: 46d4 bebc 630b 80bc 749c 66bd dcd7 463c
000000f0: 84f2 1dbd 17cd ecba 71b3 7abc 7063 ac3c
00000100: bf55 6c3d d312 223c 2024 f3ba 27b4 213d
00000110: 5dc3 2cbc eabb 5bbd e393 27bd 5df7 263c
00000120: fe59 afbc 00d3 a8bc 96a9 2a3d d8cb 0bbd
00000130: b238 523d bebe 3dbd f0f8 66bd 7429 82bd
00000140: 8876 65bd 93df 2f3d 3544 d0bc 639f 65bd
00000150: c3ee babc 1a7e 393d 85de 933c 45d8 65bd
00000160: 6372 34bd 94ab c03b 362b 1a3d e75d 3dbd
00000170: 7433 813d e27b d83c fdf2 cc3c 3d31 713d
00000180: 2df3 64bd dfbe da3c 4667 53bd 72a9 993c
00000190: 602d 6cbd 780e 7b3d 13d5 8bbc 5e11 453d
000001a0: e480 083d a2f4 babc 7418 223c 05a1 863c
000001b0: c297 443b 8331 143d c092 23bd 6ccb 66bd
000001c0: fb71 e43c 2139 e33c 1e61 5bbc 143b 713d
000001d0: b2e6 05bd 2ab6 3d3d cbf6 d9bc 48f7 db3a
000001e0: e572 abbc d88d 1fbc b0c6 a6bb f2ff 9f3c
000001f0: fc19 5dbd 61cd 973c 0531 43bd aea7 353d
00000200: 31ef b03b 1adf 573c 9877 163d d1b6 0dbd
00000210: 4a79 45bc c211 8ebc d922 4e3d 22af a4bc
00000220: f077 6f3d db48 5ebd 5e5f a23c 8923 8d3c
00000230: 46cc 103b a23e f83c 9506 323d 2c57 fcbc
00000240: 72fa 35bd 576c f9bb 114f 9d3c 068a b639
00000250: ce69 f63c 4e5b 39bd ad70 dc3c 7fd4 bb3b
00000260: 43ef cd3c 34f9 0e3d 94a6 323d 4af5 30bd
00000270: 5720 7ebd 23c9 c1bc 6a2e c83a a0d2 40bc
00000280: 04da 263d b545 95bc a53a 203d 401e f4bc
00000290: f5df 623d 46a2 413d 5826 64bd bac3 cb3a
000002a0: 55a5 b3bb c47f b1bc 5ab1 803c e1ac 6c3d
000002b0: b1b2 a1bc f04b 113c 6ac2 173c 29fe 073d
000002c0: aad7 e23c f301 1b3d b34d 89bc a721 cd3c
000002d0: 83ba 5bbd eac1 48bc f117 4ebb 43ed e73c
000002e0: 7b89 5dbd 2c02 2a3d 9d9a b43c 9028 673d
000002f0: 0da5 1ebd 0fda 95bb 6b05 7d3b 4ddb 20bd
00000300: 3536 263d c5ce 3bbd 4b4e d7bb 01e2 913c
00000310: 4ec9 a63c ebac 633b d923 ee3c d9e7 473d
00000320: 95ed 683d c3ee cfbb f575 34bd e7c9 f83b
00000330: f0bd ff3c c9f1 523d 5ea1 3e3d dd0f 023b
00000340: a87b c73c 508c 58bd 751c 12bd 5a8e 473d
00000350: faca aebb 917b 51bb 0361 e03c 06b4 16bd
00000360: 150c a33c 2968 533c c25c 50bd eb20 98bc
00000370: 56a3 1c3d 3227 65bb bcc5 0fbd 9e76 283c
00000380: 079a d6bc 4469 323c 732c d73c 769f a9bb
00000390: 418b 7fbc 30af 56bd 37cd 2abc 6a7d 31bd
000003a0: a9db 193d 9be9 413d 875f a7bb 10df 92bc
000003b0: 1291 803c 29b4 123d 9764 50bd 09f0 b1bc
000003c0: 102c 0f3d 2227 b53c 0448 8cbc 3646 383b
000003d0: e692 313d 0d12 703c f089 273c 59ee 1e3d
000003e0: dd26 4e3d 6014 203c 46e9 f43b ea2d 333d
000003f0: 4aa1 2c3d 5f0f e13a dbed 663d 9ec5 6e3b
-0.0539889 -0.02380944 0.04451935 0.007516875 0.025727281 0.004591965 0.022635503 0.0125467675
0.058352888 -0.0031174312 -0.03347592 0.042611428 -0.01339473 0.021673055 -0.046959963 0.050954267
-0.03871039 0.05291512 0.01629216 0.0061747506 -0.03302379 0.05209178 -0.050073132 0.009879893
-0.050993156 -0.009608116 -0.0011873749 -0.033306703 -0.042332053 -0.039178498 0.017462052 0.011149687
0.014890372 0.0120531535 0.024876835 5.7404228e-05 -0.053584095 -0.022818597 0.051855322 0.033483308
-0.030784456 -0.0490984 0.049630564 -0.0061112773 -0.047677714 0.020720704 0.0051327045 0.05969546
0.029152788 -0.015286602 -0.038315956 -0.011449053 0.014065605 -0.010236074 0.03757375 0.041416254
-0.02329458 -0.01563043 -0.05630155 0.012136426 -0.03856136 -0.0018066493 -0.015301571 0.02104351
0.05769896 0.009892183 -0.0018550195 0.039478447 -0.010544625 -0.053646006 -0.04091252 0.010190812
-0.021405216 -0.020608425 0.041665636 -0.034129947 0.0513236 -0.046324484 -0.05638975 -0.06355563
-0.056021243 0.042937826 -0.025423149 -0.056060206 -0.022818929 0.045286275 0.018050442 -0.056114454
-0.0440544 0.0058798287 0.037638865 -0.04623213 0.06308642 0.02642626 0.02501821 0.058884848
-0.055895973 0.026702343 -0.05161216 0.018757556 -0.05766046 0.061293095 -0.017069375 0.048112266
0.033326045 -0.022821728 0.009893525 0.016434202 0.0029997681 0.03618003 -0.039934874 -0.056346342
0.027886381 0.027737202 -0.013389854 0.058894232 -0.03269071 0.046316303 -0.026606938 0.001678207
-0.02092881 -0.009738408 -0.0050896034 0.019531224 -0.05397986 0.01853055 -0.04765417 0.044349365
0.0053996076 0.01317575 0.036735147 -0.034598175 -0.012052843 -0.017342452 0.050326202 -0.020103041
0.05846399 -0.0542687 0.019820865 0.017228859 0.0022094413 0.030303303 0.04346331 -0.030803286
-0.044428296 -0.007611792 0.01920274 0.0003481658 0.030079748 -0.04525309 0.026909197 0.0057321186
0.025138503 0.034905627 0.043615893 -0.043202676 -0.06204256 -0.02365548 0.0015272622 -0.011768967
0.04073526 -0.018221715 0.039118428 -0.02979958 0.055389363 0.047273897 -0.05570063 0.0015546002
-0.0054823556 -0.021667369 0.015709568 0.057782058 -0.019738527 0.008868203 0.0092626605 0.03320137
0.027690727 0.037843656 -0.016760683 0.02504046 -0.05364467 -0.012253264 -0.0031447376 0.028311377
-0.05408619 0.041505978 0.022046382 0.056435168 -0.038731623 -0.0045731138 0.0038607966 -0.03927164
0.04057904 -0.045851488 -0.0065706125 0.017807962 0.020359661 0.0034740518 0.029069828 0.04880509
0.0568672 -0.0063456013 -0.044057805 0.007592428 0.031218499 0.051500116 0.04654061 0.001984588
0.024350956 -0.052868187 -0.03567167 0.04871974 -0.0053342553 -0.003196452 0.027390009 -0.036792777
0.019903222 0.012903252 -0.05086971 -0.018570384 0.038241707 -0.003496599 -0.035100684 0.010282187
-0.026196493 0.010889355 0.026266312 -0.00517648 -0.015597166 -0.052413166 -0.010424904 -0.043332495
0.037563 0.047341924 -0.0051078233 -0.01792863 0.015694175 0.035816345 -0.05087718 -0.021720903
0.03495413 0.022113387 -0.017124183 0.002811802 0.043352984 0.014652741 0.010225758 0.038801525
0.05033003 0.009770483 0.0074740974 0.04374496 0.042146005 0.0017170719 0.05637918 0.0036433707

conv3.0.bias f4 [64]
00000000: 6342 08bd 7dd0 d9ba 3957 b13c d576 693d
00000010: ee41 1abb 2348 61bc 0257 b9bc bb8a 5f3d
00000020: 0b45 bbbb 2409 96bc 998d febb efc3 bcbc
00000030: 2456 43bd 1d37 6b3d 1ddd e13c a2eb a9bc
00000040: ec8f 203d 11ce 543d 0bd8 223d 492b 233d
00000050: eca0 01bc 68a1 e6bc 136f 6fbd d506 803a
00000060: 17bf 56bc 81d8 303d f4ff 513d f3f3 d4bc
00000070: 4c83 0abd 292f 2bbd ad3c 1c3c 668c 91bc
00000080: bae6 62bc c9a1 1cbc c109 95bc 9b6b 373d
00000090: 8726 9cbc 2c95 173d e113 a13c 8193 28bd
000000a0: fd62 02bd ad05 b0bc fc34 043d 9785 07bd
000000b0: 2c0d 8b3c 2a33 2bbb 9c51 183c 0268 c23c
000000c0: 143e 02bc 599a 47bd 433c 37bd cd95 6fbd
000000d0: e9f1 07bd 4762 a33c cb22 64bd 0e4e 213d
000000e0: ac59 163d 13f6 5f3d 166f 323d 0e51 39b9
000000f0: d925 08bd 658a 123c bbe6 63bd 0392 ea3b
-0.033266436 -0.001661792 0.021648036 0.056998093 -0.0023537832 -0.013750109 -0.022624496 0.054575663
-0.0057150177 -0.018314905 -0.0077683446 -0.023042647 -0.047689572 0.057425607 0.027571255 -0.020742241
0.039199755 0.051954333 0.039756816 0.0398362 -0.007911902 -0.028153136 -0.058455538 0.0009767661
-0.013107083 0.043175224 0.051269487 -0.02599523 -0.03381662 -0.041793022 0.009535951 -0.017767143
-0.013848955 -0.009560057 -0.018193128 0.044780355 -0.01906134 0.037007496 0.0196628 -0.041156296
-0.031832684 -0.021487081 0.032277092 -0.033086386 0.016974054 -0.0026123025 0.009296801 0.023731235
-0.007949371 -0.04873118 -0.044735204 -0.05849247 -0.033189688 0.019944323 -0.055697244 0.03938108
0.03670661 0.054678034 0.04356297 -0.0001767317 -0.03323922 0.008944129 -0.055639964 0.0071585192

conv3.1.weight f4 [64]
00000000: 6710 7e3f a974 803f e20a 803f dc15 7f3f
00000010: 1b4a 803f e8e2 7e3f 4f10 813f 264d 7f3f
00000020: b1e2 7d3f 487e 7e3f cb20 7f3f 98a2 803f
00000030: e7a4 7f3f 5ad9 803f 09be 7e3f b41c 803f
00000040: 7f20 7f3f 1e00 7f3f 2cf0 7f3f ccf6 7e3f
00000050: b6a8 803f 4017 813f 5343 803f 2448 7e3f
00000060: 37f3 7f3f 6653 803f 8c39 7f3f 331d 803f
00000070: 14f2 7f3f c785 803f 5fd4 803f 5293 7e3f
00000080: cc50 7e3f a97e 803f 5178 7f3f 9c82 803f
00000090: a1d3 7f3f 5ab9 803f 61da 803f cdac 7f3f
000000a0: c37c 7f3f 119f 7e3f 6406 803f bcd3 803f
000000b0: 28ec 7f3f 4e19 803f 44bb 7e3f 8c7c 803f
000000c0: cbcb 803f 5413 803f 268c 803f 52d1 7e3f
000000d0: 31e7 803f 59b3 7d3f 775a 803f aaa3 803f
000000e0: 419a 803f 0c2c 813f 2ee7 7e3f 6cd3 803f
000000f0: 229a 803f 0a34 813f 7740 7f3f 36c5 7f3f
0.9924378 1.0035602 1.0003321 0.9964273 1.0022615 0.9956498 1.0083102 0.99727094
0.9917403 0.9941144 0.99659413 1.004962 0.99860996 1.006633 0.9950872 1.000876
0.9965896 0.99609554 0.9997585 0.9959533 1.0051486 1.008522 1.0020546 0.9932883
0.9998049 1.0025451 0.99697185 1.0008911 0.99978757 1.0040826 1.006481 0.9944354
0.99342036 1.0038654 0.99792963 1.0039859 0.99932295 1.0056565 1.0066644 0.9987305
0.99799746 0.99461466 1.000195 1.0064616 0.9996972 1.0007722 0.99504495 1.0038009
1.0062193 1.0005898 1.004277 0.9953815 1.0070554 0.9910179 1.0027608 1.0049946
1.0047075 1.0091567 0.995715 1.0064521 1.0047038 1.0094006 0.9970774 0.99910295

conv3.1.bias f4 [64]
00000000: 0763 7ebb 83f8 ac3b 3a8f 1d3b b1d8 0abb
00000010: c3e6 913b 1250 713b a17c d53b c3d0 923b
00000020: 0ed6 1db9 caa1 7e3b d2e6 28bb a02c 9e3b
00000030: fc7b 6d3b 7bb3 1e3c fe33 b8bb 3d75 f13b
00000040: ed6d 93bb 1c8e fcba 0adb 9e3b 9b90 fa3b
00000050: 251d f43b d94c ef3b 1eea 203c f930 cebb
00000060: 0fd1 d83b 5f7b d33b 45f4 9a3b 548b 073c
00000070: 81f5 173c d4f5 6d3a ab07 a93b 09c9 82bb
00000080: e29b 203c 805b 28bb ab54 163b 5c7a 023c
00000090: 119a 92ba a943 b23b b8ef d53b aedd 23bb
000000a0: 4f5d d43b e99b e33b a72d 00ba 24dc 2839
000000b0: 71f9 00bc ddaf 22bb c106 42bb 32b5 3a39
000000c0: 2874 7f3a a922 f93b a1cd d73b d98b 22ba
000000d0: 6e5d 043c f4fe 9abb 793a e53a 210a e43b
000000e0: 07b8 3a3b 20ac 113c 04f1 8f3b 7bd4 ea3b
000000f0: fc26 053c 2c88 e03b ac93 24bb 1eb7 e63a
-0.003881635 0.0052786483 0.0024041669 -0.0021186287 0.004452558 0.0036821407 0.006515101 0.0044804527
-0.00015052428 0.0038853758 -0.0025772345 0.004827097 0.003623723 0.009686346 -0.0056214323 0.007368712
-0.004499188 -0.0019268426 0.004847889 0.007646633 0.0074497634 0.007302862 0.009821443 -0.006292459
0.0066167186 0.006453916 0.004728826 0.0082729645 0.009274841 0.0009077464 0.005158385 -0.0039912504
0.00980279 -0.0025689304 0.002293865 0.007963743 -0.0011184831 0.0054401946 0.006528821 -0.0025003958
0.00648085 0.006946076 -0.0004889615 0.00016103737 -0.007871971 -0.002482406 -0.0029606076 0.00017805843
0.00097447867 0.0076030088 0.006585792 -0.00062006485 0.008078916 -0.0047301 0.001748874 0.0069592153
0.0028491037 0.008891135 0.004392745 0.007166443 0.00812697 0.0068521705 -0.0025112433 0.0017602181

conv3.1.running_mean f4 [64]
00000000: 0b33 fc3d 62f0 783e f570 9dbe 72c8 153d
00000010: 2311 8f3d 6160 903c d407 3dbd d924 283e
00000020: 9539 be3d bdab 94be 57ed 75bd 2dbe 65be
00000030: c3bd cbbd a8e7 503d b8a5 a5bd ea87 d43d
00000040: cfad 683d 2d44 80bd 2ef8 283e e457 603e
00000050: 4e9f 87bc 2564 f2be 6b03 1c3e e75f 833e
00000060: f455 03bc 04ff 323e 007c aa3c 75e1 0dbe
00000070: 13f3 d03e 2241 493e 3f7a 3abd f204 0bbe
00000080: 9e99 353d 0a4d 3d3e 77d4 6f3e 2e3b 403d
00000090: c6c8 813e 6801 2c3e 2a05 e7be c4e8 d63d
000000a0: 0a7d 003c a280 033e a9d5 a3be 6f6c 58bd
000000b0: 4353 833e 3203 85bd 18cc 8e3e 58a3 813e
000000c0: f50e c8bd 5567 57bd 3197 9ebe 26be 6e3e
000000d0: 3b7c 7cbe 3ddd 24bd 0abd 17be 4888 883e
000000e0: fdcd 953e e0c0 98bd ce1f 91be c1ac 433e
000000f0: fe8b ef3c 5374 e4be 6de2 9dbe d100 10bd
0.12314423 0.24310449 -0.30750242 0.036568113 0.069856904 0.017624082 -0.046150044 0.16420306
0.09288327 -0.29037276 -0.060040798 -0.22435828 -0.099483036 0.051002175 -0.08088249 0.10377486
0.05680638 -0.062630035 0.16500923 0.21908528 -0.016555455 -0.4734203 0.15235679 0.25659105
-0.008016098 0.17480093 0.020811081 -0.13855536 0.4081045 0.19653752 -0.04552674 -0.13576105
0.044335954 0.1848642 0.23420893 0.04693144 0.2534849 0.16797411 -0.45121127 0.10493615
0.007842312 0.12842038 -0.31998947 -0.052837785 0.2564946 -0.0649475 0.27890086 0.25319934
-0.09768478 -0.05258878 -0.30974725 0.23314723 -0.24656765 -0.04025005 -0.14818206 0.26666474
0.2925872 -0.07458663 -0.28344578 0.19108869 0.029241558 -0.44619998 -0.30836812 -0.03515703

conv3.1.running_var f4 [64]
00000000: 2e9b 0b3f 4084 713f bbcd b03f 4589 973e
00000010: d430 f53e 04b2 ee3e 02c9 a23e 7199 203f
00000020: 52a0 d03e 95e3 983f 56db b93e 0067 293f
00000030: e06d e83e ffa3 063f 6de3 fc3e f56c 2b3f
00000040: 8329 e43e b8aa 953e a51e 0e3f bcb1 303f
00000050: 08b4 ec3e 2394 0740 b9c8 883f c6dc 873f
00000060: c3de a83e 4a80 fa3e bac3 bf3e 7883 d73e
00000070: 3f7a 3640 f6f2 8f3f a226 ba3e 3813 c33e
00000080: 8d17 ad3e 8f0d 6f3f 6098 223f 25ea b13e
00000090: 9775 993f babf 1b3f 86f3 4140 7275 343f
000000a0: bdb7 b73e cacc d83e 0814 bc3f 94c5 c23e
000000b0: 0ee9 b03f 93c1 be3e dd8f 943f cefe 393f
000000c0: a232 d43e f8eb 0d3f 22fb 973f 5f7e 8d3f
000000d0: 2550 7a3f cb82 913e f7ac 543e 5600 453f
000000e0: bc98 763f a129 2f3f 2b0f d73f 98de c03e
000000f0: 3769 e53e 8086 e33f 6de6 c63f 8f40 0a3f
0.5453366 0.9434242 1.3812784 0.29596916 0.47888815 0.4662019 0.31793982 0.62734133
0.40747315 1.1944453 0.36300153 0.6617279 0.45396328 0.5259399 0.49392262 0.6696313
0.4456292 0.2923181 0.5551551 0.690212 0.46231103 2.1184165 1.0686256 1.061425
0.32982454 0.48926002 0.37454015 0.4209249 2.8512113 1.1246021 0.363576 0.381006
0.3380703 0.93380064 0.63513756 0.3474895 1.198901 0.60839427 3.0304885 0.7049171
0.3588237 0.42343742 1.4693613 0.38041365 1.3821123 0.3725706 1.1606404 0.72654426
0.4144488 0.55438185 1.1873515 1.105419 0.9777854 0.284201 0.20769106 0.7695364
0.96326804 0.68422896 1.6801504 0.37669826 0.44806835 1.7775421 1.553907 0.5400476

conv4.0.weight f4 [128, 64, 3, 3]
00000000: ef3d 2f3c 66b4 ed3c e793 afbc 65ef 133d
00000010: 2420 eabb 5ccf 1abd 4b5e 6f3c fd53 2bbd
00000020: 55f2 dc3b c611 62bc 8def 23bd 846c 913c
00000030: a416 073d e39c bfbc 1f5d bebc 807c 0c3d
00000040: 0dea 483b d23f 963c 6426 c33b 7ed4 21bd
00000050: 71c2 f7bc 0f16 ec3c 827a 5b3c 8aed d33b
00000060: 977a d2bc 16ea 02bd a1bd aa3c c9de ccbc
00000070: 0bea c93c 3ed3 4b3c f85f dbbc 6550 03bd
00000080: 070e 10bd 0b1c 0d3d 43f3 d4bc 0286 34bd
00000090: 0590 0fbc bede 2ebd 682e 41bc 01e2 d53c
000000a0: 5f42 e2bc 5dba 8e3c 6289 b73b 09e7 1bbd
000000b0: 610b 0fbd d267 de3c 1ce2 db3c 8a14 6f3c
000000c0: ba02 e53c 364f 9d3c 3abf 2abd b0d1 c33c
000000d0: 40be 92bc cd5d 443c b1ca 06bd 43a8 a73b
000000e0: 8a21 8dbc 8498 87bc 24f7 e33c d20a c9bc
000000f0: 116c 87bc 135c 29bd 9e1b 94bc e5b8 1abd
00000100: 52d3 24bc dd6f ee3c e971 e43c 3c3c b13b
00000110: 6219 7d3c 5ac2 863c fb81 633c 2c15 88bc
00000120: 4515 d83c 249c bd3c da0c ce3c 517f b13c
00000130: 9711 763c 809c 943c 8498 f7bc ce65 443c
00000140: da91 95bc ad6c 373c d0ac c13c f64f dc3a
00000150: a738 dd3c 3720 123d a054 fcbc 793f 17bd
00000160: 040e 34bd 4e07 28bd 628f f8bc edba 1cbc
00000170: 30af 12bd 6a9d 933c 3254 fbba 3a57 cdbc
00000180: 4c5c f5bc 9f0a 583c aa74 81bc 95d3 2bbd
00000190: 1205 eeba 8fe4 f639 c314 91bc dfe0 033d
000001a0: d0c2 fc3c fd98 83bc 4c95 73bc 66d9 21bb
000001b0: dd80 0c3d 6a4b 18bd e9f2 433b 76b7 83bb
000001c0: 698d f2bc f311 aebb e6a4 c8bb 054b ebbc
000001d0: 25aa f03c 19c2 28bc 16e5 b2bc 1f5d ca3c
000001e0: e592 2fba 04ab 823c 5d8c 0dbc 4d3f b33b
000001f0: 98e5 25bd 390d 66bc 280c 3dbc de90 183c
00000200: 31a2 debc 3f83 fa3c e788 22bc 08c4 803c
00000210: 4796 8bbc 3097 93bc ec04 f8ba d36a 5ebc
00000220: 37b4 a93c f9a0 123d 4359 9f3c e951 0bbd
00000230: c560 e8bb f0ad 12bb 6ffd 18bc 10c0 7c3c
00000240: 327e 1bbc 2e69 d53c 5af9 0e3d c5b7 0dbd
00000250: 1d6d f13c c533 773c 0ca2 debb b0a9 0cbd
00000260: c0eb d4bc 525d 6bbc dbfa 023d e0d5 1abd
00000270: 4a4a 3d3c 2d88 a939 8c62 0abd 9056 98bc
00000280: df24 f73c da30 4c3c 22bd 0bbd 38e8 f4bc
00000290: c7c7 c13b 3dab c8bc bc0d 23bd 12d6 a8ba
000002a0: 859e f03c cc2d d7bc 9cb9 d33c 1ad4 f63b
000002b0: f37b ee3c 910d 833c 8fbf 053d b59b ad3c
000002c0: 21a0 9bbc a955 afbc 868d f23c e33e b03b
000002d0: 483e d6bc 0fa0 8bbb 7561 b13c 28df 243d
000002e0: b1a1 0e3d b92b d23c 95e7 453d 6aaa 4d3c
000002f0: 19bd 2bbd d403 583b c332 4ebc 3190 153d
00000300: 2634 bfba a9c4 c9ba 77e5 b7bc bad4 8b3c
00000310: 32c4 28bd 88ba 383a 9847 06bc 5480 70bc
00000320: 5388 e73c 54e7 c6bc 95ee 10bd d1eb 8f3c
00000330: 3f65 c2bc 1179 4a3c 803e e73c c933 e3bb
00000340: 674a cebc 69c9 08bd 8148 c33b d8d6 f43c
00000350: 5f2b 203d 260e c0bc 8536 34bd 249a fa3a
00000360: 9154 c6bc 3d50 94bc 9b20 fb39 0462 0cbd
00000370: 2291 bcbc 2b59 fbbc c87c 153d 9039 a43c
00000380: 2c30 2dbd db50 173b be82 853b dcd0 96bc
00000390: 5a6d c73c f9e3 39ba 883f b5ba c56c 343c
000003a0: 9732 54bc 76f2 ae3c 3888 273d 5128 00bd
000003b0: fa66 ec3b 660f 0a3d a595 1abd bede f7bc
000003c0: bc63 8d3b 0682 b5bc 1c24 c1bc 9da5 613c
000003d0: ecbf 44bc 5adc c63c eca7 b13b a43f 86bc
000003e0: 7f6f 02bd 2122 f53b 91ae 2ebd 85b2 023c
000003f0: 4c90 143d 0e0f e33c 7789 96bc 9794 21bc
0.010695918 0.029016685 -0.02143283 0.036116976 -0.0071449447 -0.03779541 0.014609884 -0.041828144
0.0067427554 -0.013798183 -0.040023375 0.01775194 0.032980576 -0.02339024 -0.023237763 0.03429842
0.0030657083 0.018340979 0.0059555043 -0.03950929 -0.030244084 0.028819112 0.013395907 0.006467526
-0.025693221 -0.031961523 0.020842375 -0.025008576 0.024647733 0.012440501 -0.02677916 -0.032059092
-0.035169628 0.034450572 -0.025994902 -0.044073112 -0.008762364 -0.042692892 -0.011790849 0.026108744
-0.027619539 0.01742285 0.005601094 -0.03806213 -0.03492296 0.027149115 0.026841216 0.014592299
0.027955402 0.01920281 -0.041686274 0.023903698 -0.017912984 0.0119852545 -0.032908145 0.005116494
-0.017227907 -0.016552217 0.027827807 -0.024541292 -0.016531022 -0.041347574 -0.018079575 -0.037773985
-0.010060148 0.029106075 0.027886348 0.005408792 0.015447946 0.016450096 0.01388597 -0.016611658
0.02637733 0.023145743 0.025152612 0.021667155 0.015018842 0.018141031 -0.030224092 0.011987163
-0.018258024 0.011195344 0.023641974 0.0016808498 0.027004553 0.035675254 -0.030802071 -0.036925767
-0.04395868 -0.04102259 -0.030341808 -0.009566051 -0.035811603 0.018019397 -0.0019174872 -0.025066007
-0.029951237 0.013186126 -0.0158027 -0.041949827 -0.001815947 0.00047091066 -0.017710095 0.032196876
0.030854613 -0.016064161 -0.014867138 -0.002469623 0.03430258 -0.037181295 0.0029899424 -0.004019673
-0.029608445 -0.0053121983 -0.006123173 -0.028722296 0.029378006 -0.010300183 -0.021837752 0.024702607
-0.0006697609 0.015950687 -0.008639422 0.0054701925 -0.04050216 -0.014041238 -0.011538543 0.009311883
-0.027176948 0.030580161 -0.009920335 0.015718475 -0.017039431 -0.018016428 -0.0018922365 -0.013575274
0.020715816 0.035798047 0.019451743 -0.034013662 -0.007091614 -0.0022381507 -0.009337767 0.015426651
-0.0094905365 0.02605113 0.03490577 -0.034599084 0.029470975 0.015088026 -0.00679422 -0.034341514
-0.02599132 -0.014365511 0.031977516 -0.037801623 0.011553356 0.0003233565 -0.033785388 -0.018595964
0.030168949 0.012462819 -0.034115918 -0.029895887 0.005913708 -0.024495715 -0.03980802 -0.0012881181
0.029372463 -0.026266955 0.025845341 0.0075326087 0.029111838 0.01599768 0.032653388 0.021192411
-0.018997254 -0.02140315 0.0296085 0.0053785904 -0.026152745 -0.004261024 0.021652916 0.04025188
0.03482217 0.025655614 0.048316557 0.012552837 -0.041928384 0.0032961266 -0.012585345 0.036514465
-0.0014587685 -0.0015393692 -0.022448285 0.01706921 -0.04120273 0.0007046838 -0.00819578 -0.014679033
0.028263247 -0.024280228 -0.03538378 0.0175685 -0.023729919 0.012357966 0.028228045 -0.0069336635
-0.025181962 -0.033395205 0.005959571 0.029887602 0.039103862 -0.023444247 -0.043997306 0.0019119424
-0.024210246 -0.018104667 0.00047898744 -0.034273162 -0.023018423 -0.030682167 0.036495954 0.02004698
-0.04228227 0.0023088965 0.0040744236 -0.018410139 0.024344135 -0.00070911605 -0.0013828138 0.011012261
-0.012951515 0.021355849 0.040901393 -0.03128845 0.007214424 0.03370609 -0.03774037 -0.030257579
0.004314868 -0.022156727 -0.023576789 0.013772395 -0.012008648 0.024274994 0.005421629 -0.016387768
-0.031844612 0.007480875 -0.04264695 0.007977133 0.036270425 0.02771714 -0.018376095 -0.009862087

conv4.0.bias f4 [128]
00000000: 15d8 78bc b701 debc 58b7 053d 18a9 0bbb
00000010: 17db 26bd 1f03 193d 4620 3fbc 7b36 1c3c
00000020: 61e3 0fbd f85e ddbb 138a c3bc 51c9 c4bc
00000030: 95cc dcbb a9ee e73c 3c58 673b 7b65 7abb
00000040: 840d 06bd 0f69 19bc 14cc f13c 567d 4e3c
00000050: e703 073d 5401 263d 5537 80bc 9eb7 99bc
00000060: fd0d bebc 5371 1dbd 7345 0bbd 607d 2d3a
00000070: 6910 be3c 02de 0cbd 9b39 213b 9ae9 fc3c
00000080: 6b85 213d 0657 d53c f38b 013d a001 d63c
00000090: db97 9f3c fbd7 1ebd 84ab 0f3d 2ac3 efbc
000000a0: 9192 56bb d35a 3a3a de97 24bd bbf1 21bd
000000b0: a189 1e3c 3efd 143b d7ca b83c a64e 153d
000000c0: ee36 a93c 98ee e63c cc04 d13c f0dd 9cbc
000000d0: 4988 88bc 47dc be3c 82ac 843c cf4f 9a3b
000000e0: 16bd 21bd cb80 1f3d 5047 d73c 28ed 37bb
000000f0: 21be 20bd e031 2dbc 3c81 a93b 0a42 00bd
00000100: abe4 fd39 5fe0 74bb 5f7b 6d3c 7515 00bb
00000110: 51bc 14bd a6ee c73b a496 263d dea5 e13c
00000120: 57d1 003d 5af3 d0bc 67b0 1abd 53c6 04bd
00000130: 826b e73c 75f7 093c f38d 0dbd 69ff ff3a
00000140: 5247 403c bc2a 5a39 28d1 8cbc 952d a23c
00000150: d9d6 e23c 9a34 543c 45f5 903b 08a6 e5bb
00000160: eda3 53bc 2a86 8f3c 1642 0e3d 339b 233d
00000170: e1ed e1bb 401c 423c fa17 023d 26a8 a6bc
00000180: d245 9fbc 651a 663c 66b1 b2bc bbf2 1abd
00000190: 0148 273d 0f0a 673c 60cd e13c 3857 963c
000001a0: 39ca 0a3d dee4 30bc e559 d0bb 757b 243d
000001b0: b063 033d ecc2 163c 4110 b5bc 1a59 e9ba
000001c0: 0d40 243d 2935 91bc 7be5 553c 9429 04bd
000001d0: 60ee 433c d5aa b9bc 7a59 8bbc 3bce 37bb
000001e0: 3013 863b 593b f33b ba22 e73c 88a8 7bbc
000001f0: 35f5 c03c edb8 8fbc 2b3c dbbc a6b6 debc
-0.015188237 -0.027100427 0.032645553 -0.0021310505 -0.040736284 0.037356492 -0.011665409 0.0095344735
-0.035128955 -0.006755706 -0.02386955 -0.024021776 -0.0067382553 0.028312044 0.0035300395 -0.003820746
-0.032727733 -0.009363427 0.029516257 0.012603125 0.032962706 0.04052861 -0.015651384 -0.018764313
-0.02320003 -0.038438153 -0.03400178 0.00066181086 0.023201184 -0.03439141 0.0024600986 0.030873109
0.039433878 0.026042473 0.031627607 0.026123822 0.01948159 -0.038780194 0.03507568 -0.029267866
-0.003274117 0.0007108871 -0.040183894 -0.039537173 0.009676368 0.0022733952 0.02255766 0.036451958
0.020656075 0.028189942 0.025514983 -0.019148797 -0.016666548 0.023298396 0.01619554 0.004709221
-0.039486967 0.038941186 0.026279122 -0.002806494 -0.03924382 -0.010570973 0.0051728766 -0.03131298
0.0004842629 -0.003736518 0.014494746 -0.001954404 -0.036312405 0.006101447 0.040671006 0.027544912
0.031449642 -0.025506664 -0.037765887 -0.0324157 0.028249506 0.008420815 -0.0345592 0.0019531074
0.011735754 0.0002080602 -0.017189577 0.019797126 0.027690338 0.012951994 0.0044237697 -0.007008318
-0.012917501 0.01752003 0.034730993 0.03994293 -0.0068948125 0.011847556 0.031761147 -0.020343851
-0.019442473 0.014044379 -0.021813106 -0.037829142 0.040840153 0.014101519 0.02756375 0.018352136
0.03388426 -0.010796754 -0.0063583725 0.0401568 0.03207749 0.009201746 -0.022102477 -0.0017803044
0.040100146 -0.017725544 0.013055201 -0.032266214 0.0119586885 -0.022664467 -0.01701044 -0.0028046507
0.004091643 0.0074228463 0.028214801 -0.015360005 0.023554424 -0.017544234 -0.026762089 -0.027186703

conv4.1.weight f4 [128]
00000000: 1d56 7f3f 4663 803f 3a65 7f3f b96f 803f
00000010: ec06 813f 9c33 813f a647 803f c592 803f
00000020: 0c91 803f 13b5 803f 620d 813f c285 803f
00000030: 8d7b 803f cee4 803f ca4b 813f 3a5b 7f3f
00000040: e9d5 803f 0348 813f 19db 7f3f 26ce 7e3f
00000050: b737 803f 8a28 813f bcae 803f 1818 7f3f
00000060: 627c 7e3f e1d3 7e3f 39af 803f 5037 813f
00000070: 3b34 7f3f ee6d 803f 1f65 803f 9c9f 803f
00000080: 2c0a 803f 3166 803f fa59 803f f465 803f
00000090: 79a4 7e3f ef19 813f 4c48 813f acb5 803f
000000a0: 156d 803f 28d3 7f3f a265 7f3f 8caa 803f
000000b0: c0d2 803f ce77 803f 1c48 803f 21e8 7f3f
000000c0: 52ce 803f 740f 803f 1c52 7f3f 556f 803f
000000d0: fb2d 813f 0006 7f3f 631b 803f eeb8 7e3f
000000e0: 2351 813f e16e 7f3f 525b 7f3f ff00 813f
000000f0: 0ebe 803f 5315 803f 381c 7f3f cdd1 7e3f
00000100: 3906 803f 0b4b 803f 8046 803f 6f7e 803f
00000110: 2b88 7f3f 8036 7f3f fd03 813f 32a6 803f
00000120: bb3b 803f 10f7 803f c041 803f 42f8 7f3f
00000130: 2fc8 7e3f 2d94 803f 5b49 7f3f 24af 803f
00000140: 1046 7f3f 1d4f 803f 3a8c 7e3f 2940 7f3f
00000150: e1ce 803f 9f88 803f 6943 7f3f a036 803f
00000160: e46b 803f 9aca 803f d014 803f 137a 803f
00000170: ec11 803f cf11 803f a354 813f 3e9b 803f
00000180: f766 803f e8a3 803f 660c 813f 41de 7f3f
00000190: ecb6 7e3f ea1b 803f cf4b 803f 2f54 803f
000001a0: 47d6 803f 8174 803f 0196 7f3f 1a66 803f
000001b0: 5eb8 7f3f 6bc3 7f3f a468 803f 3a8c 803f
000001c0: 7109 813f f103 813f 1d95 803f a110 803f
000001d0: 530d 803f f78b 7e3f 8455 7f3f 01d7 803f
000001e0: 72fc 803f 5f1d 803f 8b8d 803f b160 803f
000001f0: 0cfb 7e3f e826 7f3f 1ad7 803f 79b7 803f
0.99740773 1.0030296 0.99763834 1.0034095 1.0080237 1.0093875 1.0021865 1.004479
1.0044265 1.005526 1.0082209 1.004082 1.0037705 1.0069826 1.0101254 0.99748576
1.006528 1.0100101 0.9994369 0.9953331 1.0017003 1.0090497 1.0053325 0.9964614
0.99408543 0.9954205 1.0053474 1.0095005 0.9968907 1.0033548 1.003086 1.0048709
1.0003104 1.0031186 1.0027459 1.0031114 0.99469715 1.0086039 1.0100188 1.0055442
1.0033289 0.99931574 0.99764454 1.0052047 1.0064316 1.0036561 1.0022006 0.99963576
1.0062964 1.0004716 0.99734664 1.0033976 1.0092157 0.9961853 1.0008358 0.9950093
1.0102886 0.9977856 0.9974872 1.0078429 1.0058 1.0006508 0.99652433 0.9953888
1.0001899 1.0022901 1.0021515 1.0038584 0.9981715 0.99692535 1.0079342 1.0050719
1.0018228 1.0075397 1.0020065 0.99988186 0.99524206 1.004522 0.99721307 1.0053449
0.9971628 1.0024143 0.9943272 0.99707276 1.0063134 1.0041693 0.99712235 1.001667
1.0032926 1.0061829 1.0006351 1.0037254 1.0005469 1.0005435 1.0103954 1.0047376
1.0031422 1.005002 1.0081909 0.9994851 0.99497867 1.0008519 1.0023135 1.0025691
1.0065392 1.0035554 0.9983826 1.0031159 0.99890697 0.9990756 1.0031934 1.0042794
1.0081006 1.0079328 1.0045506 1.0005075 1.0004066 0.9943232 0.9973986 1.0065614
1.007704 1.0008963 1.0043195 1.0029508 0.9960182 0.9966874 1.0065644 1.0055991

conv4.1.bias f4 [128]
00000000: 1183 7fba bfc9 8dbb 42fd 183b 79a3 ec3a
00000010: cd58 003c 4b5c 0a3c 07f7 19bb f92d 21bb
00000020: 41d0 4f3b 4d93 5f3b ccd7 083c 3a0f b3bb
00000030: 518e 8a3b d646 dc3b f63e 233c c2e8 243c
00000040: eeee d43b 6c5a e03b 7d31 72bb 53aa e8bb
00000050: 6a14 1539 c178 043c 584a 9eb9 8317 9cba
00000060: 89f5 60bb ce1c acbb a350 033c fe42 123c
00000070: 9334 243b 83dc c93a 4e7f 23b9 9b98 923b
00000080: d6dc 9dbb 1dc0 af3b 56f5 813a 1482 02bc
00000090: 9b36 c6bb ecef 053c 5220 973b c19a e2bb
000000a0: 7fff 033c f602 2cbb c7e4 ae3b 7fef e43b
000000b0: 3802 ed3b a8e0 83bb 7a31 60b9 7d5e c83b
000000c0: 4820 0d3c 9f64 7dbb da8a fdb9 b7d3 eabb
000000d0: 41a0 053c 51f5 2a39 a17d a1bb a749 bf3a
000000e0: 6e26 b03b 76a2 bf3b 5204 823b 466f 0e3c
000000f0: c86a babb 0250 14bb 40e2 ce37 a079 54bb
00000100: 357c 1cbc c10b fd3b aaaf e73b d440 02ba
00000110: 9058 6d3b 2f58 29bb 7c84 053c 47f9 b03b
00000120: 12f7 18bc 030e 073c f811 7f3b 7fca 58bb
00000130: 1c3e f93b f9db 9c39 c9c1 433b 4a65 583b
00000140: b534 c8ba 0bd1 3c3a 6200 fe3a d06e f7ba
00000150: 954d b03b 49b5 953b a974 bd3b a2d4 3f3b
00000160: 7694 cebb 0ed7 083c 4564 27bb e864 ffb8
00000170: 5f05 53ba eca0 2dba 261c f73b 6958 f83b
00000180: 5d72 043b b7ae 24bb 7fef 773b 26fd e1bb
00000190: 5c24 e0bb fa7f 863a 156f 093c 25d3 fa3b
000001a0: 234c 103c c322 ac3b 9ed3 efbb cff0 bd3b
000001b0: 2abe 82bb 8cb9 2d3c 585c fb3b c080 063c
000001c0: 46e2 4e3b ca3d 093c bbef 283b 979d 363b
000001d0: b4e6 c139 5a94 10bc 3624 87bb 87c6 013c
000001e0: 9ea4 013c 1d3c a23b b89e ae39 4785 7dbb
000001f0: 64ec e6bb dee2 a43b 415d 35b8 c0c9 913b
-0.00097470084 -0.0043270285 0.0023344313 0.001805409 0.007833672 0.008444856 -0.0023493187 -0.0024594052
0.0031709822 0.0034114898 0.008352231 -0.0054644616 0.004228391 0.0067223115 0.0099637415 0.010065259
0.006498209 0.0068467166 -0.0036955767 -0.0071003824 0.00014217352 0.008085431 -0.000301915 -0.0011908863
-0.0034326038 -0.005252457 0.008014831 0.008927105 0.002505575 0.0015400801 -0.00015592316 0.0044737584
-0.0048175855 0.005363478 0.0009915035 -0.007965583 -0.00604899 0.008174878 0.004612007 -0.0069154208
0.0080565205 -0.0026246882 0.005337331 0.006986558 0.0072329305 -0.004024584 -0.00021380736 0.0061147795
0.0086136535 -0.0038664711 -0.00048359373 -0.0071663517 0.008155883 0.00016303851 -0.004928306 0.0014594094
0.005375675 0.0058482243 0.0039678 0.008693522 -0.005688999 -0.0022630696 2.466247e-05 -0.0032421127
-0.009551098 0.0077223484 0.0070705013 -0.00049687666 0.0036216117 -0.0025839915 0.0081492625 0.00540081
-0.00933625 0.008243087 0.0038920622 -0.0033079681 0.007606281 0.0002991853 0.0029870144 0.0033019357
-0.0015274497 0.00072027807 0.0019378776 -0.0018877629 0.0053803422 0.00456873 0.0057817292 0.0029271026
-0.006304319 0.008352054 -0.0025541943 -0.00012178143 -0.00080498116 -0.00066234055 0.0075411974 0.0075788987
0.0020209767 -0.0025128552 0.003783196 -0.0068966327 -0.006840272 0.0010261529 0.0083883 0.007654565
0.008807215 0.0052531674 -0.007318928 0.005796529 -0.0039899545 0.01060332 0.0076709203 0.008209407
0.0031567975 0.008376548 0.0025777656 0.0027864927 0.00036983716 -0.008824432 -0.0041241897 0.007920868
0.007912783 0.0049510137 0.0003330612 -0.0038684176 -0.007047223 0.0050319275 -4.3240612e-05 0.0044490993

conv4.1.running_mean f4 [128]
00000000: b407 0dbe 4ce0 193e 3b69 1bbf 01b6 b83d
00000010: 59c9 0dbf 7684 03be 5e69 4abd 77f6 343e
00000020: c03d 7d3e 6c2d 6aba f67b c73b 634b 683e
00000030: 41f6 bfbe 34ee d3be 8964 f03c 8b74 893e
00000040: 0dfd 16bf c53c b33d 4ab4 aebe b790 f8bd
00000050: 9a29 92bd e2b2 cebd 5b35 813e f00d e8be
00000060: a9a4 84be a01b b03e efe8 13bf c041 81be
00000070: cd63 433e 52de 063e 151e 90be 78c6 a53e
00000080: 5b59 493e 70cd 9f3e 0129 70be 88b3 ce3e
00000090: 2b9f d63e abaf 85be c6d0 ef3d 1fe5 d53e
000000a0: dc5e 863e 551b 6ebd d45d acbe dcc4 11bf
000000b0: 76ff 3a3d 3843 b33d 417c 383e 27f5 ffbe
000000c0: f01e 29b9 0656 8d3d 1b40 053d 1ee2 5a3e
000000d0: 016d e3be a25a cf3d b566 c63e 6a1a 963e
000000e0: 515f 2cbc f1d2 92be 08bd a4be 6ba5 263e
000000f0: 69e3 f0bd a8c7 8a3d 05f0 293e b7d0 193e
00000100: b0d3 a53e 4723 843c c2d9 03bf 7218 5a3e
00000110: 70b2 febe 336c 763d 9deb 05be f32e 83bb
00000120: 9d75 043e 7865 153d c786 5e3d 6949 c43e
00000130: 1e52 c6be a5ec c93e aaf7 a5bd 55fe a6bd
00000140: 8b08 063e 070a 57be a64e 99be ebc7 c1bb
00000150: 08ef 1c3e 69b1 fcbe 42d0 5b3e 6fd3 c5be
00000160: 89a7 ad3e 8236 e4be f651 853c e1e5 b43d
00000170: 0ec6 053e b1c3 3a3d d191 e23c 2d36 e8be
00000180: d9ea 5dbe 37a4 7f3e cec7 1d3e 826a 5a3d
00000190: cef0 bd3e bc41 03bf 0156 ce3d 0c0b f8be
000001a0: ef2a 973d c2d6 87be af74 413e 4b1c 503e
000001b0: 7cb8 e53e e9c3 673d 40fe 083b af4a 0bbf
000001c0: c897 733d ec38 d7be db3f ac3d 8db4 89be
000001d0: ab72 063e c173 e6be 99d3 5c3d ce49 9abe
000001e0: a623 a8be 4e90 223c 2dcd 8f3e 42f7 b73e
000001f0: b721 033e c2b0 4e3d 092b 573e 93d5 97be
-0.1377247 0.15026969 -0.60707444 0.090190895 -0.5538536 -0.12843499 -0.049416892 0.17672144
0.24730587 -0.000893316 0.0060877753 0.22685008 -0.37492564 -0.41392672 0.029344814 0.26846728
-0.58979875 0.08751825 -0.34121925 -0.12136977 -0.07136841 -0.10092713 0.2523602 -0.45323133
-0.25906876 0.34396076 -0.57777303 -0.25245476 0.1908104 0.13170746 -0.2814795 0.32377982
0.19662993 0.31211424 -0.23453142 0.40371346 0.4191831 -0.26110587 0.11709742 0.41776368
0.26244247 -0.058131535 -0.33665335 -0.5694101 0.045653783 0.08753055 0.18016149 -0.49991724
-0.00016128621 0.06901173 0.03253184 0.2137532 -0.444191 0.10124709 0.38750234 0.29317027
-0.010520772 -0.2867656 -0.3217547 0.1627404 -0.11762125 0.06776363 0.16595466 0.15021025
0.32388067 0.016130103 -0.5150415 0.21298388 -0.49745512 0.06016178 -0.1307816 -0.0040033995
0.12935491 0.03647372 0.054327752 0.38337258 -0.38734525 0.39438358 -0.08103879 -0.08153979
0.13089196 -0.20999919 -0.29942816 -0.0059137247 0.15325558 -0.49354103 0.21466163 -0.38637874
0.33916882 -0.44572836 0.016274434 0.088329084 0.13063833 0.045596782 0.027657421 -0.45353833
-0.21671619 0.24964987 0.1540825 0.05332423 0.37097782 -0.5127218 0.10074998 -0.48445928
0.07381236 -0.26531035 0.18892168 0.20323293 0.44867313 0.05658332 0.0020903498 -0.54410833
0.05947092 -0.42035615 0.08410617 -0.26895562 0.1312968 -0.45010188 0.053912733 -0.30134434
-0.32839698 0.0099221 0.28086224 0.3593083 0.1280583 0.050461538 0.2101251 -0.29655132
