artifact/02_12_2024_10_18_51/model_training_artifacts/model.pt (torch, 440907 bytes, 26 tensors)

conv1.0.weight f4 [16, 1, 3, 3]
0	0xbd8e24e2	-0.069406286
1	0x3dc1bef5	0.0946025
2	0x3d328ac4	0.04358937
3	0x3d78349f	0.06059706
4	0xbe98b648	-0.2982657
5	0x3df38a80	0.11891651
6	0x3e868ea0	0.2628069
7	0x3e8260e3	0.25464544
8	0xbe5a146b	-0.21296851
9	0x3ce124d0	0.027483374
10	0x3e9c2da2	0.30503565
11	0xbdd6ee33	-0.10494652
12	0x3e9552a6	0.29164618
13	0xbdfb4be6	-0.12270336
14	0x3e9316a2	0.28728205
15	0x3e8445aa	0.258344
16	0x3e953c35	0.29147497
17	0x3d0a2d5f	0.033734675
18	0x3e838cfe	0.25693506
19	0xbdbf7686	-0.093487784
20	0x3e196b92	0.14982441
21	0xbdfd8e19	-0.123806186
22	0x3e88e737	0.26738903
23	0xbddca3b3	-0.10773411
24	0x3e12d8a9	0.14340462
25	0xbdf63c11	-0.120231755
26	0xbe9a4f25	-0.30138507
27	0x3cfe82f0	0.031068295
28	0x3ea0cd7a	0.31406766
29	0x3d2a4104	0.04156591
30	0x3db5085f	0.08839487
31	0xbde83695	-0.11338536
32	0x3d1661b6	0.03671428
33	0x3e0c0ac4	0.13675982
34	0xbe99b55e	-0.30021185
35	0x3e8890e1	0.26673034
36	0xbe8d6abd	-0.27620497
37	0xbe8343c2	-0.25637633
38	0xbe0132b7	-0.12617002
39	0xbe588660	-0.2114501
40	0xbe82822c	-0.25489938
41	0xbdd8472c	-0.1056045
42	0x3e08f505	0.13374718
43	0xbe92a8a5	-0.2864429
44	0xbd825e5f	-0.06365656
45	0x3e7069f1	0.23477913
46	0x3e995ee9	0.29955223
47	0x3cfd88af	0.030948965
48	0xbe550cfd	-0.20805736
49	0xbe6747bd	-0.2258596
50	0xbe824fe2	-0.2545157
51	0xbdcc6b4c	-0.09981403
52	0x3e1e5699	0.15462722
53	0x3e9fbe6e	0.31199974
54	0xbe854741	-0.26030925
55	0xbd72187e	-0.05910539
56	0x3e775045	0.24151714
57	0xbba203b2	-0.004944288
58	0xbe91e44a	-0.28494483
59	0x3e65f7ae	0.22457764
60	0x3e0f3bcc	0.13987654
61	0x3c3b637a	0.011437291
62	0xbe927728	-0.28606534
63	0x3e6f01cc	0.23340529
64	0x3e826f3a	0.25475484
65	0x3d1814c7	0.03712919
66	0xbe4fa0f2	-0.2027624
67	0xbb11bd24	-0.002223798
68	0xbe850b16	-0.2598502
69	0xbe1fb3f7	-0.15595995
70	0x3d68fe1d	0.056882966
71	0xbd9d9654	-0.076946884
72	0x3dc3df22	0.095640436
73	0x3d844cd2	0.06459965
74	0x3e267ac5	0.1625777
75	0xbea70363	-0.3261977
76	0x3ea9a60a	0.3313449
77	0x3c2f1fc7	0.010688729
78	0xbe10cceb	-0.1414067
79	0xbc23e5a3	-0.01000348
80	0x3e0935c2	0.13399413
81	0x3d3a3d50	0.04546863
82	0xbd2f1127	-0.042740967
83	0xbe07ba08	-0.13254559
84	0xbe7c5e77	-0.2464541
85	0xbe70af04	-0.23504263
86	0x3e94317f	0.28944013
87	0x3e2a46ce	0.16628572
88	0x3e862321	0.26198676
89	0xbd85971c	-0.065229625
90	0xbbf74a40	-0.007546693
91	0xbe4f159e	-0.2022309
92	0x3d8b62c6	0.06805949
93	0xbe4a5ffb	-0.19763176
94	0xbe443b53	-0.19163255
95	0x3d18495b	0.037179332
96	0x3ea0c850	0.31402826
97	0x3ea2ac92	0.31772286
98	0xbd247794	-0.0401531
99	0x3e7f0f5b	0.24908201
100	0xbe2dc7d8	-0.16970766
101	0x3e9db96b	0.30805525
102	0x3e6090b5	0.21930201
103	0x3dc7584e	0.0973364
104	0x3e5230eb	0.20526473
105	0x3e8bbfb0	0.27294683
106	0xbd9ff079	-0.078095384
107	0x3dfe58dd	0.12419293
108	0xbd607778	-0.054801434
109	0xbe308c83	-0.17241101
110	0xbe920e15	-0.2852637
111	0xbe365370	-0.17805266
112	0xbe3b805e	-0.18310687
113	0xbea4c7b4	-0.3218361
114	0xbd4bf29c	-0.049791917
115	0x3d209472	0.03920407
116	0x3e89c26f	0.26906154
117	0xbd2cdc88	-0.042202502
118	0xbb7e53c1	-0.0038807245
119	0xbe84a00f	-0.25903365
120	0x3e12c23a	0.14331904
121	0xbd7caf1c	-0.061690435
122	0xbe671f72	-0.22570589
123	0x3e942b4b	0.2893928
124	0x3eac08db	0.33600506
125	0x3de991f1	0.11404789
126	0x3c1ac7b5	0.009447028
127	0x3ea92f5b	0.33043942
128	0x3e90a5e0	0.28251553
129	0x3d949d2e	0.07256542
130	0x3cff972f	0.03120002
131	0xbe8b8efa	-0.2725752
132	0xbe90b72c	-0.2826475
133	0x3df59809	0.11991889
134	0x3e144f53	0.14483385
135	0xbe512432	-0.20423964
136	0xbdd9c056	-0.10632388
137	0x3e6038fe	0.21896741
138	0xbe209368	-0.15681231
139	0x3e9215ce	0.2853226
140	0x3e22e911	0.1590922
141	0x3d6c8b65	0.057750124
142	0xbe3101eb	-0.17285888
143	0xbe8ad11d	-0.27112666

conv1.0.bias f4 [16]
0	0xbdfd35e2	-0.12363793
1	0xbcead75e	-0.028667148
2	0xbd19e5ab	-0.037572544
3	0x3ea67ff9	0.3251951
4	0x3e6b0c00	0.22953796
5	0xbea085e6	-0.31352156
6	0x3e0c6d47	0.13713561
7	0x3cf94583	0.030428654
8	0x3ea6d16b	0.32581648
9	0xbdce297c	-0.10066506
10	0x3ded7649	0.11594827
11	0xbd59ed1d	-0.053204644
12	0x3e3331e4	0.174995
13	0xbd643af6	-0.055720292
14	0x3e4873f8	0.19575489
15	0xbe0263d5	-0.12733395

conv1.1.weight f4 [16]
0	0x3f7faf74	0.99877095
1	0x3f8023d7	1.0010937
2	0x3f7f365c	0.9969232
3	0x3f803609	1.001649
4	0x3f8032b8	1.0015478
5	0x3f7f94a8	0.99836206
6	0x3f7f491e	0.9972094
7	0x3f804a8f	1.0022753
8	0x3f805bce	1.0028017
9	0x3f8055c5	1.0026175
10	0x3f7f5bed	0.9974964
11	0x3f8050b7	1.0024632
12	0x3f7f4e8a	0.99729216
13	0x3f7f8cb6	0.9982408
14	0x3f7f3e8f	0.9970483
15	0x3f7f49e6	0.99722135

conv1.1.bias f4 [16]
0	0x3b17c316	0.0023157052
1	0x3ad0c8bc	0.0015928964
2	0xbb7f3a05	-0.0038944494
3	0x3a0a8066	0.0005283415
4	0xbb7bd53c	-0.0038426658
5	0xbb6407e3	-0.003479474
6	0x3b588dea	0.0033043572
7	0xbb7b331d	-0.0038330026
8	0xbb80e7c2	-0.0039338777
9	0xba6ed055	-0.00091100234
10	0xbb2bb8e3	-0.002620273
11	0xbb5474f8	-0.0032418352
12	0xbb633087	-0.0034666376
13	0xbb44b94b	-0.003001767
14	0xbb58df22	-0.0033091982
15	0x3b50d4e2	0.003186517

conv1.1.running_mean f4 [16]
0	0x405d0b2a	3.4538064
1	0x418867b9	17.050646
2	0x3f8b147e	1.0865629
3	0x40ddbcd4	6.9293003
4	0xc19c5527	-19.541578
5	0x4047fe0d	3.124881
6	0xc0619de0	-3.525261
7	0xbfc8fcab	-1.5702108
8	0x408b8804	4.3603535
9	0x3eea3803	0.4574586
10	0x3fad9e2b	1.3563894
11	0x41847a45	16.559702
12	0xc1478ead	-12.472333
13	0x4075ddf2	3.8416715
14	0x40bebd15	5.9605813
15	0xc0235a49	-2.5523856

conv1.1.running_var f4 [16]
0	0x460cfe8c	9023.637
1	0x46f0131c	30729.555
2	0x4627b217	10732.522
3	0x465a1202	13956.502
4	0x471f9441	40852.254
5	0x4636b9bb	11694.433
6	0x4673193b	15558.308
7	0x4631a58d	11369.388
8	0x465f97ee	14309.982
9	0x4603bade	8430.717
10	0x4638d1ae	11828.42
11	0x46f63919	31516.549
12	0x46c6744b	25402.146
13	0x4698732c	19513.586
14	0x465a2919	13962.274
15	0x464312bf	12484.687

conv2.0.weight f4 [32, 16, 3, 3]
0	0xbcce9563	-0.025217718
1	0x3d4cb197	0.04997405
2	0xbd5f50c6	-0.05452039
3	0xbd578df5	-0.052625615
4	0xbcd61273	-0.026131844
5	0xbd068567	-0.032842066
6	0xbb5d3093	-0.0033750876
7	0x3ccf6ee6	0.025321435
8	0x3cbc9b61	0.02302331
9	0xbd6140b2	-0.05499334
10	0xbd1cb54c	-0.038258836
11	0xbc0d61fb	-0.008629317
12	0x3c11a988	0.008890517
13	0xbd837892	-0.06419481
14	0xbcffde46	-0.031233918
15	0x3d82382e	0.06358372
16	0xbd5af66f	-0.053457674
17	0xbd5830af	-0.052780803
18	0x3d96301b	0.07333394
19	0x3d08458b	0.033269446
20	0xbc3a06df	-0.011354177
21	0xbda34131	-0.07971419
22	0x3d907246	0.07053046
23	0xbd16bab3	-0.036799144
24	0xbc2df5a4	-0.010617647
25	0xbc8aafba	-0.016929496
26	0xbca06508	-0.019579425
27	0xbd0632a3	-0.032763135
28	0x3d95bd5b	0.07311507
29	0xbca1c596	-0.019747537
30	0xbcaa883c	-0.020816915
31	0xbd6a2792	-0.057166643
32	0x3d1ec4a8	0.038761765
33	0xbd9a918e	-0.075472936
34	0x3d74b50c	0.059742972
35	0xbd872f69	-0.0660084
36	0x3d998752	0.074965134
37	0x3c952afb	0.018208971
38	0xbd99694c	-0.07490787
39	0x3d723e63	0.059141528
40	0xbce1ac79	-0.027548062
41	0xbd8640e4	-0.06555346
42	0x3c966dc8	0.018362895
43	0x3d8cecd5	0.068811096
44	0xbd5ee5df	-0.05441844
45	0xbd67d2f1	-0.056597654
46	0x3d78c9f7	0.060739484
47	0xbd92c54f	-0.0716654
48	0xbd90ad1a	-0.070642665
49	0xbce84ec8	-0.028357878
50	0xbd1a1090	-0.03761345
51	0x3d2ed970	0.042687833
52	0xbd6f93eb	-0.058490675
53	0x3d8f0441	0.06983233
54	0x3da36f72	0.07980241
55	0x3d4c27ca	0.049842633
56	0x3c9055ac	0.017618977
57	0x3d8d5f50	0.06902945
58	0x3d9a3810	0.07530224
59	0x3d0d3576	0.034474812
60	0xbcb0ef5c	-0.02159851
61	0x3c963e41	0.018340232
62	0xbcb8c6f5	-0.022555808
63	0x3cc772fa	0.024346817
64	0x3d6c6c68	0.05772057
65	0x3d2f4324	0.04278864
66	0x3d60d96b	0.054894846
67	0xbd06e5b7	-0.032933917
68	0xbd81a061	-0.06329418
69	0x3c818577	0.015810711
70	0xbc8aabaf	-0.016927568
71	0x3d822925	0.06355504
72	0xbc4316b6	-0.01190727
73	0x3d702da7	0.058637287
74	0xbd607e04	-0.054807678
75	0xbc8dbdf0	-0.017302483
76	0xbd8ac3ca	-0.06775625
77	0x3d906e51	0.07052291
78	0x3c8e6d25	0.017386029
79	0xbd5846ec	-0.05280201
80	0x3cd1ec29	0.025625305
81	0x3dae3006	0.085052535
82	0x3d7b62a0	0.061373353
83	0x3d174120	0.036927342
84	0x3cb1b286	0.021691572
85	0x3ce64411	0.028108628
86	0xbd88ad6b	-0.06673702
87	0x3d87cc44	0.066307575
88	0xbd44946e	-0.047993116
89	0xbda1f273	-0.07907572
90	0x3d2ab638	0.041677684
91	0x3d252373	0.04031701
92	0x3cfbe923	0.030750817
93	0xbcd07459	-0.025446104
94	0xbc9527e8	-0.018207505
95	0x3d09ea24	0.03367056
96	0x3d771e1a	0.06033144
97	0xbd2664b1	-0.04062337
98	0x3a0853ac	0.00052004564
99	0x3bb4cb6d	0.0055174143
100	0x3cfb564c	0.030680798
101	0xbd0059f2	-0.03133578
102	0xbcf0bf59	-0.029388117
103	0xbc2c6edf	-0.010524481
104	0x3d3abf48	0.045592576
105	0x3c82e3cc	0.015977763
106	0x3cfc14da	0.030771662
107	0xbc85cb60	-0.016332328
108	0x3b7d4f14	0.003865187
109	0xbd0f5e72	-0.03500218
110	0xbd61fa85	-0.055170555
111	0x3c4ced74	0.012507785
112	0xbd870ae8	-0.06593877
113	0xbd47d967	-0.048791315
114	0x39797020	0.0002378826
115	0xbcbeac92	-0.023275647
116	0xbc9bc8d5	-0.019016663
117	0xbd6d2d00	-0.057904243
118	0x3c9c60ff	0.01908922
119	0x3d30a42e	0.043125324
120	0x3d94dfa7	0.07269221
121	0x3ba90735	0.00515833
122	0x3aa0054c	0.001220861
123	0x3c7e4a92	0.015520709
124	0x3d3567c6	0.04428842
125	0x3daac9b7	0.08339255
126	0xbd946c05	-0.072471656
127	0x3d249454	0.04018052
128	0xbcab87cd	-0.020938778
129	0x3d78ff50	0.06079036
130	0x3da1e585	0.079051055
131	0x3d3598da	0.044335224
132	0x3cb59645	0.02216638
133	0xbd8741f3	-0.06604376
134	0xbd71fc3e	-0.059078448
135	0xbd2b6d54	-0.04185231
136	0x3d2f89a9	0.042855892
137	0xbd746261	-0.059664134
138	0xbc83619a	-0.016037751
139	0xbd006f96	-0.031356417
140	0x3cba7790	0.02276209
141	0x3d64943a	0.055805422
142	0x3d94711b	0.07248136
143	0xbc8593e0	-0.016305864
144	0x3ccfec2d	0.025381172
145	0xbd1299ba	-0.035791136
146	0x3d1cd7fb	0.038291913
147	0x3cdbdc44	0.02683843
148	0x3d92b571	0.071635135
149	0xbd718cdb	-0.05897222
150	0xbd729aff	-0.059229847
151	0xbd1f82f0	-0.03894323
152	0xbcc26d64	-0.023733802
153	0x3d5cf0cd	0.053940583
154	0xbd73d3e4	-0.059528247
155	0xba1da6d7	-0.0006013936
156	0x3d4b446f	0.04962581
157	0xbd31f8c7	-0.043450143
158	0xbd008798	-0.031379312
159	0x3d25b5c1	0.040456537
160	0x3d874d06	0.06606488
161	0xbd820be6	-0.06349926
162	0x3d6d6fcd	0.05796795
163	0xba956ca3	-0.0011400174
164	0x3be4e592	0.0069853747
165	0xbd38fb81	-0.045161728
166	0xbda9a8d4	-0.082841545
167	0xbc2fee2c	-0.010737937
168	0xbd8d594c	-0.06901798
169	0xbd1473e5	-0.03624334
170	0x3d8fb4e5	0.07016925
171	0x3d3b1d41	0.045682196
172	0xbd5ae5a1	-0.053441647
173	0xbd60a139	-0.054841254
174	0xbd951795	-0.072798885
175	0xbc8b276d	-0.016986573
176	0x3d8b3064	0.06796339
177	0xbccf4f62	-0.025306407
178	0xbcaa8abc	-0.020818107
179	0x3d75bc29	0.059993897
180	0x3b37cc02	0.0028045182
181	0x3da7dd78	0.08196539
182	0x3c8440f5	0.016144255
183	0x3d94d10b	0.07266434
184	0x3d5220af	0.0513007
185	0x3c0a1730	0.00842838
186	0xba956381	-0.0011397452
187	0x3c708e28	0.01468233
188	0xbd0f5684	-0.034994617
189	0x3c1ff7f0	0.009763703
190	0xbc9008e7	-0.01758237
191	0x3d6c8184	0.057740703
192	0x3d154a7e	0.036447994
193	0xbc0b51da	-0.008503402
194	0x3d1aabc2	0.037761457
195	0x3caf0fab	0.021369776
196	0xbd7a59d6	-0.06112083
197	0xbd79fc0c	-0.061031386
198	0xbaf49257	-0.0018659335
199	0xbd9556e3	-0.07291963
200	0x3d910e4b	0.07082804
201	0x3d11e9f7	0.035623517
202	0x3cda9aba	0.026685107
203	0x3cc3fdbd	0.023924703
204	0xbc9406a3	-0.01806957
205	0xbd8e89e0	-0.06959891
206	0x3d7d1ab4	0.061793044
207	0x3d8ecc5c	0.06972572
208	0xbd84ed07	-0.06490522
209	0xbd4c728e	-0.049913935
210	0x3d784534	0.060612872
211	0xbc7ee19a	-0.015556717
212	0x3d6a399d	0.05718385
213	0x3d860768	0.065443814
214	0xbcc151ce	-0.023598578
215	0xbd5579ce	-0.052118115
216	0x3b9000a8	0.0043946095
217	0x3d061a5b	0.03273998
218	0xbd8a29df	-0.067462675
219	0x3d680e5b	0.056654315
220	0x3ccabfcd	0.02474966
221	0xbc50411f	-0.012710839
222	0xbd30732c	-0.043078586
223	0xbd0dfddf	-0.03466594
224	0x3d919a29	0.07109482
225	0x3da4fa46	0.08055548
226	0x3d6e51f6	0.058183633
227	0x3d5eaa22	0.05436147
228	0xbb29e19b	-0.0025921825
229	0xbc66d92d	-0.014089865
230	0xbcf4c8d3	-0.029880917
231	0x3d9724ed	0.0738009
232	0x3d3ae30a	0.045626678
233	0xbd9c1081	-0.07620335
234	0x3d381bb9	0.044948313
235	0x3d3b4379	0.045718644
236	0x3d683957	0.05669531
237	0xbcbcd145	-0.023049006
238	0xbc93a2f8	-0.018022045
239	0x3d87fad7	0.06639641
240	0xbcfa2448	-0.030534878
241	0x3c0828a4	0.008310471
242	0xbd095d2c	-0.03353612
243	0x3cfdd27b	0.030984154
244	0x3d061f67	0.03274479
245	0xbd81a662	-0.06330563
246	0xbd14439c	-0.03619729
247	0xbd8d16b2	-0.068890944
248	0x3d72cc6e	0.05927699
249	0xbd9c7268	-0.07639009
250	0xbdaaafb2	-0.083342925
251	0xbcdbf902	-0.026852135
252	0x3cca3cac	0.024687134
253	0x3d967e7f	0.07348346
254	0x3b63b1dd	0.0034743466
255	0xbd03eaeb	-0.032206457

conv2.0.bias f4 [32]
0	0xbd9d1b3e	-0.07671212
1	0xbcf1cd54	-0.029516853
2	0x3d679f10	0.05654818
3	0x3d227e33	0.039671134
4	0x3d58856e	0.052861623
5	0x3cdad298	0.026711747
6	0xbd426049	-0.047455106
7	0x3d58a7e3	0.052894484
8	0xbd8ae172	-0.067812815
9	0xbcd9e109	-0.026596563
10	0x3c9c37dd	0.019069606
11	0x3d9d2a4d	0.07674084
12	0xbcd32895	-0.025776187
13	0x3d76d4a1	0.060261372
14	0x3bd0814f	0.006363071
15	0x3ac37608	0.0014912495
16	0xbcf7fc24	-0.030271597
17	0xbc8ef1b4	-0.017449237
18	0xbd29fec6	-0.041502737
19	0x3d7bd01e	0.061477773
20	0x3d96b829	0.073593445
21	0x3d1ad2f1	0.037798826
22	0x3d956add	0.07295773
23	0x3c7a857c	0.015290614
24	0xbcc6f133	-0.024284935
25	0xbd047fe8	-0.032348543
26	0x3c492ca1	0.012278707
27	0xbc618bc7	-0.013766236
28	0xbd78ef3d	-0.06077503
29	0x3d599824	0.05312361
30	0x3cd0acd9	0.025473045
31	0xbd0c1720	-0.03420174

conv2.1.weight f4 [32]
0	0x3f80467e	1.0021513
1	0x3f7f6dfc	0.997772
2	0x3f7f2594	0.99666715
3	0x3f8029c8	1.0012751
4	0x3f805da7	1.002858
5	0x3f7f5d1d	0.99751455
6	0x3f7f7ba2	0.99798024
7	0x3f7f506b	0.99732083
8	0x3f800b5d	1.0003468
9	0x3f7f6240	0.9975929
10	0x3f806b81	1.0032808
11	0x3f805590	1.0026112
12	0x3f8055c5	1.0026175
13	0x3f7f250b	0.996659
14	0x3f7f2d29	0.99678284
15	0x3f804412	1.0020773
16	0x3f803bd3	1.0018257
17	0x3f7f9d43	0.9984934
18	0x3f7f0485	0.9961627
19	0x3f7f8924	0.99818635
20	0x3f7f7713	0.9979107
21	0x3f7f6a13	0.9977123
22	0x3f7f50a0	0.997324
23	0x3f8054bb	1.0025858
24	0x3f805493	1.002581
25	0x3f7f83d0	0.99810505
26	0x3f805860	1.002697
27	0x3f803000	1.0014648
28	0x3f7f6a59	0.9977165
29	0x3f805b78	1.0027914
30	0x3f7fa881	0.9986649
31	0x3f7f4e56	0.99728906

conv2.1.bias f4 [32]
0	0x3ac8ec60	0.0015329234
1	0xba2e5338	-0.0006649974
2	0xba8e3cad	-0.0010851823
3	0xbadcf474	-0.0016857521
4	0x39e644a8	0.0004392017
5	0xbb58c17a	-0.0033074305
6	0xbb7e7bf4	-0.0038831206
7	0xbb28579a	-0.002568698
8	0x38504142	4.965184e-05
9	0xbb01a5fb	-0.001978277
10	0xbb74e1db	-0.0037366066
11	0x3afeda1f	0.0019443667
12	0xbab001c2	-0.0013428258
13	0xbb656063	-0.0035000078
14	0x3ad51d18	0.0016259281
15	0x3b4db8e8	0.003139073
16	0xba3b5a80	-0.00071469694
17	0xbb7a61a3	-0.0038205169
18	0x3b081fad	0.0020770833
19	0x3a09b561	0.0005253163
20	0x3b413edf	0.0029486937
21	0x3ac15874	0.0014751093
22	0xbb43041b	-0.0029757086
23	0xba8ea29a	-0.0010882199
24	0x3ac1ff01	0.0014800729
25	0xbb543c90	-0.003238473
26	0xba9d80cf	-0.0012016537
27	0x3b5b6b66	0.0033480763
28	0x39a727fa	0.00031882507
29	0x3b8215c6	0.0039698808
30	0x3b66d3e4	0.0035221511
31	0xbb1bfe29	-0.0023802614

conv2.1.running_mean f4 [32]
0	0xbc75a9b1	-0.014994071
1	0x3b69bb89	0.0035664758
2	0xbc4faf03	-0.012676003
3	0xbcb06bf3	-0.02153585
4	0x3d6305dc	0.05542551
5	0x3cde6362	0.027146999
6	0x3a538ea1	0.00080702646
7	0x3d560e73	0.052259874
8	0xbdb20e82	-0.086941734
9	0xbd76ddf1	-0.060270254
10	0x3d4c99bc	0.0499513
11	0x3d3dec80	0.046368122
12	0x3b28e159	0.0025769083
13	0x3d149cf9	0.036282513
14	0x3ba2f628	0.004973192
15	0xbd9c4c8f	-0.0763179
16	0x3cc7d5ed	0.024394
17	0x3d25a243	0.040437948
18	0xbdad073f	-0.08448648
19	0xbd959cab	-0.07305273
20	0x3d9da661	0.0769775
21	0xbced3598	-0.02895622
22	0xbc961581	-0.0183208
23	0xbc7db04e	-0.015483929
24	0x3cc9f575	0.024653176
25	0xbb3e8454	-0.0029070573
26	0x3d96b106	0.07357983
27	0x3ce0fc78	0.027464136
28	0x3ce1feb0	0.027587265
29	0x3c16620d	0.009178651
30	0xbcdc92d4	-0.026925482
31	0xbc4e6103	-0.012596372

conv2.1.running_var f4 [32]
0	0x3f4088e0	0.75208855
1	0x3f52f408	0.8240361
2	0x3f3cbfa1	0.737299
3	0x3f4bc3bc	0.7959554
4	0x3f6054ba	0.8762928
5	0x3f3422fa	0.7036587
6	0x3f383222	0.71951497
7	0x3f5ecefb	0.8703458
8	0x3f4c1921	0.79725844
9	0x3f7f6120	0.99757576
10	0x3f490eaf	0.7853803
11	0x3f5220a9	0.82081085
12	0x3f3e01d2	0.7422153
13	0x3f44ce2d	0.768771
14	0x3f4c04a1	0.79694563
15	0x3f80d0f6	1.006377
16	0x3f66818d	0.9004143
17	0x3f52ec01	0.82391363
18	0x3f658ece	0.8967103
19	0x3f875d72	1.0575392
20	0x3f5eb0e9	0.86988693
21	0x3f545865	0.8294738
22	0x3f4c6a37	0.7984957
23	0x3f3bc2e3	0.7334425
24	0x3f557a9a	0.833902
25	0x3f4139ee	0.7547902
26	0x3f803526	1.001622
27	0x3f418ae3	0.7560255
28	0x3f4ddbe7	0.8041367
29	0x3f3ff210	0.74978733
30	0x3f4e4ed6	0.80589044
31	0x3f368698	0.71299124

conv3.0.weight f4 [64, 32, 3, 3]
0	0xbd55a3df	-0.052158233
1	0x3c331669	0.010930636
2	0xbc8145e7	-0.015780402
3	0x3c2eaac1	0.010660828
4	0xbd18b609	-0.037282977
5	0xbd67da12	-0.056604452
6	0xbd073869	-0.03301278
7	0x3d3c1d6b	0.045926493
8	0xbd77be58	-0.06048426
9	0xbca531ee	-0.02016541
10	0x3d09824b	0.033571523
11	0xbcde7d41	-0.027159335
12	0xbc8b1fe9	-0.01698299
13	0xbd3ca909	-0.046059642
14	0xbd5c4aaa	-0.053782143
15	0xbc54a103	-0.012977841
16	0xbd704c6e	-0.05866664
17	0xbd3ca9ef	-0.0460605
18	0x3d2418df	0.04006278
19	0xbd08310d	-0.033249903
20	0xbc71b831	-0.014753387
21	0x3d1522c9	0.036410127
22	0xbb84ea9e	-0.004056289
23	0xbc2a2d6c	-0.010386806
24	0xbd190c23	-0.03736509
25	0x3d3b5896	0.04573878
26	0xbd6adfb3	-0.057342242
27	0x3d2a3e16	0.041563116
28	0xbd118f1e	-0.035536878
29	0xbcafb72d	-0.02144965
30	0x3c1970e1	0.009365291
31	0xbc3fe9e8	-0.011713482
32	0xbc3c0762	-0.01147637
33	0x3c123c3e	0.008925496
34	0x3d3155bc	0.043294653
35	0x3d00d88d	0.03145652
36	0xbd196f6b	-0.037459772
37	0xbbbea876	-0.005818422
38	0x3bd85fc8	0.006603215
39	0x3d49f34d	0.049304295
40	0xbd7a575c	-0.06111847
41	0xbd6de020	-0.05807507
42	0x3d405225	0.04695334
43	0xbc08acc8	-0.0083419755
44	0xbd6d3685	-0.057913322
45	0x3d5df5e4	0.054189578
46	0xbc035f35	-0.008018305
47	0xbca5eb32	-0.020253751
48	0x3cd2606a	0.02568074
49	0xbbb1ddab	-0.005428036
50	0x3a1b6945	0.0005928467
51	0xbd1da136	-0.03848382
52	0x3d53b56e	0.051686697
53	0xbd5f5406	-0.05452349
54	0xbd24a216	-0.04019364
55	0xbc325c3c	-0.010886248
56	0xbc54a5bb	-0.012978966
57	0x3d056006	0.03256228
58	0x3d1f9de9	0.038968954
59	0xbd2ce8e9	-0.042214308
60	0xbd131a5d	-0.035913814
61	0xbd119852	-0.035545655
62	0xbd3ab7ff	-0.04558563
63	0x3c8b6de4	0.017020173
64	0xbb9e67b4	-0.0048341397
65	0x3d58eb1d	0.052958596
66	0xbd1c95a7	-0.038228657
67	0x3d3925dd	0.045202125
68	0xbc3f8936	-0.0116904285
69	0xbaf8e336	-0.0018988613
70	0xbd519ae6	-0.051173113
71	0xbc89874d	-0.01678815
72	0xbd4ee2a3	-0.050509106
73	0xbd2ec3e7	-0.042667296
74	0xbce42f77	-0.027854664
75	0x3cc1f481	0.023676159
76	0x3d59b941	0.053155188
77	0xbcd8ab5a	-0.026448894
78	0xbc340602	-0.0109877605
79	0xbc0ac478	-0.008469693
80	0x3d37a0b0	0.044830978
81	0x3c2e35f4	0.010632981
82	0xbb5dee49	-0.0033863953
83	0xbcbdfec3	-0.023192769
84	0xbc3d8ccf	-0.011569216
85	0xbcc3a349	-0.023881571
86	0x3d2b8524	0.04187502
87	0x3d167e4b	0.036741536
88	0xbd10ef2e	-0.03538435
89	0x3d4f04dd	0.050541747
90	0xbcf880c2	-0.030334834
91	0xbd46b8c1	-0.04851604
92	0x3c702dc1	0.014659346
93	0xbd0a629f	-0.03378546
94	0xbb99e40f	-0.004696376
95	0xbcbbe0a6	-0.02293427
96	0x3c9972bc	0.018731467
97	0xbd715a6c	-0.058924124
98	0xbba11646	-0.0049159853
99	0xbbd6a8c1	-0.0065508788
100	0x3d1209ec	0.035653993
101	0xbd44931c	-0.047991857
102	0x3ba04996	0.0048915846
103	0x3d4edd07	0.050503757
104	0xbcf550da	-0.02994578
105	0xbcf4c6c0	-0.029879928
106	0x3d35bf69	0.044371996
107	0xbd237906	-0.03991034
108	0x3d0c45c4	0.03424622
109	0x3d02d849	0.031944547
110	0xbcce5e66	-0.025191497
111	0xbd0a213f	-0.033723112
112	0xbd1304a2	-0.03589309
113	0x3ce13075	0.027488926
114	0xbc471013	-0.0121498285
115	0xbd71dc67	-0.059048083
116	0xbd30652a	-0.043065228
117	0xbd044cfd	-0.032299984
118	0x3ba8ffa8	0.0051574297
119	0xbd314b49	-0.04328469
120	0x3d1c55d0	0.038167775
121	0xbcf6e5b4	-0.030138828
122	0xbd1f86f4	-0.03894706
123	0xbd2a5e9f	-0.041594144
124	0x39b44746	0.00034385378
125	0xbc8c6301	-0.017137052
126	0xbd5d1edf	-0.05398452
127	0x3cfc17d8	0.030773088
128	0x3d4e8b2e	0.0504257
129	0x3cfe0c34	0.031011678
130	0x3bb78f92	0.0056018317
131	0xbd3b3ff7	-0.0457153
132	0x3cc5f0b5	0.02416263
133	0xbd1f716f	-0.038926538
134	0x3d61edf7	0.05515858
135	0x3d30698a	0.0430694
136	0x3d2b54b8	0.04182884
137	0xbd1b7e47	-0.037962224
138	0x3c88be50	0.01669231
139	0x3d5da866	0.054115675
140	0xbc25235e	-0.010079233
141	0xbd205113	-0.03913982
142	0xbba82ec0	-0.005132526
143	0xbb0d002e	-0.0021515
144	0xbd5c0d39	-0.053723548
145	0xbd775a78	-0.060389012
146	0xbd400997	-0.046884146
147	0xbbaee535	-0.005337382
148	0xbbaf32a3	-0.0053466125
149	0xbc65082a	-0.013978997
150	0xbb5636d0	-0.003268648
151	0x3c79c58e	0.015244855
152	0xbd01e54c	-0.031712815
153	0xbc22f53c	-0.009946164
154	0x3d4e079b	0.050300222
155	0x3d1c0578	0.038091153
156	0xbd59d8e9	-0.053185377
157	0xbd573447	-0.05254009
158	0x3ca8c3e5	0.020601222
159	0xbcba413b	-0.022736182
160	0x3d217c1e	0.039425008
161	0xbd70d2cb	-0.058794778
162	0x3ca85f9c	0.020553403
163	0x3d1ddd82	0.038541324
164	0x3d244c3a	0.040111758
165	0xbbf3f6e9	-0.0074452055
166	0x3bd49023	0.006486909
167	0x3d360a2a	0.044443287
168	0x3d388d17	0.04505643
169	0xbc8a54c5	-0.016886124
170	0xbd33d6f9	-0.043906186
171	0x3c424f04	0.011859659
172	0xbd492134	-0.04910393
173	0xbc1fed18	-0.009761117
174	0xbbb9b739	-0.005667594
175	0x3c813cac	0.015776
176	0x3bc595d2	0.006029823
177	0xbcf36554	-0.029711403
178	0x3c70a09a	0.014686728
179	0x3c1ea262	0.00968227
180	0x3d38e893	0.045143675
181	0x3c4e600a	0.01259614
182	0xbd53e2ba	-0.051729895
183	0xbcc6ba41	-0.024258735
184	0x3ca3ddaa	0.020003159
185	0xbc58179b	-0.013189222
186	0xbcc40dad	-0.023932302
187	0x3cc1dc6a	0.023664672
188	0x3d0e4809	0.034736667
189	0x3bc0d563	0.0058848127
190	0x3d054286	0.032534145
191	0xbd3706a8	-0.044684082
192	0x3d428a88	0.047495395
193	0x3cb76021	0.022384705
194	0x3d2f095c	0.042733535
195	0x3d5fad4d	0.054608632
196	0xbd46da9a	-0.04854832
197	0x3d54f95f	0.05199563
198	0xbd435733	-0.04769058
199	0xbc89bc60	-0.016813457
200	0xbb5f5f6e	-0.003408398
201	0xbcaf8e34	-0.021430112
202	0xbd3b4c62	-0.04572714
203	0x3cced60a	0.025248546
204	0x3d0eed2e	0.03489416
205	0x3cd28120	0.025696337
206	0xbbec5b3b	-0.007213024
207	0xbc4c1f8e	-0.012458695
208	0xbd74caae	-0.059763603
209	0xbd521a65	-0.051294703
210	0xbc8eaa8f	-0.017415313
211	0xbd7c57c6	-0.061607145
212	0xbcced209	-0.025246637
213	0xbd4d9fba	-0.050201155
214	0x3b7268d4	0.0036988752
215	0xbd4e10db	-0.050309043
216	0xbba57762	-0.005049632
217	0x3d16c5ba	0.03680966
218	0x3d00d29b	0.03145085
219	0x3c7fdfac	0.015617292
220	0x3b9a17c9	0.0047025424
221	0xbbd5fddc	-0.0065305065
222	0x3c6c9f5e	0.014442293
223	0x3d05d746	0.032676004
224	0xbd0cda17	-0.034387674
225	0xbc59ad05	-0.01328588
226	0xbd10f6db	-0.03539167
227	0x3ceb232c	0.028703295
228	0x3cea6e28	0.02861698
229	0xbd4c6605	-0.04990198
230	0xbd1c7084	-0.03819324
231	0x3d01a0bd	0.031647433
232	0x3c088bc5	0.008334105
233	0x3c3eb0e3	0.011638853
234	0xbb28eff0	-0.002577778
235	0xbd36a673	-0.044592332
236	0xbc8496eb	-0.016185245
237	0xbd227abc	-0.03966783
238	0xbd66c16b	-0.0563368
239	0x3cd86da4	0.026419468
240	0xbc9e485d	-0.019321615
241	0x3c2c02d4	0.010498721
242	0xbc1e0f77	-0.009647242
243	0xbcb84141	-0.022492053
244	0xbd2f8d21	-0.0428592
245	0xbd694358	-0.05694899
246	0x3d40dfa3	0.047088277
247	0xbc331b1c	-0.010931756
248	0x3d54f56a	0.051991858
249	0x3d4888a0	0.04895842
250	0x3ca65a97	0.020306868
251	0x3d0e983c	0.03481315
252	0xbc00419e	-0.007828144
253	0xbcac8909	-0.021061437
254	0x3d08b79a	0.03337822
255	0x3bb78fa6	0.005601841

conv3.0.bias f4 [64]
0	0x3c5dcc04	0.013537411
1	0xbd132f8b	-0.035934012
2	0x3c2d4590	0.010575667
3	0xbd702742	-0.05863119
4	0xbd3bdb41	-0.045863394
5	0x3d209547	0.039204862
6	0x3d6d4277	0.057924714
7	0x3caea345	0.021318087
8	0xbd244f76	-0.040114842
9	0x3cee9166	0.029122066
10	0xbd000f2b	-0.031264465
11	0xbcff8161	-0.031189622
12	0xb90682d5	-0.00012827975
13	0x3d5845d7	0.05280098
14	0x3ca195f0	0.019724816
15	0x3d16de5d	0.036833156
16	0x3c94ad7e	0.018149134
17	0x3d68e296	0.056856714
18	0x3d481a44	0.048853174
19	0x3d313a6b	0.043268602
20	0xbd1558be	-0.036461584
21	0x3d1d5af0	0.038416803
22	0x3b65ecaa	0.003508369
23	0xbb90e4ee	-0.004421822
24	0x3c5a0f73	0.013309347
25	0xbd3bd349	-0.045855794
26	0xbc8bdf28	-0.017074183
27	0xbcb23ac8	-0.021756545
28	0x3c7b594b	0.015341113
29	0xbd3cb17c	-0.0460677
30	0xbd65dd8e	-0.056119494
31	0xbc9fef89	-0.019523399
32	0x3ca17d94	0.0197132
33	0xbcd6b387	-0.026208652
34	0x3d2efc11	0.042720858
35	0x3c5e97c5	0.013585989
36	0x3c37d7a3	0.011220845
37	0x3cd340d2	0.025787745
38	0xbb83b073	-0.004018837
39	0xbc84625f	-0.016160188
40	0x3d2ee6fe	0.04270076
41	0xbac40d20	-0.0014957525
42	0xbb8f8e75	-0.004380996
43	0xbd1c532f	-0.038165268
44	0x3d4d7f57	0.05017027
45	0x3d279885	0.04091694
46	0x3d39845d	0.045292247
47	0xbd3801e7	-0.04492369
48	0x3d569a68	0.052393347
49	0xbc552501	-0.013009311
50	0xbc5c66c1	-0.013452233
51	0x3bd9f917	0.0066520083
52	0xbd64953d	-0.055806387
53	0x3c7ab256	0.015301308
54	0x3c808bf7	0.01569174
55	0xbcb0df0b	-0.02159073
56	0x3b36008c	0.0027771322
57	0x3c0db686	0.008649474
58	0xbd215719	-0.039389703
59	0x3b8a2509	0.0042158407
60	0xbcadbcb5	-0.021208147
61	0x3c2a0496	0.01037707
62	0x3d07b138	0.033127993
63	0xbcac2118	-0.021011874

conv3.1.weight f4 [64]
0	0x3f80731c	1.0035129
1	0x3f7f4de8	0.9972825
2	0x3f7f541e	0.9973773
3	0x3f804f0b	1.0024122
4	0x3f7f2927	0.9967217
5	0x3f7f5422	0.9973775
6	0x3f802608	1.0011606
7	0x3f7f21c6	0.9966091
8	0x3f7f3c21	0.99701124
9	0x3f7f4f56	0.9973043
10	0x3f805863	1.0026973
11	0x3f804326	1.0020492
12	0x3f7f25e9	0.9966722
13	0x3f7f5a66	0.9974731
14	0x3f7f4e6e	0.9972905
15	0x3f7f4efc	0.99729896
16	0x3f802c46	1.0013511
17	0x3f7f7f4a	0.998036
18	0x3f7f0385	0.99614745
19	0x3f7f8804	0.9981692
20	0x3f80678b	1.0031599
21	0x3f7f4a29	0.99722534
22	0x3f7fc3a2	0.99907887
23	0x3f8045ff	1.0021361
24	0x3f8039b0	1.0017605
25	0x3f80591f	1.0027198
26	0x3f7f8b5f	0.9982204
27	0x3f7f2fa7	0.99682087
28	0x3f804b11	1.0022908
29	0x3f7f55e5	0.9974044
30	0x3f7fb455	0.9988454
31	0x3f80731a	1.0035126
32	0x3f80261d	1.0011631
33	0x3f7f6e9f	0.9977817
34	0x3f7f0741	0.99620444
35	0x3f8033b4	1.0015779
36	0x3f7f679f	0.9976749
37	0x3f7f56da	0.997419
38	0x3f8034a6	1.0016067
39	0x3f8047c9	1.0021907
40	0x3f7f4029	0.99707276
41	0x3f7f327f	0.99686426
42	0x3f7f8445	0.998112
43	0x3f8055b3	1.0026153
44	0x3f805806	1.0026863
45	0x3f7f413c	0.99708915
46	0x3f805eef	1.0028971
47	0x3f7fcef4	0.9992516
48	0x3f804810	1.0021992
49	0x3f802b24	1.0013165
50	0x3f7fc212	0.999055
51	0x3f805141	1.0024797
52	0x3f7fe9f7	0.9996638
53	0x3f807e4a	1.003854
54	0x3f805856	1.0026958
55	0x3f8064b5	1.0030733
56	0x3f805a9b	1.002765
57	0x3f7f5f9b	0.9975526
58	0x3f80645d	1.0030628
59	0x3f7f5acc	0.9974792
60	0x3f803059	1.0014755
61	0x3f7f6493	0.9976284
62	0x3f804ee3	1.0024074
63	0x3f805e24	1.002873

conv3.1.bias f4 [64]
0	0x3b6b2fe4	0.00358867
1	0xbb229106	-0.002480568
2	0xb99b13ee	-0.00029578753
3	0x39eb07ec	0.00044828595
4	0xba8882f6	-0.0010415006
5	0xbaba6d40	-0.0014223233
6	0xbae84e94	-0.0017723613
7	0xbb4781c0	-0.0030442327
8	0xba0db1f8	-0.00054052426
9	0xbb34a3b1	-0.0027563388
10	0x39791423	0.00023753992
11	0x3ad0dace	0.001593435
12	0xb9bf4318	-0.00036480348
13	0xb9e82cf3	-0.00044283978
14	0x39ff37f0	0.00048679067
15	0x3abba886	0.0014317192
16	0xb7be4560	-2.268207e-05
17	0x3b307779	0.002692668
18	0xbb765591	-0.0037587623
19	0xbad21140	-0.0016026869
20	0x3b0aa17f	0.0021153388
21	0x3b70ede5	0.003676289
22	0xbab00ed0	-0.0013432149
23	0xba6b02df	-0.00089649664
24	0xba07d79e	-0.0005181971
25	0x3abca047	0.0014391028
26	0x3b7dd812	0.0038733524
27	0x3a8a96ae	0.001057347
28	0xba011d87	-0.00049253594
29	0x3abd3804	0.001443625
30	0xbb34a30e	-0.0027563008
31	0x3b4844e0	0.003055863
32	0xba3d0bf9	-0.0007211562
33	0xbb7f9496	-0.0038998476
34	0xbb80114c	-0.003908312
35	0x36fd7c80	7.5544813e-06
36	0x3b194d4b	0.0023392017
37	0xbb0ca2d6	-0.0021459362
38	0xbb7856f6	-0.003789363
39	0xbae475ae	-0.0017430091
40	0xbabff087	-0.0014643826
41	0xbb7ac6f3	-0.0038265556
42	0x3a359018	0.00069260737
43	0xbb61672f	-0.0034393778
44	0xbb8266b4	-0.0039795283
45	0x3a54ddcc	0.00081202085
46	0x3af7017b	0.0018845046
47	0x3a5a2edf	0.00083230244
48	0xb943ccb8	-0.00018672913
49	0xbb73723d	-0.0037146949
50	0x3aa1b08a	0.0012335938
51	0xbb3b2ae2	-0.0028559496
52	0xb93e259d	-0.00018133824
53	0xb7c4cdc8	-2.3460845e-05
54	0x3a884a15	0.0010398055
55	0x3b6a7902	0.0035777693
56	0xbb0fdee8	-0.002195293
57	0x39b85813	0.00035160835
58	0x3a193ea7	0.0005845823
59	0x3a9dd2de	0.0012040993
60	0x3af6d16f	0.0018830727
61	0xba47e595	-0.0007625458
62	0xba8f3f1c	-0.0010928842
63	0xb950bed4	-0.00019907515

conv3.1.running_mean f4 [64]
0	0xbddd45a8	-0.108043015
1	0xbd9a1937	-0.075243406
2	0xbdaffe76	-0.085934564
3	0x3d349751	0.04408962
4	0xbd0e682b	-0.03476731
5	0x3c02aaa7	0.007975257
6	0x3caad150	0.020851761
7	0xbcf8ea6a	-0.030385215
8	0xbd982741	-0.07429362
9	0xbc5a9f4f	-0.013343646
10	0xbd7c40ba	-0.061585166
11	0x3bda3a92	0.006659814
12	0xbd090548	-0.033452302
13	0x3d480fd5	0.048843224
14	0x3c95bc55	0.01827828
15	0x3d031609	0.032003436
16	0xbcbdfbe6	-0.023191404
17	0x3d6081c6	0.05481126
18	0xbd10966d	-0.035299707
19	0xbc6f8090	-0.014618054
20	0x3cfaf4dd	0.030634338
21	0x3cfce6fb	0.030871859
22	0xbbde9230	-0.0067923293
23	0xbaf57b14	-0.0018728697
24	0xbc1969c3	-0.009363594
25	0x3d121980	0.03566885
26	0x3cb08f56	0.021552723
27	0xbd83c79b	-0.06434556
28	0x3d1b1d66	0.037869833
29	0xbcec9400	-0.028879166
30	0x3de07e24	0.109615594
31	0x3d3a99ba	0.04555676
32	0x3d7aa05e	0.061188094
33	0xbc44304b	-0.011974405
34	0x3d96b523	0.07358768
35	0x3c55a776	0.013040414
36	0x3db1ef9d	0.08688281
37	0xbdc0bbd2	-0.09410824
38	0x3d42578d	0.047446776
39	0xbd41d103	-0.04731847
40	0xbd8b33c6	-0.067969844
41	0xbb790665	-0.0037998196
42	0x3d1c8e80	0.038221836
43	0x3d000d7e	0.031262867
44	0x3db86d79	0.09005255
45	0xbcb08da6	-0.021551918
46	0x3d7854a8	0.06062761
47	0xbd214486	-0.03937199
48	0x3d5220ee	0.051300935
49	0x3d20cd1a	0.0392581
50	0x3cbe3fc6	0.023223769
51	0x3dcf1c04	0.101127654
52	0xbdb4e7c4	-0.08833268
53	0x3be318cb	0.006930446
54	0x3ce8f548	0.028437272
55	0x3c76be56	0.015060028
56	0x3c562f69	0.013072827
57	0xbcb0cc6e	-0.021581855
58	0xbcd6c511	-0.026217015
59	0xbd41e1b6	-0.047334395
60	0xbdd482a8	-0.10376483
61	0x3d6a0bab	0.057140034
62	0x3da25e62	0.07928158
63	0x3bbb3fed	0.0057144077

conv3.1.running_var f4 [64]
0	0x3f91ede8	1.1400728
1	0x3f4b7937	0.79481834
2	0x3f692cc4	0.9108393
3	0x3f481489	0.78156334
4	0x3f3e851e	0.7442187
5	0x3f3f6fdc	0.7478006
6	0x3f3e5722	0.74351704
7	0x3f38a776	0.72130525
8	0x3f4e2e60	0.8053951
9	0x3f37e845	0.7183879
10	0x3f4fd775	0.81188136
11	0x3f458914	0.7716229
12	0x3f417354	0.755666
13	0x3f4037b4	0.75084996
14	0x3f32a990	0.6978998
15	0x3f4d0528	0.8008599
16	0x3f3aba1d	0.72940236
17	0x3f485c12	0.7826549
18	0x3f39830f	0.72465605
19	0x3f340411	0.70318705
20	0x3f43040f	0.7617807
21	0x3f4696f3	0.7757408
22	0x3f32f39b	0.6990296
23	0x3f3cd9c3	0.7376978
24	0x3f3a39e7	0.727446
25	0x3f5ceb52	0.8629657
26	0x3f683e50	0.9072008
27	0x3f4f2207	0.80911297
28	0x3f44eddd	0.7692545
29	0x3f49227c	0.78568244
30	0x3f8493a6	1.0357559
31	0x3f3cd47b	0.7376172
32	0x3f3e140c	0.7424934
33	0x3f3b99e9	0.73281723
34	0x3f48b14c	0.78395534
35	0x3f31274f	0.69200605
36	0x3f6f1180	0.9338608
37	0x3f750709	0.9571386
38	0x3f4cb606	0.79965246
39	0x3f3f9c25	0.7484763
40	0x3f4b6093	0.79444236
41	0x3f39aede	0.7253245
42	0x3f3b3531	0.7312804
43	0x3f48df54	0.7846577
44	0x3f7dcff6	0.9914545
45	0x3f4d14dc	0.80109954
46	0x3f39e44c	0.7261398
47	0x3f4157d0	0.75524616
48	0x3f493b46	0.7860607
49	0x3f4de91c	0.8043382
50	0x3f351080	0.707283
51	0x3f5c180c	0.8597419
52	0x3f66cee0	0.90159416
53	0x3f3ae74f	0.730092
54	0x3f4465b4	0.76717687
55	0x3f4942bb	0.7861745
56	0x3f4b8d03	0.7951204
57	0x3f5efd8c	0.8710563
58	0x3f380f31	0.7189818
59	0x3f4ad196	0.7922605
60	0x3f88c5b7	1.0685338
61	0x3f36e007	0.7143559
62	0x3f65535d	0.8958033
63	0x3f40abab	0.75261945

conv4.0.weight f4 [128, 64, 3, 3]
0	0xbbd36d25	-0.00645222
1	0xbc7cd340	-0.015431225
2	0xbc89b7e1	-0.016811313
3	0x3c86148c	0.01636722
4	0x3b3ce605	0.0028823626
5	0xbd141ec8	-0.036162168
6	0xbbc39f51	-0.0059699197
7	0xbcd68d3d	-0.026190395
8	0x3d0e5923	0.034752976
9	0x3c349726	0.011022365
10	0xbd1a87d6	-0.0377272
11	0xbd06ff5a	-0.032958366
12	0x3b1c2e79	0.002383141
13	0x3c30a468	0.010781385
14	0xbc1c45c2	-0.009538116
15	0x3bca383d	0.006171255
16	0x3c076c53	0.008265573
17	0x3d1f5440	0.038898706
18	0x3ca886c4	0.020572074
19	0xbd00fbc7	-0.031490114
20	0xbbf854f9	-0.007578489
21	0xbce07a23	-0.02740199
22	0xbc8c5c1c	-0.017133765
23	0xbbe403ee	-0.0069584763
24	0x3d19d869	0.0375599
25	0x3c0c1423	0.008549723
26	0xbd204abd	-0.039133776
27	0xbc9920ec	-0.018692456
28	0x3d32fe56	0.043699585
29	0xbccd0d2b	-0.025030693
30	0xbc9a6c1d	-0.01885038
31	0xbcf6cf26	-0.030128073
32	0xbc8540e7	-0.0162663
33	0xbd0dd35e	-0.034625404
34	0x3c9da981	0.019245865
35	0x3cca4326	0.024690222
36	0x3d1727b7	0.03690311
37	0xbcd0b8d5	-0.02547876
38	0x3cfb9ff0	0.030715913
39	0xbc58a044	-0.013221804
40	0x3d19e86e	0.037575178
41	0x3c8bb265	0.017052839
42	0xbc35e76f	-0.011102541
43	0xbc70d8ed	-0.014700157
44	0xbbf7b459	-0.007559341
45	0xbc987b4e	-0.018613484
46	0x3d0dc978	0.034615964
47	0xbb2a6a56	-0.0026003323
48	0xbcaa22d9	-0.02076857
49	0x3d0e7003	0.03477479
50	0x3c67f052	0.014156418
51	0xbd336d6d	-0.04380553
52	0xbce52500	-0.027971745
53	0x3cc53aee	0.024075951
54	0xbd0501cd	-0.03247242
55	0x36824400	3.882218e-06
56	0xbc673fa7	-0.014114297
57	0xbcdd95d1	-0.027048977
58	0x3cf54185	0.029938469
59	0x3c368e8e	0.011142386
60	0xbc5b513f	-0.01338607
61	0xbce6be20	-0.02816683
62	0xbc43a869	-0.011942008
63	0xbb96b1d5	-0.004598836
64	0x3c802d05	0.015646467
65	0xbb128e1a	-0.002236253
66	0x3d13cb94	0.03608282
67	0xbd11cd44	-0.035596147
68	0x3c8cdcbb	0.017195096
69	0x3c7a6e1e	0.015285043
70	0xbb0d45d4	-0.0021556513
71	0xbca7260f	-0.02040389
72	0xbcff055a	-0.031130482
73	0x3d1a2327	0.03763118
74	0x3bc479aa	0.005995949
75	0xbc305201	-0.010761739
76	0x3cf02dc6	0.029318701
77	0x3cf2608e	0.029587056
78	0x3d046332	0.032321163
79	0xbd0371f3	-0.032091092
80	0xbc72fb27	-0.014830387
81	0xbb624837	-0.0034527907
82	0x3c8e0431	0.017335983
83	0xbc8f1168	-0.017464355
84	0x3d16fba5	0.03686108
85	0xbc9cc32e	-0.019136038
86	0x3d3274df	0.04356849
87	0xbd07dd03	-0.033169758
88	0xbc45ccf9	-0.012072795
89	0x3d00d34d	0.031451512
90	0xbc2e7c8d	-0.010649812
91	0xbbdf39f5	-0.006812329
92	0xbc805c1e	-0.015668925
93	0x3d21438b	0.039371055
94	0xbc1011ce	-0.0087933075
95	0x3c0e0cdd	0.008670059
96	0x3bf89b8c	0.007586902
97	0x3ceb8ce7	0.02875371
98	0xbb1139b2	-0.0022159633
99	0x3ab4bae1	0.0013788604
100	0xbcb94b7e	-0.022619005
101	0x3cd1095f	0.025517164
102	0xbbe227b4	-0.0069017056
103	0xbca91155	-0.020638147
104	0x3d25c75b	0.040473323
105	0xbb2e6c74	-0.0026614936
106	0xbc1b5152	-0.0094798375
107	0x3c7f4c49	0.015582153
108	0x3c1da575	0.009621968
109	0xbc4dfb38	-0.012572102
110	0x3d04ec07	0.032451656
111	0xbccf12ad	-0.02527746
112	0xbc40505c	-0.011737909
113	0xbd21de7a	-0.03951881
114	0xbcf07820	-0.029354155
115	0x3d1a0f11	0.037612025
116	0xbc835692	-0.01603249
117	0x3d20f52d	0.039296318
118	0x3d19a970	0.037515104
119	0x3d024d61	0.031812076
120	0xbcf0b265	-0.02938194
121	0xbd1c17fe	-0.03810882
122	0x3c24b118	0.010051988
123	0x3d04b7e3	0.03240193
124	0x3ced9d2f	0.029005615
125	0x3c5a8e44	0.013339583
126	0xbca85ed9	-0.02055304
127	0xbccc70a9	-0.024956064
128	0xbcb994d1	-0.022653969
129	0xbd1952e1	-0.037432555
130	0x3cb78925	0.022404263
131	0x3cc9ad8e	0.02461889
132	0xbd0b9f68	-0.03408757
133	0xbbe6f8aa	-0.007048686
134	0xbd0214e3	-0.0317582
135	0x3d22cd23	0.039746415
136	0x3ba7738b	0.0051102093
137	0x3d04a0ce	0.032379918
138	0x3cf50849	0.029911177
139	0x3d11ea45	0.035623807
140	0xbc3f91ec	-0.011692505
141	0x3c42bac4	0.011885349
142	0xbd0506ed	-0.032477308
143	0xbb9632d5	-0.0045836964
144	0x3d268c81	0.04066134
145	0x3c993c62	0.01870555
146	0x3d2a5781	0.041587356
147	0x3d142761	0.036170367
148	0xbd026b32	-0.03184051
149	0xbd063cb8	-0.03277275
150	0x3d2e6ec4	0.042586103
151	0xbc1f9d88	-0.009742148
152	0xbb9e776d	-0.004836014
153	0xbcd537b6	-0.026027542
154	0x3c093c90	0.008376256
155	0x3cae3735	0.02126656
156	0x3ce0fbae	0.02746376
157	0x3c3b4114	0.01142909
158	0x3d03adb1	0.032148067
159	0x3cf81fd3	0.030288612
160	0xbc6c843c	-0.014435824
161	0x3cde444a	0.027132172
162	0x3c9dc7c4	0.019260295
163	0x3ca106ae	0.019656505
164	0x3c5f49b3	0.013628411
165	0xbce69f70	-0.028152198
166	0xbb554723	-0.0032543621
167	0xbcb1ee55	-0.02172009
168	0x3bd6ccfc	0.0065551978
169	0x3c4d6b6c	0.012537818
170	0x3ce3ed53	0.027823126
171	0xbc98a0b2	-0.018631313
172	0x3d0caa5a	0.034342147
173	0xbc27df9c	-0.010246184
174	0xbd2955f4	-0.041341737
175	0xbc3c25de	-0.011483638
176	0x3a446c41	0.0007492938
177	0x3ca319e5	0.019909808
178	0xbc5de3ce	-0.013543082
179	0x3c4d139f	0.012516885
180	0x3c8025d7	0.015643043
181	0xbc6c6f04	-0.014430765
182	0x3b83d7e9	0.004023541
183	0xbc40fa8e	-0.011778487
184	0xbcfc2cbb	-0.030783048
185	0xbd1c96e3	-0.038229834
186	0x3a9f60df	0.0012159607
187	0xbcb63ccf	-0.022245793
188	0x3d03d40e	0.032184653
189	0xbd30f406	-0.04320147
190	0xbcee2a44	-0.029072888
191	0x3ccd9845	0.025097022
192	0xbcdf14ad	-0.027231539
193	0x3cf6359e	0.030054864
194	0xbcf4053f	-0.029787658
195	0xbcc674d3	-0.024225628
196	0xbca7cad1	-0.020482453
197	0x3cb7d72f	0.022441475
198	0x3d06a79b	0.032874685
199	0xbd00db42	-0.0314591
200	0xbd09239e	-0.033481233
201	0x3cf19ccf	0.029493717
202	0xbccae808	-0.024768844
203	0x3c1efbf1	0.009703622
204	0x3cfcbeac	0.030852638
205	0xbbba4139	-0.0056840447
206	0x3b5c9a5c	0.0033661341
207	0xbbacdb3a	-0.0052751573
208	0xbb11d5d1	-0.0022252689
209	0x3d2094fe	0.03920459
210	0xbcd592fa	-0.02607106
211	0xbce0944a	-0.02741446
212	0xbd076de8	-0.0330638
213	0xbb8cce40	-0.004297048
214	0xbcf43154	-0.029808678
215	0x3d0bba54	0.034113243
216	0xbc2ecfaf	-0.010669633
217	0xbc889808	-0.016674057
218	0x3cafe1f3	0.021470046
219	0x3cb6803a	0.02227794
220	0x3c4f5d03	0.012656453
221	0xbc8ddaf1	-0.017316313
222	0x3c4b447b	0.012406464
223	0x3cc6440e	0.024202373
224	0x3d3382c1	0.04382587
225	0xbd1acb10	-0.03779131
226	0xbd08dc81	-0.033413414
227	0xbcbe418b	-0.023224613
228	0x3b8abe48	0.004234109
229	0xbcd3aefd	-0.025840277
230	0xbc9d8fb2	-0.019233558
231	0x3ca7eb1a	0.020497847
232	0x3d17736f	0.03697532
233	0xbcca5ef3	-0.024703478
234	0x3d134727	0.035956528
235	0x3d13ad87	0.03605416
236	0x3c6e8278	0.014557473
237	0x3c812b1d	0.015767628
238	0xbcc483a5	-0.023988554
239	0x3c592b32	0.0132549275
240	0xbd25922a	-0.040422596
241	0x3d1d04da	0.038334705
242	0xbb9d62f6	-0.004803057
243	0x3cbeb338	0.023278818
244	0xbb959887	-0.004565302
245	0x3d14390b	0.036187213
246	0x3ac6483c	0.0015127729
247	0x3cc3cd70	0.023901671
248	0xbc4ac2b6	-0.012375524
249	0xbcbdd336	-0.023172002
250	0xbc5cffd5	-0.0134887295
251	0xbc6328a6	-0.013864672
252	0x3cb1f5f6	0.021723729
253	0x3ccd2930	0.025044054
254	0x3d251282	0.040300854
255	0xbc0b9c59	-0.008521163

conv4.0.bias f4 [128]
0	0x3c91c059	0.017791914
1	0x3ce3cf37	0.027808769
2	0x3d26b136	0.040696345
3	0xbbd1533b	-0.0063880957
4	0x3c137c1f	0.009001761
5	0xbc424bf7	-0.011858932
6	0xbccf4f6c	-0.025306426
7	0xbce906ff	-0.028445719
8	0xbb611828	-0.0034346674
9	0xbd1edfc8	-0.038787633
10	0x3d0c28cc	0.034218594
11	0xbc491aac	-0.0122744255
12	0xbd26dcd7	-0.040737953
13	0xbb4bf93f	-0.0031123904
14	0x3c356785	0.011072044
15	0x3c077d2b	0.008269588
16	0xbcc9f9cf	-0.02465525
17	0x3cd39445	0.025827536
18	0x3caa7317	0.020806832
19	0xbcc329c2	-0.023823623
20	0x3d28fa3b	0.041254263
21	0xbd269a20	-0.04067433
22	0xbc9a545d	-0.018839056
23	0xbc84d347	-0.016214026
24	0x3c578141	0.013153375
25	0xbcb962ce	-0.022630122
26	0xbc7eaf33	-0.0155447
27	0xbd011c09	-0.031520877
28	0xba113d6f	-0.00055404654
29	0x3ca83559	0.02053325
30	0x3ccd60ee	0.025070634
31	0x3bb2983f	0.005450278
32	0xbbab6a49	-0.005231176
33	0xbcc5bea1	-0.02413875
34	0xbca1a855	-0.019733587
35	0xbc88bfe4	-0.016693063
36	0xbcc87363	-0.024469083
37	0x3cc34e3a	0.023841012
38	0x3c993cf6	0.018705826
39	0xbb60d465	-0.0034306285
40	0xbc302774	-0.010751594
41	0x3b3381c8	0.0027390588
42	0xbd045cf1	-0.0323152
43	0xbd1335e3	-0.035940062
44	0x3be60474	0.007019574
45	0x3c124dd4	0.0089296885
46	0xbc656d94	-0.014003176
47	0x3ce78fe5	0.028266856
48	0xbcbb8c98	-0.022894189
49	0x3d1bfb36	0.03808137
50	0x3d24984e	0.04018431
51	0xba3fcdda	-0.0007316746
52	0x3ce61eef	0.028090922
53	0xbcbca961	-0.023029985
54	0xbb99f669	-0.004698564
55	0x3ccfd327	0.02536924
56	0x3d0552b1	0.032549564
57	0xbcecba3c	-0.028897397
58	0x3ab9adb3	0.0014166146
59	0xbd01fb33	-0.031733703
60	0xbc9a0151	-0.018799456
61	0x3d10fa26	0.03539481
62	0x3c54b9c8	0.012983747
63	0xbc36ad76	-0.011149755
64	0x3cd21421	0.025644364
65	0xbd0518e9	-0.03249446
66	0x3c986e20	0.0186072
67	0xbd0bced8	-0.03413281
68	0x3cf56a9a	0.029958058
69	0xbc457696	-0.012052199
70	0xbd1c00ea	-0.03808681
71	0xbd15dbdb	-0.036586624
72	0x3c607ca0	0.013701588
73	0xbbc686f7	-0.0060585695
74	0x3d1643c4	0.03668572
75	0xbcaafb5e	-0.020871814
76	0xbb73c540	-0.0037196428
77	0xbcb16b60	-0.021657646
78	0xbc03069e	-0.007997183
79	0x3cd36cbe	0.025808688
80	0xbcb74955	-0.022373835
81	0x3bc2e081	0.005947173
82	0xbd24f005	-0.040267963
83	0xbcf85f7c	-0.030318968
84	0xbc46df6e	-0.012138231
85	0x3c80961f	0.015696583
86	0x3a16496a	0.00057329854
87	0x3ca1d2e5	0.019753883
88	0x3cbb76d8	0.022883818
89	0xbc814a19	-0.015782403
90	0x3c48652a	0.012231151
91	0x3c271e84	0.010200147
92	0x3ae0651e	0.0017119979
93	0x3d14ec85	0.036358375
94	0x3cb9f260	0.022698581
95	0xbba54bcb	-0.0050444356
96	0x3ca0af0b	0.019614717
97	0x3cbc980f	0.023021726
98	0xbd24ebdd	-0.040264
99	0x3bb16e98	0.005414795
100	0x3d21f51b	0.03954039
101	0x3ca748ab	0.020420393
102	0xbbfb0c7e	-0.0076614013
103	0x3c95d7ad	0.018291319
104	0xbd160e8b	-0.036634963
105	0xbd007617	-0.03136262
106	0x3bfeba42	0.0077736685
107	0x3c4fd7eb	0.012685756
108	0xbd1f99d0	-0.038965046
109	0xbcc29df4	-0.023756959
110	0xbca82513	-0.02052549
111	0x3b6a0c29	0.0035712814
112	0x3ca598a5	0.020214388
113	0x3b2d7c7b	0.0026471901
114	0x3d1d31ac	0.03837745
115	0xbcc2490a	-0.023716468
116	0x3b918502	0.0044409046
117	0x3ca3ac0f	0.019979505
118	0x3ccc8a00	0.024968147
119	0x3cda7de8	0.026671365
120	0x3c1a33ff	0.009411811
121	0x3cb73f0d	0.022368932
122	0x3be6331c	0.0070251357
123	0x3ac59fc1	0.0015077518
124	0x3cc411a4	0.023934193
125	0x3d29c684	0.041449085
126	0x3c5eb5d6	0.013593158
127	0x3d15796f	0.03649276

conv4.1.weight f4 [128]
0	0x3f7efd9e	0.9960574
1	0x3f7f2ca8	0.99677515
2	0x3f801260	1.0005608
3	0x3f7f38ac	0.9969585
4	0x3f804fa1	1.0024301
5	0x3f804f45	1.0024191
6	0x3f7f5d5f	0.9975185
7	0x3f8050c8	1.0024652
8	0x3f801900	1.0007629
9	0x3f7fb817	0.99890274
10	0x3f7f3f66	0.99706113
11	0x3f804617	1.002139
12	0x3f805200	1.0025024
13	0x3f80811e	1.0039403
14	0x3f7f291e	0.99672115
15	0x3f804fe9	1.0024387
16	0x3f7fec81	0.9997025
17	0x3f80754e	1.0035799
18	0x3f804b42	1.0022967
19	0x3f7f9f93	0.99852866
20	0x3f7f18ae	0.99647033
21	0x3f7f0ef2	0.9963218
22	0x3f7f7f92	0.9980403
23	0x3f7f4bbe	0.9972495
24	0x3f7ff8e0	0.9998913
25	0x3f7ff1b1	0.99978167
26	0x3f802563	1.001141
27	0x3f7fac1c	0.99871993
28	0x3f7f47fd	0.9971922
29	0x3f804d01	1.00235
30	0x3f7f2418	0.9966445
31	0x3f7f6392	0.9976131
32	0x3f800898	1.0002623
33	0x3f8044c6	1.0020988
34	0x3f80088a	1.0002606
35	0x3f804fa9	1.002431
36	0x3f804b6b	1.0023016
37	0x3f7f1ceb	0.996535
38	0x3f7f1bb0	0.9965162
39	0x3f7fecf3	0.9997093
40	0x3f801cac	1.000875
41	0x3f7f92ef	0.9983358
42	0x3f7f8214	0.9980786
43	0x3f7f5e78	0.9975352
44	0x3f7f4c7c	0.9972608
45	0x3f8054c1	1.0025865
46	0x3f8045d1	1.0021306
47	0x3f8073b1	1.0035306
48	0x3f8002cc	1.0000854
49	0x3f80299f	1.0012702
50	0x3f804f04	1.0024114
51	0x3f7f5c2b	0.9975001
52	0x3f8054ff	1.0025939
53	0x3f7f2011	0.99658304
54	0x3f7f88cd	0.99818116
55	0x3f804b27	1.0022935
56	0x3f7f370a	0.9969336
57	0x3f801187	1.0005349
58	0x3f7f3aeb	0.99699277
59	0x3f804da7	1.0023698
60	0x3f80505c	1.0024524
61	0x3f7f6f66	0.99779356
62	0x3f7f4314	0.9971173
63	0x3f7f6957	0.9977011
64	0x3f7f5a1b	0.99746865
65	0x3f7f518c	0.99733806
66	0x3f8037dd	1.0017048
67	0x3f80425f	1.0020255
68	0x3f7f432d	0.9971188
69	0x3f804eb1	1.0024015
70	0x3f7f38ed	0.99696237
71	0x3f7f423f	0.9971046
72	0x3f804f41	1.0024186
73	0x3f7f4392	0.9971248
74	0x3f7f4715	0.9971784
75	0x3f7f9395	0.9983457
76	0x3f804146	1.001992
77	0x3f7f6528	0.9976373
78	0x3f804e72	1.002394
79	0x3f8052ea	1.0025303
80	0x3f805235	1.0025088
81	0x3f7f46c0	0.9971733
82	0x3f801ed6	1.000941
83	0x3f80424b	1.0020231
84	0x3f803de5	1.0018889
85	0x3f8011f9	1.0005485
86	0x3f7f6daa	0.9977671
87	0x3f7f2262	0.9966184
88	0x3f804351	1.0020543
89	0x3f7f4686	0.99716985
90	0x3f801898	1.0007505
91	0x3f7f31b5	0.9968522
92	0x3f7f5164	0.9973357
93	0x3f8050f3	1.0024704
94	0x3f7f7baa	0.9979807
95	0x3f7fe663	0.9996092
96	0x3f80477e	1.0021818
97	0x3f805567	1.0026063
98	0x3f803d17	1.0018643
99	0x3f804a72	1.0022719
100	0x3f7f5ba2	0.99749196
101	0x3f7f5f36	0.99754655
102	0x3f8050b0	1.0024624
103	0x3f7f0d89	0.9963003
104	0x3f7f4a00	0.9972229
105	0x3f8038b2	1.0017302
106	0x3f7f2360	0.9966335
107	0x3f7fa646	0.9986309
108	0x3f7fd87f	0.9993972
109	0x3f802eee	1.0014322
110	0x3f8050d9	1.0024673
111	0x3f7f2823	0.9967062
112	0x3f7ff212	0.99978745
113	0x3f804e92	1.0023978
114	0x3f804e77	1.0023946
115	0x3f7fa94d	0.9986771
116	0x3f804769	1.0021793
117	0x3f7f8194	0.99807096
118	0x3f7f59b8	0.99746275
119	0x3f7f65a1	0.9976445
120	0x3f7f57f0	0.99743557
121	0x3f8046c3	1.0021595
122	0x3f7f92bf	0.9983329
123	0x3f801a44	1.0008016
124	0x3f802a65	1.0012938
125	0x3f802e46	1.0014122
126	0x3f7f5248	0.99734926
127	0x3f7f5906	0.99745214

conv4.1.bias f4 [128]
0	0xbb8076af	-0.003920398
1	0xbb573d13	-0.00328428
2	0xb9c01de7	-0.00036643373
3	0xbb4bf6c0	-0.0031122416
4	0x3abad0cc	0.00142529
5	0x3940fdb4	0.00018405059
6	0x39c647e2	0.0003781906
7	0x3aa7bc40	0.0012797192
8	0xbb7ed857	-0.0038886273
9	0x3b4dba1c	0.0031391447
10	0xba07c4ac	-0.00051791477
11	0x394709c2	0.00018981754
12	0xbaa88396	-0.0012856598
13	0x3b7b8efb	0.0038384784
14	0xbb6aa76e	-0.0035805362
15	0x3af0c448	0.0018369043
16	0x3aa2faf6	0.0012434411
17	0x3b704535	0.0036662344
18	0xbb50ed76	-0.003187982
19	0x3b70b295	0.0036727537
20	0xbb6fe4d6	-0.0036604903
21	0x3b0fbfd1	0.00219344
22	0x3a2382f0	0.0006237468
23	0xba99aa23	-0.0011723678
24	0xbb7d4b5e	-0.0038649659
25	0xbb63321c	-0.0034667319
26	0xbb56e2a7	-0.0032788904
27	0xbb81480c	-0.0039453562
28	0xbb72aefb	-0.0037030566
29	0xba43b221	-0.0007465203
30	0xba1e45d4	-0.0006037627
31	0xbb57fca0	-0.0032956973
32	0xbb696b55	-0.0035616953
33	0xbb64f0c6	-0.0034933551
34	0xba3e1e4d	-0.000725244
35	0x3a3f5058	0.0007298044
36	0xbb6ae4fc	-0.0035842052
37	0xbb5da2d8	-0.0033818986
38	0xbb4afe1d	-0.0030974217
39	0x38dc29dc	0.000104982144
40	0x3b6276a0	0.003455557
41	0x3b8259f8	0.0039780103
42	0x3b7732dc	0.0037719524
43	0x38da7464	0.000104167295
44	0xbb40d5fc	-0.002942442
45	0x3b12f987	0.0022426562
46	0xba35f865	-0.0006941616
47	0x3b710c71	0.0036781097
48	0xb9329ae8	-0.0001703311
49	0x3ab270c9	0.0013613935
50	0x3a68ac5e	0.00088757824
51	0x3b545b36	0.0032402999
52	0x3b27aec1	0.002558634
53	0xbb629cff	-0.003457844
54	0x3b42a8ac	0.0029702587
55	0xbb78645a	-0.003790161
56	0x3aef0758	0.0018236442
57	0x3b666c46	0.003515975
58	0xbb7d31ab	-0.003863434
59	0xb9dc3fe2	-0.00042009266
60	0xba847f5c	-0.0010108757
61	0xbb067b56	-0.0020520291
62	0xbb6e3128	-0.0036345217
63	0x3a27b048	0.00063968124
64	0x3b75cdc1	0.0037506672
65	0xba8ea314	-0.0010882341
66	0xbb7c462e	-0.0038493979
67	0xbb03efc3	-0.0020131923
68	0xbb4b5dc3	-0.0031031228
69	0xba945a85	-0.0011318481
70	0xbb6823d4	-0.0035421746
71	0xba539680	-0.00080714375
72	0x3b0f1f99	0.0021838902
73	0xbb4e7ed5	-0.0031508703
74	0x3b39cbbd	0.0028350197
75	0xb9ca8290	-0.0003862572
76	0xbabd93c6	-0.0014463596
77	0xbb596a76	-0.0033175028
78	0x3b3c56db	0.0028738293
79	0x3b005709	0.0019583127
80	0xbb478f36	-0.003045035
81	0xbb685f51	-0.0035457204
82	0xb9ee733b	-0.0004548075
83	0xbb825ec5	-0.0039785826
84	0xba69ca5e	-0.00089183997
85	0x3b042c66	0.0020168065
86	0x3b6a7d14	0.0035780119
87	0xba318bf0	-0.00067728665
88	0x3af790de	0.0018887778
89	0xbb626640	-0.003454581
90	0x3b5fadb9	0.0034130646
91	0xb9ca473e	-0.00038581522
92	0xbb4668e5	-0.0030274924
93	0xbb3f4057	-0.0029182637
94	0xba225b93	-0.0006193455
95	0x3b500e94	0.003174697
96	0x3a27dd4b	0.00064035197
97	0xbb59e742	-0.0033249413
98	0x3a8166e4	0.0009872583
99	0xbb7ac05d	-0.003826163
100	0x3b36c884	0.0027890513
101	0x3a370fe8	0.0006983266
102	0xbb57551e	-0.003285713
103	0xbb20f0f0	-0.0024557672
104	0xbb2cbf50	-0.0026359148
105	0xbb7f3b5c	-0.0038945293
106	0x3a603c7e	0.0008553936
107	0x3b70432c	0.0036661131
108	0xbac1bb2d	-0.0014780514
109	0xbb8245ba	-0.003975597
110	0x3b687010	0.0035467185
111	0xb9adf86a	-0.00033182214
112	0x3aaf0f7f	0.0013356059
113	0xbb7107fe	-0.0036778445
114	0xba9c54ea	-0.0011927162
115	0x3b64a8bf	0.003489062
116	0xbaa2d24e	-0.0012422295
117	0x3b803eb6	0.0039137257
118	0xbb342137	-0.0027485618
119	0x3b4940f2	0.0030708876
120	0xbb275166	-0.0025530695
121	0xbb455ecb	-0.0030116315
122	0x3b7ae484	0.0038283179
123	0xb9baf1a4	-0.0003565672
124	0xb87aeffd	-5.982815e-05
125	0xba8417a2	-0.0010077844
126	0x3b53220e	0.0032216343
127	0x3abd4d76	0.0014442641
