artifact/02_12_2024_10_37_51/model_training_artifacts/model.pt (torch, 440907 bytes, 26 tensors)

conv1.0.weight f4 [16, 1, 3, 3]
0	0xbe78e8bd	-0.24307533
1	0x3d995db9	0.07488579
2	0xbe0d86a1	-0.13820888
3	0x3a81bf74	0.0009898976
4	0x3e841598	0.25797725
5	0xbd9d0272	-0.07666482
6	0xbe6e2d8e	-0.23259565
7	0xbe3a90fa	-0.18219367
8	0x3af4d084	0.0018677865
9	0xbe07fd81	-0.13280298
10	0x3e2d5dd2	0.16930321
11	0xbd97217c	-0.073794335
12	0xbea58d81	-0.3233452
13	0x3d439c1d	0.047756303
14	0xbdf93144	-0.121676
15	0xbdfaddae	-0.12249313
16	0x3e780f72	0.24224642
17	0xbe8738cf	-0.2641053
18	0xbcd19329	-0.025582867
19	0xbd043283	-0.032274734
20	0x3e10ba82	0.14133647
21	0x3e238bc7	0.1597129
22	0xbe60d356	-0.21955618
23	0x3e827f72	0.25487858
24	0xbe526319	-0.20545615
25	0xbe166e2f	-0.14690469
26	0xbe529198	-0.20563352
27	0xbe852b68	-0.2600968
28	0x3d367bab	0.044551533
29	0xbdb62968	-0.08894616
30	0x3e1dacd6	0.15397963
31	0xbea92478	-0.33035636
32	0x3e056ceb	0.1302983
33	0xbd5c6e35	-0.05381604
34	0x3d705f12	0.058684416
35	0x3e9fbb61	0.31197646
36	0x3def0e47	0.11672645
37	0xbdef738c	-0.11691961
38	0x3d3d5273	0.046221208
39	0x3e86bb78	0.26314902
40	0xbe072eb9	-0.13201417
41	0x3e22de85	0.15905197
42	0xbe260036	-0.16211018
43	0xbd3a8583	-0.045537483
44	0x3e02c804	0.12771612
45	0x3e848916	0.25885838
46	0xbe92230c	-0.28542364
47	0xbe64a969	-0.2233025
48	0x3e8787ae	0.26470703
49	0xbdffe069	-0.12493975
50	0xbe900e53	-0.2813593
51	0xbe8a55a6	-0.2701847
52	0x3ea1f3be	0.31631273
53	0x3e88a065	0.2668487
54	0xbd375f49	-0.044768605
55	0xbd9eb4fd	-0.077493645
56	0x3e2ffd37	0.17186438
57	0xbe06b64d	-0.1315548
58	0xbe8c1520	-0.27359867
59	0xbd98ed58	-0.07467145
60	0xbe848fd0	-0.2589097
61	0x3e5ae580	0.2137661
62	0x3e76cd42	0.24101737
63	0xbde16771	-0.11006058
64	0x3ea4c961	0.3218489
65	0xbd5547b6	-0.052070342
66	0xbd00a834	-0.03141041
67	0xbc9a9b25	-0.018872807
68	0xbe9bbcb5	-0.3041741
69	0xbe07dbc6	-0.1326743
70	0xbe04b7d3	-0.12960748
71	0x3da48dec	0.08034882
72	0x3e9c3eff	0.30516812
73	0xbdc64098	-0.09680289
74	0x3dbc53b5	0.09195653
75	0x3e4c7d81	0.19969751
76	0x3dd07cf1	0.10180081
77	0x3e52e549	0.20595278
78	0xbe9f0475	-0.31058088
79	0x3e1b3490	0.1515677
80	0xbdccd69e	-0.100018725
81	0x3e35d2d5	0.17756207
82	0x3d8b0866	0.06788711
83	0xbe891850	-0.2677636
84	0x3e835ea6	0.2565815
85	0x3cfffdde	0.031248983
86	0x3ea7d603	0.32780465
87	0x3e84d45d	0.2594327
88	0x3ea6a643	0.32548723
89	0xbde12753	-0.109938286
90	0x3e0d12b6	0.13776669
91	0xbb08a71c	-0.0020851558
92	0x3e46644e	0.193742
93	0x3e8dee1c	0.27720726
94	0xbe7020d8	-0.23450029
95	0xbe47990e	-0.1949198
96	0xbdf79c7f	-0.12090396
97	0x3e41b57b	0.18916886
98	0xbcd7adc4	-0.026327975
99	0x3d8bbcca	0.06823118
100	0x3da8c7a0	0.082412004
101	0x3dbf6ec8	0.09347302
102	0xbdea5e96	-0.11443822
103	0x3e692044	0.22766215
104	0xbe92f528	-0.28702664
105	0xbe3f3c90	-0.18675447
106	0xbe8b7e5e	-0.27244848
107	0xbe5b7b2e	-0.21433708
108	0xbe22fab3	-0.15915947
109	0x3e1b5d73	0.15172367
110	0x3e488977	0.19583689
111	0xbe249e43	-0.16075997
112	0xbe8aa9e1	-0.27082732
113	0xbe20db7a	-0.15708724
114	0xbda18b50	-0.078879
115	0xbd921ef1	-0.07134808
116	0xbe698a1f	-0.22806595
117	0xbea3ceaf	-0.31993625
118	0x3c715bd4	0.014731366
119	0xbdbb8e86	-0.091580436
120	0x3e305c1c	0.17222637
121	0x3e9dfa34	0.30854952
122	0x3ea7b120	0.32752323
123	0xbe533f6b	-0.20629661
124	0xbe274681	-0.16335489
125	0xbd6cb365	-0.05778827
126	0x3d8700c6	0.065919444
127	0xbd661d76	-0.05618044
128	0xbd71d8a8	-0.05904451
129	0x3e8b0655	0.27153268
130	0x3e4b2c56	0.19841132
131	0x3e60e979	0.21964063
132	0xbe328966	-0.17435226
133	0x3e431ba4	0.19053513
134	0xbe50b47d	-0.20381351
135	0x3e846837	0.2586076
136	0xbda7cd40	-0.08193445
137	0xbe827295	-0.25478044
138	0xbe3911b7	-0.18073164
139	0x3d23de67	0.04000702
140	0x3e957860	0.291934
141	0x3e42f54e	0.19038889
142	0xbd86617d	-0.06561563
143	0x3e9f6f0a	0.31139404

conv1.0.bias f4 [16]
0	0xbdf5a12b	-0.11993631
1	0xbea1daad	-0.3161215
2	0x3d59bb8f	0.053157385
3	0xbe39c95c	-0.18143219
4	0x3e98e589	0.2986262
5	0x3e6ddbc0	0.23228359
6	0x3e0c3856	0.13693365
7	0xbeaa89e8	-0.3330834
8	0x3c99c16a	0.018768985
9	0x3dfdf854	0.124008805
10	0x3e4faaa8	0.20279944
11	0xbc5138db	-0.012769903
12	0xbcfd30da	-0.030907083
13	0x3e8675e7	0.26261827
14	0xbd8c2631	-0.06843222
15	0x3e177cf6	0.14793763

conv1.1.weight f4 [16]
0	0x3f7f8556	0.9981283
1	0x3f7fdd32	0.9994689
2	0x3f80416e	1.0019968
3	0x3f803f5f	1.0019339
4	0x3f7fa12d	0.9985531
5	0x3f803c03	1.0018314
6	0x3f7f7f43	0.9980356
7	0x3f7f86b9	0.99814945
8	0x3f7f7ce4	0.9979994
9	0x3f7f9db5	0.99850017
10	0x3f802f29	1.0014392
11	0x3f7feb1e	0.99968135
12	0x3f8036f6	1.0016773
13	0x3f803bd8	1.0018263
14	0x3f7f8877	0.99817604
15	0x3f80104f	1.0004977

conv1.1.bias f4 [16]
0	0x39fb9266	0.00047983526
1	0xba01a4fd	-0.00049455446
2	0x3ad34932	0.0016119836
3	0x3b013971	0.0019718076
4	0xbb030123	-0.0019989691
5	0xbb02b345	-0.0019943279
6	0x39e5937a	0.00043788162
7	0x3adae342	0.0016699808
8	0x3aff9af6	0.0019501138
9	0x398cb6d2	0.00026839093
10	0xbb029935	-0.0019927744
11	0xb9fe78c8	-0.00048536644
12	0x39b9ccf4	0.00035438652
13	0xbac16b5e	-0.0014756729
14	0x39b8411a	0.0003514372
15	0xbb0286ff	-0.001991689

conv1.1.running_mean f4 [16]
0	0xc06f1546	-3.7356734
1	0xc0837c7e	-4.108947
2	0xc0015b6a	-2.0212045
3	0xbeb430b3	-0.35193405
4	0x3fed43a8	1.8536272
5	0xbf0c066e	-0.5469731
6	0xbfc2c704	-1.5216985
7	0xc02aa6d8	-2.6664333
8	0x4075fbb2	3.8434873
9	0x40eecf2d	7.46279
10	0x3fc44cca	1.5335934
11	0xc0877d8c	-4.2340755
12	0xc0b05380	-5.510193
13	0xbd917e5d	-0.0710418
14	0x40483a8a	3.128573
15	0x406237ea	3.5346627

conv1.1.running_var f4 [16]
0	0x45c18ba4	6193.455
1	0x46280e0f	10755.515
2	0x45ce7220	6606.2656
3	0x45e15425	7210.518
4	0x459e1c37	5059.527
5	0x46693faa	14927.916
6	0x45f47cc2	7823.5947
7	0x45cd6660	6572.797
8	0x461022a6	9224.662
9	0x46886cab	17462.334
10	0x45a4f802	5279.001
11	0x46208c05	10275.005
12	0x46254568	10577.352
13	0x45dcf482	7070.5635
14	0x45d4027f	6784.312
15	0x46116f3a	9307.807

conv2.0.weight f4 [32, 16, 3, 3]
0	0x3bdaa4e5	0.006672489
1	0xbad0690c	-0.0015900447
2	0xbb0c34df	-0.0021393818
3	0xbb33f91e	-0.0027461718
4	0xbcbec1c6	-0.023285758
5	0x3d07736c	0.03306906
6	0x3d90abfc	0.070640534
7	0xbcc655be	-0.024210807
8	0x3d139aea	0.03603641
9	0x3bf3e112	0.007442602
10	0xbd8c3468	-0.06845933
11	0xbc214860	-0.009843916
12	0x3d871cb9	0.06597275
13	0x3c3cde2c	0.011527579
14	0xbbcfe82a	-0.006344815
15	0xbb9d4a1e	-0.004800095
16	0xbd7e5cd0	-0.06210023
17	0xbc9c10f5	-0.019051054
18	0xbce2ec83	-0.027700668
19	0x3d9e34a5	0.07724885
20	0x3ca20b02	0.01978064
21	0xbd3d6096	-0.04623469
22	0x3c3e2cf1	0.011607395
23	0x3d54c832	0.051948734
24	0xbd3f34a4	-0.04668106
25	0x3d935345	0.07193617
26	0x3d16b69f	0.036795255
27	0x3d57b472	0.05266232
28	0x3d1a2a01	0.037637714
29	0x3cc05672	0.02347872
30	0xbd8eb761	-0.069685705
31	0xbc46457c	-0.012101527
32	0xbda2c3a0	-0.07947469
33	0xbd301a1d	-0.042993654
34	0x3caf63c1	0.021409871
35	0xbd97609e	-0.07391475
36	0xbcc3d1d4	-0.023903765
37	0xbd845063	-0.06460645
38	0xbcaf96e2	-0.021434251
39	0xbb5b75b9	-0.0033486916
40	0x3da52234	0.08063164
41	0x3d7df068	0.061996847
42	0x3d1f2515	0.038853724
43	0x3d10d0d8	0.03535542
44	0xbd8ab3e4	-0.06772593
45	0xbd2ed7ac	-0.04268615
46	0xbcf2b9fa	-0.029629696
47	0x3cedb7f2	0.029018376
48	0xbd82456d	-0.06360898
49	0xbd1daf79	-0.038497422
50	0xbdad5b19	-0.08464641
51	0xbd04fc59	-0.03246722
52	0x3a42702f	0.00074172294
53	0xbb6fb4b4	-0.0036576213
54	0xbd92f233	-0.07175102
55	0x3cf295a5	0.029612372
56	0x3d24a5a1	0.04019702
57	0xbbdb9da9	-0.006702144
58	0xbd529439	-0.051410887
59	0x3d8ff477	0.0702905
60	0xbd4e78c4	-0.05040814
61	0xbbf09f82	-0.0073432336
62	0x3da6fe43	0.08153965
63	0x3cd69e2b	0.026198467
64	0x3c67bd2d	0.014144224
65	0xbd359f24	-0.04434122
66	0x3d885c54	0.06658235
67	0x3c7428bf	0.014902293
68	0x3d20f5d7	0.03929695
69	0x3cacbd3a	0.021086324
70	0xbd9cbc6b	-0.076531254
71	0x3c01f1f1	0.0079312185
72	0x3bb541a4	0.0055315066
73	0xbd25c1b2	-0.040467925
74	0xbd6ba48c	-0.05752997
75	0x3d6ef0e1	0.05833519
76	0x3bbdbb7d	0.0057901726
77	0xbd1d8c56	-0.038463913
78	0xbd130b98	-0.03589973
79	0xbd1d87df	-0.038459655
80	0x3d549b8d	0.051906157
81	0xbc37ca6a	-0.011217693
82	0xbd96d201	-0.07364274
83	0xbd28b832	-0.041191287
84	0xbda70ac8	-0.08156353
85	0xbbabccb5	-0.005242909
86	0xbd4d1f47	-0.050078657
87	0x3d9c1075	0.076203264
88	0xbcdaa595	-0.026690284
89	0xbd9b7fca	-0.07592733
90	0xbd478410	-0.04870993
91	0xbd65b046	-0.05607631
92	0xbbf43dda	-0.0074536623
93	0x3d26a345	0.04068305
94	0xbd4c5864	-0.049888983
95	0x3d2a4fce	0.041580014
96	0xbd08bc64	-0.03338279
97	0xbc6ffc96	-0.0146476235
98	0x3d96c822	0.07362391
99	0xbaaa2060	-0.0012979619
100	0x3c07c7fe	0.008287428
101	0x3d7c614f	0.06161624
102	0x3d7ec305	0.062197704
103	0xbbac619d	-0.00526066
104	0x3cd979a0	0.026547253
105	0x3c436ce2	0.011927815
106	0x3cbafbdd	0.022825176
107	0xbd60a363	-0.054843318
108	0xbce90bbf	-0.028447984
109	0xbca7d424	-0.020486899
110	0x3d05f7df	0.03270709
111	0xba06cd82	-0.00051423174
112	0x3d063d34	0.03277321
113	0xbc0fa942	-0.008768382
114	0xbc35a759	-0.011087262
115	0xbcf6dc3b	-0.030134311
116	0x3d3cbc2c	0.046077892
117	0xbc9f5a8e	-0.01945236
118	0x3d916689	0.07099635
119	0xbd737b2e	-0.059443645
120	0x3b41f952	0.002959807
121	0xbcc9c359	-0.024629282
122	0x3d36d98c	0.044641063
123	0x3c3f0a8a	0.011660228
124	0x3cc16bcf	0.023610977
125	0xbc3d44f0	-0.0115520805
126	0xbbb622b2	-0.005558335
127	0xbd810477	-0.0629968
128	0xbd7c903a	-0.061660983
129	0x3cc5100f	0.024055509
130	0x3d61cdf6	0.05512806
131	0xbd7c08fc	-0.061532006
132	0xbd9e3055	-0.07724062
133	0x3d9be296	0.07611577
134	0x3d60d01d	0.054885972
135	0x3d2c46ef	0.042059835
136	0x3b8c65b5	0.0042845854
137	0xbd21303c	-0.03935264
138	0x3d959b0d	0.07304964
139	0x3d1ece09	0.03877071
140	0x3d936a1e	0.071979746
141	0xbd3e4c98	-0.046459764
142	0xbc6e34f0	-0.0145389885
143	0xbd7e9da5	-0.06216206
144	0x3d8f77a3	0.07005241
145	0xbd28423e	-0.0410788
146	0xbda37942	-0.079821125
147	0xbcd14b30	-0.025548548
148	0x3c56d17c	0.013111468
149	0xbc8aa3fb	-0.016923895
150	0x3d59cf21	0.05317605
151	0x3d2ba989	0.04190973
152	0x3d17e635	0.037084777
153	0x3dabf5cb	0.08396491
154	0xbcf0ac5f	-0.029379068
155	0xbc85b71a	-0.016322661
156	0xbcb8e2a7	-0.022569014
157	0xbd9f2809	-0.07771308
158	0x3bb3cd05	0.0054870867
159	0xbc34fbbb	-0.011046345
160	0xbd8804c9	-0.06641538
161	0x3b7f23ff	0.0038931367
162	0xbd603f7f	-0.054748055
163	0x3ba1a09f	0.0049324776
164	0x3d0b7d43	0.034055006
165	0xbd95cb64	-0.07314184
166	0xbc9476ea	-0.018123109
167	0x3c6d5ae2	0.014487
168	0x3d8d7f53	0.06909051
169	0xbd4a24d6	-0.049351536
170	0xbda680d6	-0.08130042
171	0x3d102bc2	0.03519798
172	0x3d12047f	0.03564882
173	0xbda5acfe	-0.08089636
174	0x3d96c773	0.07362261
175	0x3d57d6bc	0.05269502
176	0xbdac2907	-0.08406263
177	0xbd65ffbe	-0.056152098
178	0xbd515e06	-0.05111506
179	0xbcefa24b	-0.029252192
180	0xbd170cb7	-0.03687736
181	0xbd7470e2	-0.059677966
182	0xbcdb810d	-0.026794935
183	0x3d93181e	0.07182334
184	0x3d9ba74c	0.07600269
185	0x3d2c78b6	0.042107306
186	0x3d81a49e	0.06330226
187	0x3ce43eda	0.027862001
188	0xbc9ee3b9	-0.019395696
189	0xbd5709c2	-0.05249954
190	0xbda65d09	-0.08123214
191	0x3d501d37	0.05080911
192	0xbd26cd40	-0.040723085
193	0xbd42398b	-0.04741816
194	0x3d8af97c	0.067858666
195	0x3c08459e	0.008317379
196	0xbbc15004	-0.005899431
197	0xbd198513	-0.037480425
198	0xbd72eefc	-0.059309945
199	0xbda39e26	-0.07989149
200	0x3cd2d904	0.025738247
201	0x3cd72ecc	0.026267432
202	0x3d5bb939	0.05364344
203	0xbcbc29c3	-0.022969132
204	0xbc97621c	-0.0184794
205	0xbcb2a50e	-0.02180722
206	0xbcec5775	-0.028850297
207	0xbd97d9bb	-0.07414576
208	0xbda7717d	-0.08175943
209	0x3be4db1f	0.006984129
210	0xbd514f7d	-0.051101197
211	0xbd4c0f5a	-0.049819328
212	0xbda375df	-0.079814665
213	0x3c68ece8	0.014216639
214	0x3d0c7c38	0.03429815
215	0x3d92c415	0.07166306
216	0x3d7f685e	0.06235539
217	0x3d9d3a60	0.0767715
218	0x3d3688a7	0.044563916
219	0x3d8aa29d	0.06769297
220	0x3d97d324	0.07413319
221	0xbd2aab74	-0.041667417
222	0xbc4ef15e	-0.012630789
223	0x3ceeab70	0.029134482
224	0x3d010ef2	0.031508394
225	0x3da76a83	0.081746124
226	0xbc550b43	-0.013003173
227	0x3d8f9172	0.07010163
228	0xbd37703d	-0.044784773
229	0xbc8ea190	-0.017411023
230	0x3daa29b6	0.08308737
231	0x3d9d725a	0.076878265
232	0x3d84eefd	0.06490896
233	0x3d3ac65b	0.045599323
234	0x3d1a9faf	0.037749942
235	0xbd9fdd80	-0.0780592
236	0x3d4c4161	0.049867038
237	0xbd866d01	-0.065637596
238	0xbd0e0080	-0.034668446
239	0x3d66e571	0.056371156
240	0xbd5b3838	-0.05352041
241	0x3d984799	0.07435531
242	0x3dacee5a	0.084438995
243	0xbcf4bd29	-0.029875355
244	0xbbbf974d	-0.005846894
245	0x3d08899d	0.033334363
246	0x3d1425b3	0.036168765
247	0x3d65e122	0.056122907
248	0xbce0e2cf	-0.0274519
249	0xbd4d9720	-0.050192952
250	0xbd36d253	-0.044634175
251	0xbda0bd9b	-0.078486644
252	0x3d13ede6	0.03611555
253	0xbd859099	-0.065217204
254	0x3d50cc60	0.050976157
255	0xbda5bb1f	-0.08092331

conv2.0.bias f4 [32]
0	0x3d99c714	0.07508674
1	0x3d81c855	0.063370384
2	0x3d3c9e65	0.046049494
3	0xbd134487	-0.035954025
4	0x3d9dc8eb	0.07704338
5	0xbd9196f6	-0.07108872
6	0x3d32ff4a	0.043700494
7	0x3d3cef1b	0.046126466
8	0x3cbab66e	0.022792067
9	0xbd99d69d	-0.07511637
10	0xbb0cf069	-0.00215056
11	0x3d5fcc41	0.05463815
12	0xbcb3c92b	-0.02194651
13	0xbb5f7d21	-0.0034101682
14	0xbd84f9c7	-0.06492954
15	0xbd61524f	-0.055010136
16	0xbcb2c05c	-0.02182024
17	0x3d55d708	0.052207023
18	0xbd8a0b63	-0.06740453
19	0xbd1ad75b	-0.037803035
20	0xbd2e5771	-0.04256386
21	0x3d8dff44	0.06933454
22	0xbd213cbf	-0.039364573
23	0x3d2ed522	0.042683728
24	0xbc5953e2	-0.013264628
25	0x3c4dfea5	0.012572919
26	0x3c535bed	0.012900335
27	0xbd949040	-0.07254076
28	0xbc154d4f	-0.00911267
29	0x3d3e39b7	0.04644176
30	0x3d9078ee	0.070543155
31	0xbce3d7a0	-0.027812779

conv2.1.weight f4 [32]
0	0x3f7f9622	0.9983846
1	0x3f7f972f	0.9984006
2	0x3f803e44	1.0019002
3	0x3f7f8354	0.99809766
4	0x3f804193	1.0020012
5	0x3f7fa28c	0.998574
6	0x3f80308c	1.0014815
7	0x3f7f8a64	0.9982054
8	0x3f7f8802	0.99816906
9	0x3f7f99f8	0.9984431
10	0x3f7f8433	0.99811095
11	0x3f7f7d84	0.99800897
12	0x3f7fb5b6	0.99886644
13	0x3f7fda51	0.999425
14	0x3f7f86d5	0.9981511
15	0x3f804195	1.0020014
16	0x3f802a0d	1.0012833
17	0x3f803043	1.0014728
18	0x3f7feca8	0.99970484
19	0x3f803750	1.001688
20	0x3f7f8607	0.99813884
21	0x3f7f7ee7	0.9980301
22	0x3f7f7e5a	0.9980217
23	0x3f8027c3	1.0012134
24	0x3f802521	1.0011331
25	0x3f804159	1.0019943
26	0x3f7fb217	0.9988112
27	0x3f80316d	1.0015084
28	0x3f7f89a7	0.99819416
29	0x3f7f7d5a	0.99800646
30	0x3f803a5b	1.0017809
31	0x3f7faebc	0.99876

conv2.1.bias f4 [32]
0	0xba9aec60	-0.0011819713
1	0x3a49e113	0.000770108
2	0x3afdba7c	0.0019357945
3	0x39fe3322	0.00048484752
4	0xbb00a367	-0.0019628645
5	0x3ae6f296	0.0017619904
6	0xbafa3778	-0.0019090017
7	0xbad7963c	-0.0016447972
8	0xbae0181f	-0.0017097032
9	0xbaef1a2a	-0.001824205
10	0x39b37260	0.00034226757
11	0xba70aaec	-0.0009180743
12	0x3b018bb0	0.0019767098
13	0xbac9b0b0	-0.001538774
14	0x3ae36917	0.0017350045
15	0x3b02c8f0	0.0019956194
16	0x3b032900	0.0020013452
17	0xbaf76277	-0.0018873949
18	0x3aff3448	0.0019470537
19	0xbb02f47d	-0.0019982152
20	0xba8c55c0	-0.0010706708
21	0xbaeaab6c	-0.0017903871
22	0xbb0311ce	-0.0019999626
23	0xbaeb428e	-0.0017948912
24	0xbadfc654	-0.0017072656
25	0xbb026f7e	-0.001990288
26	0x3af338ad	0.0018556319
27	0x3a39d74b	0.0007089271
28	0x3a9329be	0.001122765
29	0x3a935885	0.0011241591
30	0x3affa200	0.0019503236
31	0x3afe4527	0.0019399271

conv2.1.running_mean f4 [32]
0	0x3b94e702	0.00454414
1	0x3ce0a802	0.027423862
2	0x395a1adc	0.00020800106
3	0x3b5b02ce	0.003341842
4	0x3ccddf36	0.02513085
5	0xbd0961cc	-0.033540532
6	0x3c87ed38	0.016592607
7	0x3c04ccc3	0.00810546
8	0x3a82efa3	0.000998963
9	0xbd048af4	-0.03235908
10	0x3c653a0b	0.013990889
11	0xbae54cba	-0.001749418
12	0xbc0e1f34	-0.008674432
13	0xbc2e3c48	-0.010634489
14	0xbcaea8a9	-0.021320658
15	0x3c460ef2	0.012088524
16	0x3c89a73c	0.016803376
17	0xbcb0c742	-0.021579389
18	0x3b749770	0.003732171
19	0x3ca978e5	0.02068753
20	0xbc263b5e	-0.01014599
21	0x3c93e938	0.018055543
22	0x3c9c9e5c	0.01911848
23	0x3cdfcaea	0.027318437
24	0xbc165264	-0.009174917
25	0x3ca13a56	0.019681137
26	0x3acf0be8	0.0015796395
27	0xbb238e40	-0.0024956614
28	0xbb63d117	-0.0034762078
29	0x3c9c5a9c	0.019086175
30	0x3c8945ea	0.01675697
31	0xbb995b02	-0.0046800384

conv2.1.running_var f4 [32]
0	0x3f5d7558	0.8650718
1	0x3f71bdac	0.9443004
2	0x3f62fe06	0.8866886
3	0x3f6a1eb1	0.9145308
4	0x3f542d76	0.8288187
5	0x3f6bdce2	0.92133915
6	0x3f67c91e	0.90541255
7	0x3f5931be	0.84841526
8	0x3f6225e3	0.8833906
9	0x3f5f3325	0.87187415
10	0x3f5741be	0.8408469
11	0x3f5d9888	0.8656087
12	0x3f59e80a	0.8511969
13	0x3f56c133	0.8388855
14	0x3f557d9e	0.833948
15	0x3f691786	0.9105152
16	0x3f5d70ad	0.86500055
17	0x3f708693	0.93955344
18	0x3f5e8db5	0.8693498
19	0x3f65c456	0.8975271
20	0x3f5782fd	0.8418425
21	0x3f5d0be0	0.86346245
22	0x3f6db08d	0.9284752
23	0x3f656802	0.8961183
24	0x3f5baba3	0.8580877
25	0x3f6487e8	0.89269876
26	0x3f5a5ab7	0.8529467
27	0x3f572569	0.8404146
28	0x3f62a586	0.8853382
29	0x3f64617a	0.8921124
30	0x3f5ede89	0.8705831
31	0x3f63aa90	0.8893213

conv3.0.weight f4 [64, 32, 3, 3]
0	0x3b1ce03e	0.002393737
1	0x3b427572	0.0029672054
2	0x3c4a6929	0.012354174
3	0x3cb95b91	0.02262667
4	0xbd1cc901	-0.03827763
5	0xba5c66d2	-0.00084076554
6	0xbcdf1de1	-0.027235927
7	0x3d717509	0.058949504
8	0x3d2eb76b	0.04265539
9	0xbc099776	-0.0083979275
10	0xbc2bb008	-0.010478981
11	0x3c7e9d9b	0.015540506
12	0xbd144f11	-0.036208216
13	0x3cae0602	0.0212431
14	0x3d098d9b	0.03358231
15	0x3d326fa6	0.043563507
16	0xbc1bc650	-0.009507731
17	0xbbda4fc4	-0.006662341
18	0x3b1b108a	0.002366098
19	0xbd763a0b	-0.060113948
20	0x3cb4e3c7	0.022081269
21	0x3d4dc823	0.050239693
22	0xbb91c19e	-0.00444813
23	0xbd39698f	-0.045266684
24	0xbc6cc7eb	-0.014451961
25	0x3c3618d1	0.011114315
26	0x3cde2530	0.027117342
27	0x3d625cbd	0.055264223
28	0xba8efc9e	-0.0010909026
29	0x3d64fd9e	0.05590593
30	0xbc9b7014	-0.018974341
31	0xbd03c6ba	-0.032171942
32	0xbc199f5a	-0.009376371
33	0x3bfff4a8	0.0078111477
34	0xbd2839c4	-0.041070715
35	0xbbfaeb18	-0.00765742
36	0x3d32b451	0.043628994
37	0x3d3b9620	0.045797467
38	0xbcf9ae0c	-0.0304785
39	0x3d63c19e	0.05560457
40	0x3ca64292	0.020295415
41	0x3d1fcdb7	0.039014544
42	0x3d651b43	0.055934202
43	0x3d1405f3	0.036138486
44	0xbc1bed27	-0.009516991
45	0x3cb7fbbb	0.022458902
46	0x3d198718	0.03748235
47	0xbccccc42	-0.024999741
48	0xbcee2b4d	-0.029073382
49	0x3c107132	0.00881605
50	0x3d493381	0.049121384
51	0xbca59406	-0.020212185
52	0x3c3b2b37	0.011423877
53	0xbcda50a3	-0.026649779
54	0x3b0d3136	0.0021544225
55	0x3d11e089	0.035614524
56	0x3cb80613	0.022463834
57	0xbd3d9422	-0.04628385
58	0xb9932ae2	-0.00028069975
59	0x3cf55f41	0.029952647
60	0xbcff281e	-0.031147059
61	0xbd466a2d	-0.0484411
62	0xbcb0005f	-0.021484552
63	0xbcc04218	-0.023469016
64	0xbd5b6d95	-0.053571302
65	0xbd499a58	-0.04921946
66	0x3c9d9a16	0.019238513
67	0x3d4d1fb4	0.050079063
68	0x3d6d7ce5	0.057980437
69	0x3c526c47	0.012843198
70	0xbd714e8c	-0.0589128
71	0xbd007cf5	-0.03136917
72	0xbd369971	-0.044579927
73	0xbcd86174	-0.026413657
74	0xbd0cdd14	-0.034390524
75	0x3ccad94c	0.024761818
76	0x3d059fd4	0.032623127
77	0x3cfffc3a	0.0312482
78	0x3d17493f	0.036935087
79	0xbc07f4b3	-0.008298087
80	0x3d486c94	0.048931673
81	0x3cfc01e6	0.030762624
82	0x3d114e31	0.03547496
83	0xbd57dee7	-0.05270281
84	0x3d2828b1	0.04105443
85	0xbd084f34	-0.03327866
86	0x3d7367d3	0.059425186
87	0x3d64ec1d	0.055889238
88	0x3d108dbc	0.03529142
89	0x3c8f3b9e	0.017484482
90	0xbce61f08	-0.028090969
91	0x3d2b9061	0.041885737
92	0x3b04eeeb	0.0020284008
93	0x3d2313be	0.03981375
94	0x3cfc335b	0.030786207
95	0xbd40ddf4	-0.04708667
96	0x3b8a7cd2	0.0042263055
97	0xbd57b759	-0.05266509
98	0xbcb8c77c	-0.022556059
99	0x3cffa384	0.0312059
100	0xbc5ed0fe	-0.013599632
101	0x3ba12d83	0.0049187555
102	0xbd355e8f	-0.04427963
103	0x3d5dc48c	0.05414252
104	0x3d2687d9	0.0406569
105	0x3d350e74	0.044203237
106	0xbd3866de	-0.045019977
107	0x3c720183	0.014770868
108	0xbd40ceb8	-0.047072142
109	0x3d24010a	0.040040053
110	0xbc951478	-0.018198237
111	0x3c8aa28b	0.01692321
112	0xbd589efb	-0.05288599
113	0xbd424843	-0.047432195
114	0xbb334bb9	-0.0027358367
115	0xbd373503	-0.04472829
116	0xbcc5f3cc	-0.024164103
117	0xbc20016d	-0.009765965
118	0xbd00fb2a	-0.03148953
119	0x3d704bae	0.058665924
120	0x3c0f5965	0.008749341
121	0x3cb6d991	0.02232054
122	0x3cde7993	0.02715758
123	0xbd6bb8a1	-0.057549123
124	0xbb857d41	-0.0040737693
125	0xbd25488b	-0.040352385
126	0x3d3aca66	0.04560318
127	0xbcbbc62a	-0.02292164
128	0xbd1cf691	-0.03832108
129	0x3d0c7340	0.0342896
130	0xbb3a0392	-0.0028383476
131	0x3d39f7da	0.045402385
132	0x3d0181ff	0.031618115
133	0xbcac7ca6	-0.02105553
134	0xbd63c2b7	-0.055605616
135	0xbc03a814	-0.008035678
136	0xbd52c0d2	-0.05145342
137	0xbd4f9a28	-0.050684124
138	0xbc6cb097	-0.014446399
139	0xbd5f9692	-0.054586954
140	0x3b010fb5	0.00196932
141	0xbc07fab0	-0.008299515
142	0xbd473119	-0.048630808
143	0x3b435022	0.0029802402
144	0xbc1bde71	-0.009513483
145	0x3cba5374	0.022744872
146	0xbcb26fe6	-0.021781873
147	0x3cbc3695	0.022975245
148	0x3d3879e2	0.04503811
149	0x3d011da1	0.031522397
150	0x3cf87860	0.030330837
151	0x3d5b1fd9	0.05349717
152	0x3cbe3629	0.023219185
153	0x3c3def5c	0.011592712
154	0x3d5f908e	0.054581217
155	0xbd14768f	-0.03624588
156	0x3ca352de	0.019936975
157	0xbbe51db0	-0.0069920644
158	0xbd265173	-0.04060502
159	0xbbae7e56	-0.005325119
160	0xbc51933a	-0.012791449
161	0x3d1301c3	0.035890352
162	0x3d1de05f	0.038544055
163	0xbc8217aa	-0.015880425
164	0xbd372377	-0.044711556
165	0xbc897257	-0.016778154
166	0x3cbab546	0.022791516
167	0x3d20832f	0.039187606
168	0xbd2b67e6	-0.041847132
169	0x3cb7fd60	0.022459686
170	0xbc3a78df	-0.011381357
171	0x3d2923a4	0.041293755
172	0xbcca97cd	-0.024730587
173	0xbbfa0eeb	-0.007631173
174	0x3cb1e1df	0.021714149
175	0xbd5095f3	-0.050924253
176	0xbbbade72	-0.005702787
177	0xba06aa34	-0.00051370566
178	0xbd1e6bf8	-0.038677186
179	0xbd4b3a41	-0.049616102
180	0xbd3e5666	-0.046469115
181	0xbcfe4325	-0.031037876
182	0x390c344c	0.00013370923
183	0xbcd1eff1	-0.025627108
184	0xbbb220a7	-0.0054360214
185	0x3cd92031	0.026504608
186	0xbd3cd276	-0.04609915
187	0x3cc59054	0.024116673
188	0x3d00897f	0.031381126
189	0x3d2beacf	0.041971978
190	0x3badfe64	0.0053098667
191	0x3ce87586	0.028376352
192	0xbc6ed9bd	-0.01457828
193	0xbd7095ec	-0.058736727
194	0x3cd1d788	0.025615469
195	0xbd490d71	-0.049085084
196	0x3c0752f6	0.0082595255
197	0x3a5afff1	0.0008354178
198	0xbce1b533	-0.027552223
199	0x3d62d99e	0.055383317
200	0x3d078ff3	0.033096265
201	0x3cd63cdd	0.026152069
202	0xbd5b589c	-0.0535513
203	0xbd38c3c1	-0.04510856
204	0x3cc4a907	0.02400638
205	0xbc75b5f7	-0.014996997
206	0x3d1a4640	0.037664652
207	0x3d18eb0f	0.037333544
208	0xbcfb3fe2	-0.03067011
209	0x3d571a6c	0.052515432
210	0xbb9bf230	-0.0047590956
211	0x3d1e809a	0.038696863
212	0x3d2ab1b4	0.041673377
213	0x3cde51f6	0.027138691
214	0x3caad9c5	0.020855794
215	0x3ce4d6ea	0.02793451
216	0x3cbdaea5	0.023154566
217	0xbd12ecc8	-0.035870343
218	0xbd5c017e	-0.05371236
219	0x3c881fe6	0.016616773
220	0x3d2c5c0e	0.042079978
221	0xbc29ab25	-0.010355745
222	0x3d660454	0.05615647
223	0x3d241bad	0.040065456
224	0x3c405f76	0.01174151
225	0xbd2ba4c0	-0.041905165
226	0x3d407b7b	0.04699276
227	0x3ca91217	0.020638509
228	0x3d27648b	0.04086737
229	0xbd274cd4	-0.040844753
230	0x3b0c29b8	0.002138717
231	0x3d2e80c4	0.04260327
232	0x3c3d0244	0.011536185
233	0xbc34b194	-0.011028666
234	0x3c86f4b6	0.01647411
235	0x3d49709a	0.04917965
236	0xbd5ef35d	-0.054431308
237	0x3c8913ff	0.016733168
238	0x3ce37243	0.027764445
239	0x3cbcf99a	0.023068238
240	0xbd6a032f	-0.057131942
241	0x3d39c8ac	0.04535739
242	0x3cc67ab5	0.024228433
243	0x3bc84c71	0.006112628
244	0xbd2e4cb1	-0.042553607
245	0xbc3fd068	-0.011707403
246	0x3c580602	0.013185026
247	0xbd3b9a93	-0.04580171
248	0x3d49b723	0.04924692
249	0x3d287545	0.041127462
250	0x3bc0bda1	0.0058819805
251	0x3cd9c2f0	0.026582211
252	0xbd3920f3	-0.04519744
253	0x3d66a091	0.05630547
254	0xbd19093b	-0.03736232
255	0xbd73bd14	-0.05950649

conv3.0.bias f4 [64]
0	0x3c21faf1	0.009886489
1	0xbc9d0a74	-0.019170024
2	0xbcc3f931	-0.023922535
3	0x3c589d90	0.01322116
4	0x3c80be12	0.015715633
5	0xba608b11	-0.00085656444
6	0xbd31f271	-0.0434441
7	0x3bedf8b2	0.007262313
8	0xbbbe97cd	-0.005816436
9	0x3d38cc4f	0.04511672
10	0xbccee694	-0.025256433
11	0xbd315a16	-0.043298803
12	0x3beb12e5	0.0071738833
13	0xbc217258	-0.009853922
14	0x3d3800a1	0.044922475
15	0x3a3690c8	0.0006964323
16	0xbc4547a8	-0.01204101
17	0x3d6b36fb	0.05742548
18	0x3d535355	0.051593143
19	0xbd489c36	-0.0489771
20	0xbd2b3c40	-0.041805506
21	0x3d33c450	0.04388839
22	0xbb5e8ddc	-0.0033959066
23	0xbb3a5dba	-0.0028437213
24	0x3acdadbd	0.0015692037
25	0x3bea33bd	0.007147281
26	0xbd097c1e	-0.033565633
27	0xbce725e2	-0.028216306
28	0x3d6cde95	0.05782946
29	0x3d1ae859	0.03781924
30	0x3d4c743a	0.04991553
31	0x3cc1dc14	0.023664512
32	0x3d0ca426	0.03433623
33	0x3ccc9bbf	0.02497661
34	0xbd50def5	-0.05099388
35	0x39af242f	0.0003340556
36	0xbc874f24	-0.01651723
37	0x3d195713	0.037436556
38	0xbb9952c0	-0.004679054
39	0x3d70c66e	0.058782987
40	0xbc55a59d	-0.013039974
41	0xbbf0dd1e	-0.007350578
42	0x3b726750	0.0036987849
43	0x3c902cd8	0.017599508
44	0x3cc3e663	0.023913568
45	0xbcc92dd5	-0.024557987
46	0x3cc1ad5d	0.023642236
47	0xbd314ebc	-0.043287978
48	0xbcbeb63a	-0.023280252
49	0x3b7c0f7b	0.0038461376
50	0x3d5923e3	0.05301274
51	0xbb615ae8	-0.003438646
52	0xbd6740a0	-0.056458116
53	0x3d67c7b7	0.056586947
54	0xbd3330e0	-0.043747783
55	0xbaf657be	-0.001879446
56	0xbd21ae1b	-0.03947268
57	0x3d1ca0a5	0.03823914
58	0x3cb6c3c5	0.022310147
59	0x3d1ef911	0.038811747
60	0xbbf23df4	-0.0073926393
61	0xbcc1e618	-0.023669288
62	0xbb9f8d6c	-0.0048691537
63	0x3d60fdce	0.054929547

conv3.1.weight f4 [64]
0	0x3f80410f	1.0019854
1	0x3f80329c	1.0015445
2	0x3f7f955d	0.99837285
3	0x3f7f812c	0.99806476
4	0x3f7fa6c5	0.99863845
5	0x3f803a06	1.0017707
6	0x3f803a78	1.0017843
7	0x3f7f929c	0.99833083
8	0x3f7f8260	0.9980831
9	0x3f7f7f6a	0.99803793
10	0x3f802458	1.0011091
11	0x3f7f8513	0.9981243
12	0x3f7f7ce0	0.9979992
13	0x3f7f8f10	0.9982767
14	0x3f804176	1.0019977
15	0x3f802d77	1.0013875
16	0x3f804056	1.0019634
17	0x3f804075	1.0019671
18	0x3f7fa620	0.9986286
19	0x3f803e30	1.0018978
20	0x3f7f84be	0.99811924
21	0x3f801cda	1.0008805
22	0x3f7fed06	0.99971044
23	0x3f80357a	1.001632
24	0x3f804119	1.0019866
25	0x3f804155	1.0019938
26	0x3f7fed8c	0.9997184
27	0x3f7f849f	0.9981174
28	0x3f7f7dfa	0.998016
29	0x3f80418a	1.0020001
30	0x3f804009	1.0019542
31	0x3f7f8443	0.9981119
32	0x3f80288e	1.0012376
33	0x3f7fb4f5	0.99885494
34	0x3f7f8480	0.99811554
35	0x3f7f7e0a	0.99801695
36	0x3f7fb3cc	0.99883723
37	0x3f7f8503	0.99812335
38	0x3f802087	1.0009927
39	0x3f802dca	1.0013974
40	0x3f803a1d	1.0017735
41	0x3f800c08	1.0003672
42	0x3f802ab8	1.0013037
43	0x3f7f7f1e	0.9980334
44	0x3f7fa248	0.99856997
45	0x3f7febad	0.9996899
46	0x3f7f890c	0.9981849
47	0x3f7f9a52	0.9984485
48	0x3f7f7de9	0.998015
49	0x3f803ee9	1.0019199
50	0x3f7f9788	0.99840593
51	0x3f7f7cd8	0.9979987
52	0x3f803b5c	1.0018115
53	0x3f8035fe	1.0016477
54	0x3f7f9d3f	0.99849313
55	0x3f803b4f	1.00181
56	0x3f801ad7	1.0008191
57	0x3f802eba	1.001426
58	0x3f7f85cd	0.9981354
59	0x3f7fb6d7	0.99888366
60	0x3f803687	1.001664
61	0x3f803b73	1.0018142
62	0x3f7f8999	0.9981933
63	0x3f8028d2	1.0012457

conv3.1.bias f4 [64]
0	0x3afdd3a6	0.0019365444
1	0x3a2283f4	0.0006199472
2	0x3b031fe6	0.0020008027
3	0xbaf81418	-0.0018926887
4	0x3afb0c54	0.0019153454
5	0x3a15e7c9	0.00057184376
6	0x3afca91a	0.001927647
7	0xbafd44a0	-0.001932282
8	0xbae464e6	-0.001742509
9	0xbb032432	-0.0020010588
10	0xbaef8fd3	-0.0018277116
11	0xbb026310	-0.0019895472
12	0xbb026d4c	-0.0019901572
13	0x3a86c380	0.0010281652
14	0xba397baa	-0.00070756173
15	0x3a2ac4ca	0.0006514309
16	0x3af4698a	0.0018647176
17	0xba510f1c	-0.0007974969
18	0xba6802d0	-0.0008850517
19	0xbafc39af	-0.0019243265
20	0xbad4ded6	-0.0016240727
21	0xba8196a1	-0.000988681
22	0x3b020ab8	0.0019842815
23	0xbaf0d7f4	-0.0018374906
24	0x3b009022	0.001961716
25	0x3aed1974	0.0018089251
26	0x3a8a5721	0.0010554531
27	0x39bd508c	0.000361089
28	0x3a1d191c	0.00059928163
29	0x3adaa9af	0.001668265
30	0xbaf42af2	-0.0018628521
31	0xbb01159a	-0.0019696713
32	0xbb0313a2	-0.0020000716
33	0x3b02f434	0.0019981982
34	0xbaf81486	-0.0018927015
35	0x399e7638	0.00030224188
36	0x3af62878	0.0018780371
37	0x3b032534	0.0020011188
38	0xbb01a4f8	-0.0019782167
39	0x3a7aac77	0.00095624424
40	0x3aea3a82	0.001787022
41	0xbb00f5f3	-0.0019677847
42	0x399c6156	0.0002982716
43	0x3af16288	0.0018416205
44	0xba2b92e6	-0.0006545022
45	0xbb005143	-0.0019579686
46	0xbaee8a8f	-0.0018199253
47	0x3ad9292a	0.0016568054
48	0xbb013efe	-0.0019721384
49	0x3aeeef10	0.0018229205
50	0xb991d944	-0.0002781843
51	0xbaf58963	-0.0018732961
52	0x3afba3ac	0.0019198558
53	0x3abc9b95	0.0014389629
54	0x3af87b78	0.0018957695
55	0x3aeafbe1	0.0017927849
56	0xbaf37efc	-0.0018577273
57	0xbb0285d2	-0.001991619
58	0xbb01bf96	-0.0019798032
59	0xbab992ad	-0.0014158093
60	0xba09d04a	-0.0005257173
61	0x3afb5aba	0.0019176819
62	0xbaca0ac6	-0.0015414588
63	0x3a2e16b0	0.0006640954

conv3.1.running_mean f4 [64]
0	0x3ce167b9	0.02751528
1	0x3c1f0f88	0.009708293
2	0x3bb47db4	0.005508149
3	0x3cf527cc	0.029926203
4	0xbae01640	-0.0017096475
5	0x3cfab1e2	0.0306024
6	0xbd3b2159	-0.0456861
7	0x3ada63d9	0.0016661837
8	0xbd23c1ff	-0.03997993
9	0xbc982ee9	-0.018577056
10	0x3c1f6699	0.009729051
11	0x3ac7364c	0.0015198677
12	0x3c7ded0a	0.015498409
13	0xbba86f77	-0.005140241
14	0xbb5f5c77	-0.0034082213
15	0x3b0d36a2	0.0021547456
16	0x3cb627c4	0.022235759
17	0x3c1f9de9	0.009742239
18	0xbca4e3b4	-0.020128109
19	0x3c8ace62	0.016944114
20	0xbceff464	-0.02929134
21	0x3c5060e8	0.012718417
22	0xbbfbf96e	-0.0076896464
23	0x3b72d466	0.003705287
24	0xbc867edc	-0.016417913
25	0xbd2ba542	-0.04190565
26	0x3b907204	0.004408123
27	0xbd0dc26b	-0.03460924
28	0xbc93a9f0	-0.018025368
29	0x3b857914	0.0040732715
30	0x3c589d16	0.013221046
31	0x3c49128e	0.01227249
32	0x3d33bc4e	0.043880753
33	0x3b8a0f93	0.0042132824
34	0x3c2c0c3a	0.010500962
35	0xbcbba3e6	-0.022905301
36	0xbc8a1412	-0.016855273
37	0xbc78804e	-0.015167309
38	0xbcd093b4	-0.025461055
39	0x3cc26c40	0.023733258
40	0xbb9d4611	-0.0047996123
41	0x3cc0c169	0.023529725
42	0xbb0ae940	-0.0021196157
43	0x3b4a61ba	0.0030881003
44	0x3d2914e4	0.04127969
45	0xbd1079d5	-0.035272438
46	0xbc83d73a	-0.016093839
47	0xbbbe51d3	-0.005808094
48	0x3c2e99ac	0.010656755
49	0x3c4abc51	0.012374
50	0x3cd04492	0.025423322
51	0xbce61d41	-0.028090121
52	0xbcc12de4	-0.023581453
53	0x3d61f8ce	0.05516892
54	0xbd12d68a	-0.03584913
55	0x3cc5b218	0.024132773
56	0x3ce1dbaa	0.027570564
57	0x3ba2faca	0.004973744
58	0xbc70c8da	-0.014696324
59	0xbc2b69c6	-0.01046223
60	0x3ce218f8	0.027599797
61	0xbd456cad	-0.048199344
62	0xbbb0a8b4	-0.0053912047
63	0xbb47a1ce	-0.0030461433

conv3.1.running_var f4 [64]
0	0x3f601689	0.87534386
1	0x3f6674f5	0.9002221
2	0x3f5a1d97	0.852014
3	0x3f61d119	0.8820968
4	0x3f5b317d	0.8562239
5	0x3f788920	0.97084236
6	0x3f6c0cb2	0.9220687
7	0x3f65f18c	0.89821696
8	0x3f7b5fa0	0.9819279
9	0x3f6a69e4	0.91567826
10	0x3f5fd845	0.87439376
11	0x3f5d5de2	0.8647138
12	0x3f5ab3bf	0.8543052
13	0x3f5f5443	0.8723795
14	0x3f59bc1f	0.85052675
15	0x3f5a3f14	0.852525
16	0x3f681e20	0.9067097
17	0x3f57f903	0.84364337
18	0x3f5f1594	0.871423
19	0x3f5e8fcb	0.8693816
20	0x3f5b4165	0.8564666
21	0x3f5715e6	0.8401779
22	0x3f5fb9ed	0.87393075
23	0x3f5be136	0.8589052
24	0x3f612e90	0.87961674
25	0x3f753a44	0.9579203
26	0x3f571005	0.8400882
27	0x3f6496a8	0.89292383
28	0x3f6e790b	0.93153447
29	0x3f623f3a	0.88377726
30	0x3f5e129e	0.8674716
31	0x3f5b70d7	0.85719055
32	0x3f7429f0	0.9537649
33	0x3f584f4b	0.8449599
34	0x3f5fc0ee	0.8740376
35	0x3f694e89	0.9113546
36	0x3f5bc0a2	0.8584081
37	0x3f6526e3	0.8951246
38	0x3f61ef75	0.8825601
39	0x3f61ba79	0.8817516
40	0x3f5ecfc8	0.870358
41	0x3f656ec6	0.8962215
42	0x3f5b4ea3	0.85666865
43	0x3f5c8f9e	0.8615664
44	0x3f5fa63e	0.8736304
45	0x3f62f0fa	0.8864895
46	0x3f58dac7	0.8470883
47	0x3f5ce1d7	0.86282104
48	0x3f588ee1	0.84593016
49	0x3f5dbbb1	0.8661452
50	0x3f5c21e4	0.85989213
51	0x3f74ca41	0.95621115
52	0x3f5a81b6	0.85354173
53	0x3f82a985	1.0207983
54	0x3f6e5453	0.9309742
55	0x3f5e676e	0.8687657
56	0x3f6dc217	0.9287428
57	0x3f595bb9	0.8490558
58	0x3f61e6bb	0.8824269
59	0x3f5ece82	0.87033856
60	0x3f6ba97d	0.92055494
61	0x3f73066e	0.94931686
62	0x3f5d28e6	0.8639053
63	0x3f5996ef	0.8499593

conv4.0.weight f4 [128, 64, 3, 3]
0	0x3cb344fc	0.02188348
1	0xbd29fafa	-0.041499116
2	0x3aab6250	0.0013075564
3	0xbccc41d0	-0.024933726
4	0xbd10cbf1	-0.035350744
5	0x3ca8e073	0.020614838
6	0xbb70924c	-0.0036708293
7	0xbce77f98	-0.028259084
8	0x3b9d25a1	0.0047957455
9	0x3b70b105	0.0036726606
10	0xbcd35e61	-0.02580184
11	0x3b0d73cf	0.002158392
12	0x3c733c6b	0.014845948
13	0xbc31c914	-0.010851163
14	0xbd120f99	-0.035659406
15	0xbc6c82ae	-0.014435453
16	0xbd0d35ac	-0.034475014
17	0xbc830cc6	-0.015997302
18	0xbb9f69d1	-0.004864909
19	0xbc963e8b	-0.01834037
20	0x3bae75eb	0.0053241155
21	0xbcc01711	-0.023448499
22	0x3ccd97b9	0.025096761
23	0x3ad7ea22	0.0016472975
24	0xbb01ad9a	-0.0019787312
25	0xbcaef68c	-0.021357797
26	0xbc85950b	-0.01630642
27	0xbd050150	-0.032471955
28	0x3c54d30c	0.012989771
29	0xbcfb872f	-0.030704109
30	0x3c74455e	0.014909117
31	0x3d13a73f	0.03604817
32	0xbd0000b1	-0.03125066
33	0xbcf53f46	-0.029937398
34	0x3c5a0260	0.01330623
35	0x3d0c5597	0.034261312
36	0xbc438bd5	-0.011935194
37	0xbd0e1d4b	-0.034695905
38	0x3cb936c5	0.022609124
39	0xbccfe049	-0.025375502
40	0x3cc199e8	0.023632959
41	0x3c2f7cd5	0.010710915
42	0xbcadc13a	-0.021210302
43	0x3cbc03d9	0.022951053
44	0xbccf6722	-0.025317732
45	0x3ccc4dba	0.024939407
46	0xbcf927e0	-0.030414522
47	0x3cae7379	0.021295296
48	0x3bace740	0.0052765906
49	0xbcc4e69d	-0.024035746
50	0xbd183281	-0.03715754
51	0xbd0395e2	-0.03212536
52	0x3ca8db3d	0.020612353
53	0x3cb9051a	0.02258544
54	0xbcde9738	-0.027171716
55	0xbb698c84	-0.0035636732
56	0x3c12d054	0.008960802
57	0x3ccf63c1	0.025316121
58	0xbc8b4d5d	-0.017004663
59	0xbd1634e8	-0.03667155
60	0xbc173bd0	-0.009230569
61	0x3d18d901	0.037316326
62	0x3b3ddbe2	0.0028970172
63	0x3b60263a	0.0034202472
64	0x3c825b22	0.015912596
65	0x3ce73546	0.028223645
66	0x3d068298	0.032839388
67	0xbcf5c789	-0.030002372
68	0xbba77ebe	-0.0051115444
69	0x3a4eb015	0.00078845146
70	0x3c2dd44a	0.010609696
71	0x3d0f3122	0.034958966
72	0xbd0f9e8d	-0.035063315
73	0xbced64f2	-0.028978799
74	0xbd1e6645	-0.03867175
75	0x3c97e06f	0.018539635
76	0x3cfdc888	0.03097941
77	0x3c14091b	0.009035374
78	0x3cd30c0f	0.025762586
79	0xbd2ad9cc	-0.041711614
80	0xbb9176e0	-0.00443922
81	0xbbe0a455	-0.0068555274
82	0x3ca6c7af	0.020358888
83	0x3d22e8bd	0.039772738
84	0x3c982ff6	0.018577557
85	0x3c9c8d64	0.019110389
86	0xbcdb0845	-0.026737342
87	0xbc64edb5	-0.013972689
88	0x3cd7deb2	0.026351307
89	0x3ca68a2b	0.020329555
90	0xbcaaacb8	-0.020834312
91	0xbcf5c33d	-0.030000323
92	0x3d1c9d36	0.038235866
93	0xbd15e8f6	-0.036599122
94	0xbd235390	-0.039874613
95	0x3ce4b1fb	0.027916899
96	0xbcb7e98f	-0.022450237
97	0xbb7e29b8	-0.003878219
98	0x3c96cac4	0.018407233
99	0x3c5cd890	0.013479367
100	0xbc2b32e6	-0.010449147
101	0xbca0f12d	-0.019646252
102	0xbcebccc3	-0.028784161
103	0xbc8e7fd0	-0.01739493
104	0xbb8931db	-0.0041868514
105	0x3c9e2f6b	0.01930972
106	0xbc78a5d2	-0.015176253
107	0xbb44df14	-0.0030040191
108	0xbc51d3b4	-0.012806822
109	0x3c691090	0.01422514
110	0xbcdb68c2	-0.02678335
111	0x3c139b3a	0.009009177
112	0xbd27526a	-0.04085008
113	0xbcb3da1d	-0.02195459
114	0x3cf172b3	0.029473638
115	0x3c99645b	0.018724611
116	0xb9d74e28	-0.00041066227
117	0xbd1e4931	-0.03864402
118	0x3d156890	0.03647667
119	0x3a4dbcee	0.0007848282
120	0x3c789b4e	0.015173746
121	0x3cd97dfa	0.026549328
122	0xbcc70313	-0.024293458
123	0x3d0f0b34	0.034922794
124	0xbc191647	-0.00934369
125	0xbc2b213f	-0.010444938
126	0x3cb6479d	0.022250945
127	0xbcc82706	-0.02443267
128	0x3d1f61c3	0.038911592
129	0xbc275d02	-0.010215046
130	0xbce9a5fc	-0.02852153
131	0xbc2ac368	-0.010422565
132	0x3c7c1afc	0.015387293
133	0x3ca76d3f	0.020437835
134	0xbc62ab5a	-0.013834799
135	0xbaa8c3b6	-0.0012875709
136	0xbcfdeffa	-0.030998219
137	0xbc3b984a	-0.011449883
138	0xbc9d0cea	-0.019171197
139	0xbcfe54ab	-0.031046232
140	0x3c654cd0	0.013995364
141	0x3c9af2ff	0.018914698
142	0xbcb94f28	-0.022620752
143	0xbc92162d	-0.01783284
144	0xbd20d3e7	-0.039264586
145	0x3c0b55a2	0.008504303
146	0xbc87c751	-0.016574534
147	0x3c577399	0.013150119
148	0x3d1ec1c5	0.03875901
149	0xbccd0928	-0.02502878
150	0x3d1cdbc8	0.038295537
151	0x3d0c24ca	0.034214772
152	0xbd1b3d5a	-0.037900306
153	0xbb7c1b6e	-0.0038468498
154	0xbd085f08	-0.033293754
155	0x3c149267	0.009068108
156	0xbcc5a9e5	-0.024128864
157	0x3cb5d210	0.022194892
158	0xbaacfbd6	-0.0013197612
159	0xbcdb480b	-0.026767751
160	0xbd03c416	-0.032169424
161	0x3d195be7	0.03744116
162	0xbcc6bf52	-0.02426115
163	0x3c98335c	0.018579178
164	0xbd154c89	-0.036449943
165	0xbcabf3fe	-0.020990368
166	0xbd0c1a20	-0.034204602
167	0xbc67c416	-0.014145872
168	0xba1765c1	-0.00057753554
169	0xbd073230	-0.033006847
170	0xbd1829c7	-0.037149217
171	0xbd1953ca	-0.037433423
172	0x3d08feaf	0.03344601
173	0xbc551de9	-0.013007619
174	0xbd0b1131	-0.033951942
175	0x3cbe27dc	0.023212366
176	0x3aaf3dfd	0.0013369914
177	0x3cc957f8	0.02457808
178	0xbd1ed8b1	-0.03878087
179	0x3c71dd81	0.014762283
180	0xbc0b42a6	-0.008499777
181	0x3c2d3297	0.010571144
182	0x3cd6917e	0.026192423
183	0xbc9c0a88	-0.01904799
184	0x3d0238b6	0.031792365
185	0xbce7c28f	-0.028291015
186	0xba3c9fdc	-0.0007195452
187	0x3ca75957	0.020428343
188	0x3ce432d6	0.027856272
189	0x3d0e143e	0.034687273
190	0x3d008fd7	0.031387176
191	0xbb39cb55	-0.0028349955
192	0xbd0042b3	-0.03131361
193	0x3b0b21fd	0.0021229975
194	0xbd1b64bd	-0.03793787
195	0x3d03384d	0.032036114
196	0xbb4e7dcf	-0.0031508093
197	0x3c050876	0.008119693
198	0x3cf32965	0.029682824
199	0xbd027528	-0.03185001
200	0xbc7984fb	-0.015229459
201	0x3d14403a	0.036194064
202	0x3d16cb4b	0.03681497
203	0xbcf784f5	-0.030214766
204	0xbd1fc87d	-0.03900956
205	0x3d1f8f4c	0.038955018
206	0xbd1a0a07	-0.03760722
207	0x3c96c385	0.018403778
208	0xbd183e78	-0.03716895
209	0xbc82ab35	-0.015950778
210	0x3ca3d398	0.019998357
211	0x3d0dd51a	0.034627058
212	0x39e1db56	0.00043078762
213	0xbc79f4ad	-0.015256089
214	0xbd034a7d	-0.03205346
215	0xba1a6d5d	-0.000589093
216	0x3cf16d48	0.029471055
217	0x3c33870a	0.010957489
218	0xbd0e27d0	-0.034705937
219	0xbcfbd747	-0.0307423
220	0x3d1725f8	0.036901444
221	0x3c7cc925	0.015428816
222	0xbcee59b1	-0.029095503
223	0x3d0e8514	0.034794882
224	0x3d1ec01b	0.038757425
225	0xbc3fd2e9	-0.011708
226	0xbd062497	-0.03274974
227	0x3d0d0096	0.034424387
228	0x3c47a028	0.01218418
229	0x3d0c63c3	0.034274828
230	0x3cbd206a	0.023086745
231	0xbba5bbaa	-0.0050577717
232	0xbb210182	-0.002456755
233	0x3c4c15dc	0.012456384
234	0x3b763654	0.0037569003
235	0xbd0e96d0	-0.034811795
236	0x3c9f13c0	0.019418597
237	0x3ce335b2	0.027735565
238	0x3c969425	0.018381188
239	0x3cb552b1	0.022134157
240	0x3d00a90d	0.03141122
241	0xbc868323	-0.016419953
242	0xbb61b486	-0.0034439876
243	0x3c347f53	0.011016685
244	0x3ce00420	0.027345717
245	0x3c9f48d5	0.019443909
246	0xbc6a29b8	-0.014292173
247	0x3bfe6c24	0.007764356
248	0x3c142b8e	0.009043587
249	0xbc3455c9	-0.011006781
250	0xbd1bb7ef	-0.03801721
251	0x3c86d2c0	0.016457915
252	0x3c642f26	0.013927257
253	0x3d239053	0.03993256
254	0xbd205a34	-0.039148524
255	0xbc5dd5ea	-0.013539771

conv4.0.bias f4 [128]
0	0xbb6ca62f	-0.0036109795
1	0xbc857088	-0.01628901
2	0x3d1441ea	0.036195673
3	0xbcae37ce	-0.021266844
4	0x3c0df6a0	0.008664757
5	0xbd175a15	-0.036951143
6	0x3d20748e	0.039173655
7	0xbca23931	-0.019802662
8	0xbc80985c	-0.01569765
9	0x3cbe335d	0.023217851
10	0xbba3947b	-0.0049920655
11	0x3c18ad7b	0.009318705
12	0xbc84c5df	-0.016207634
13	0xbc6ef070	-0.014583692
14	0xbac513d8	-0.0015035821
15	0x3cd06ef4	0.025443532
16	0xbd285357	-0.041095104
17	0xbcee7e67	-0.029113008
18	0xbbb1a281	-0.0054209833
19	0xbc99dbb6	-0.018781524
20	0xbd0558f1	-0.032555524
21	0x3d109b82	0.035304554
22	0x3d069262	0.032854445
23	0x3b0f7d19	0.0021894632
24	0xbcfd8712	-0.030948196
25	0xbc82cd4b	-0.015967032
26	0x3d27e87e	0.040993206
27	0x3d235de8	0.039884478
28	0xbd226a12	-0.039651938
29	0xbcedf14c	-0.029045723
30	0xbd0acbea	-0.033885874
31	0x3bc235f6	0.005926843
32	0x3cfdf770	0.031001776
33	0x3c99feb9	0.018798219
34	0x3cefec1d	0.029287392
35	0x3c48f1c5	0.012264674
36	0x3ca1ba62	0.019742195
37	0x3c9de215	0.019272843
38	0xbc5aaeb4	-0.0133473165
39	0x3c53315b	0.012890185
40	0x3a33a0c1	0.00068522623
41	0x3ca62338	0.020280465
42	0x3d0850b9	0.033280108
43	0x3cbbbc43	0.022916919
44	0xbc058b6b	-0.008150916
45	0x3c7dadc5	0.015483324
46	0x3ca2ce3e	0.019873735
47	0x3b8875a1	0.004164413
48	0xbb0fea31	-0.0021959657
49	0x3c6b6a24	0.014368568
50	0xbcb2cda3	-0.02182657
51	0xbcc72c1c	-0.024313025
52	0x3d12bf69	0.035827074
53	0x3caf3eea	0.021392304
54	0x3d298d14	0.04139431
55	0x3cc077a5	0.023494551
56	0x3bca3682	0.0061710486
57	0xbcfb750c	-0.03069546
58	0xbcdc59f8	-0.02689837
59	0x3c9d34dc	0.019190244
60	0x3cccb3e4	0.024988122
61	0x3c0ba9c4	0.008524362
62	0x3c0fcdb9	0.008777075
63	0xbd0d6706	-0.03452208
64	0xbb3d22fe	-0.0028859968
65	0xba6e1581	-0.0009082184
66	0xbcd5e890	-0.026111871
67	0xbce2d011	-0.027687104
68	0xbc702ec9	-0.014659592
69	0x3d15b812	0.036552496
70	0xbc8b9439	-0.017038452
71	0x3bd3157f	0.0064417715
72	0xbba23567	-0.0049502137
73	0x3d23e6ce	0.040015034
74	0xbbb6f855	-0.0055838027
75	0xbce8ee93	-0.028434074
76	0xba117198	-0.0005548238
77	0xbb8b538d	-0.0042519034
78	0xbd0fc01e	-0.035095327
79	0x3d24d187	0.040238883
80	0xbc91e41c	-0.017808966
81	0xbcc28ce2	-0.023748819
82	0x3d12a5e4	0.035802737
83	0xbcbf75ec	-0.02337166
84	0xbd1411cc	-0.036149785
85	0x3ab6b5d0	0.0013939682
86	0x3ca7e811	0.0204964
87	0x3ba0fa97	0.004912685
88	0x3c849dd2	0.016188536
89	0xbc5953e0	-0.013264626
90	0x3af80ad4	0.0018924125
91	0xbd0dd4cd	-0.03462677
92	0x3d053a7f	0.03252649
93	0xbc4e1583	-0.012578371
94	0xbd25ec4d	-0.040508557
95	0xbcb775d1	-0.022395046
96	0xbb2d171a	-0.0026411475
97	0x3c9428f7	0.01808594
98	0x3bc5d89e	0.0060377857
99	0x3c821863	0.01588077
100	0x3bd24148	0.0064164735
101	0x3cc5cf8c	0.024146818
102	0xbcc1f524	-0.023676462
103	0xbce0c797	-0.027438922
104	0x3d03df1a	0.032195188
105	0xbc7e041d	-0.01550391
106	0x3d1efd75	0.038815934
107	0x3a291e5e	0.00064513634
108	0xbcc5df92	-0.024154458
109	0x3c7c2522	0.0153897125
110	0xbc594285	-0.013260488
111	0xbb129029	-0.0022363758
112	0xbd0b3090	-0.03398186
113	0x3d1dcf7c	0.03852795
114	0xbcc56897	-0.024097724
115	0x3b92808d	0.004470891
116	0xbcc7310f	-0.024315385
117	0xbc8c390c	-0.017117046
118	0xbc0fe5c3	-0.008782807
119	0x3cf2100e	0.029548671
120	0x3b0d36ba	0.0021547512
121	0xbd2acdea	-0.04170028
122	0xbcbdd0e7	-0.023170901
123	0xbcbc9ede	-0.023024973
124	0x3a72d046	0.00092626025
125	0xbd25dcb1	-0.04049367
126	0xbd173966	-0.036919974
127	0x3c849d81	0.016188385

conv4.1.weight f4 [128]
0	0x3f7f9d2c	0.998492
1	0x3f803ac7	1.0017937
2	0x3f8031ae	1.0015161
3	0x3f7f96e6	0.9983963
4	0x3f8032ce	1.0015504
5	0x3f80338e	1.0015733
6	0x3f7fa1fb	0.9985654
7	0x3f7f8abf	0.99821085
8	0x3f8040c5	1.0019766
9	0x3f7fa82f	0.99866
10	0x3f800f10	1.0004597
11	0x3f801cfb	1.0008844
12	0x3f7f7f04	0.99803185
13	0x3f8034a9	1.0016071
14	0x3f80344a	1.0015957
15	0x3f7f9a61	0.9984494
16	0x3f7f94c7	0.9983639
17	0x3f7f8137	0.9980654
18	0x3f8034fb	1.0016168
19	0x3f802be9	1.00134
20	0x3f804029	1.001958
21	0x3f802f36	1.0014408
22	0x3f7f977b	0.99840516
23	0x3f7f87f1	0.99816805
24	0x3f803317	1.0015591
25	0x3f803438	1.0015936
26	0x3f7f959d	0.99837667
27	0x3f7f9865	0.9984191
28	0x3f802989	1.0012676
29	0x3f8033c5	1.0015799
30	0x3f803d68	1.001874
31	0x3f7fdd82	0.9994737
32	0x3f8024a7	1.0011185
33	0x3f801d27	1.0008897
34	0x3f8037c3	1.0017017
35	0x3f8031a2	1.0015147
36	0x3f803ef8	1.0019217
37	0x3f7f9219	0.998323
38	0x3f7f8e37	0.9982638
39	0x3f7fd3e2	0.9993268
40	0x3f802fd6	1.0014598
41	0x3f7f8367	0.9980988
42	0x3f803cd4	1.0018563
43	0x3f7f8b24	0.99821687
44	0x3f7f8094	0.9980557
45	0x3f803d9b	1.00188
46	0x3f7fba58	0.99893713
47	0x3f801f35	1.0009524
48	0x3f7f9601	0.9983826
49	0x3f802b2c	1.0013175
50	0x3f802c80	1.001358
51	0x3f7f9037	0.9982943
52	0x3f802e5c	1.0014148
53	0x3f80360a	1.0016491
54	0x3f7f8d38	0.9982486
55	0x3f80273a	1.0011971
56	0x3f7fc07e	0.99903095
57	0x3f7f8ab6	0.9982103
58	0x3f7fdb26	0.9994377
59	0x3f7f984d	0.9984177
60	0x3f7fc022	0.99902546
61	0x3f7f7d82	0.99800885
62	0x3f7f7e46	0.9980205
63	0x3f8026d3	1.0011848
64	0x3f7f99a3	0.99843806
65	0x3f7f7d07	0.9980015
66	0x3f8038c7	1.0017327
67	0x3f803e27	1.0018967
68	0x3f7f9917	0.9984297
69	0x3f7f919f	0.99831575
70	0x3f7f8759	0.998159
71	0x3f804135	1.00199
72	0x3f7fe89e	0.9996432
73	0x3f800f23	1.0004619
74	0x3f7f7d08	0.9980016
75	0x3f7fc832	0.9991485
76	0x3f7fd602	0.99935925
77	0x3f801d21	1.000889
78	0x3f7f872f	0.9981565
79	0x3f803fc1	1.0019456
80	0x3f803016	1.0014675
81	0x3f7f92ee	0.9983357
82	0x3f7f8383	0.99810046
83	0x3f804109	1.0019847
84	0x3f7f7d09	0.99800164
85	0x3f7f85fd	0.99813825
86	0x3f8009a4	1.0002942
87	0x3f8020ad	1.0009972
88	0x3f80206b	1.0009893
89	0x3f7f89be	0.9981955
90	0x3f7f90e2	0.9983045
91	0x3f80226e	1.0010507
92	0x3f801f78	1.0009604
93	0x3f7f9451	0.9983569
94	0x3f7fb5a8	0.9988656
95	0x3f8025e5	1.0011564
96	0x3f7fa408	0.99859667
97	0x3f803301	1.0015565
98	0x3f8011f7	1.0005482
99	0x3f802749	1.0011989
100	0x3f7fe588	0.9995961
101	0x3f802fcb	1.0014585
102	0x3f801325	1.0005842
103	0x3f7feb36	0.9996828
104	0x3f8026c2	1.0011828
105	0x3f7fd5d9	0.9993568
106	0x3f7f7f1c	0.9980333
107	0x3f7f8620	0.99814034
108	0x3f802ae5	1.001309
109	0x3f7fa239	0.9985691
110	0x3f7f9822	0.9984151
111	0x3f7fdbbc	0.99944663
112	0x3f7feb56	0.9996847
113	0x3f801927	1.0007676
114	0x3f7fa673	0.99863356
115	0x3f7fa448	0.9986005
116	0x3f80361c	1.0016513
117	0x3f7f7d66	0.9980072
118	0x3f80352a	1.0016224
119	0x3f8033e0	1.0015831
120	0x3f7f9b9a	0.99846804
121	0x3f7f8396	0.9981016
122	0x3f7fe0c4	0.9995234
123	0x3f8008b4	1.0002656
124	0x3f7f91dd	0.99831945
125	0x3f802840	1.0012283
126	0x3f8031de	1.0015218
127	0x3f7fa30b	0.9985816

conv4.1.bias f4 [128]
0	0x3b0326e1	0.0020012187
1	0x3aeb5b6b	0.0017956322
2	0xbb007c7d	-0.001960545
3	0xbae8e11b	-0.0017767282
4	0xbb030360	-0.0019991025
5	0x3ae7b022	0.0017676393
6	0x3a693938	0.0008896771
7	0xbb027ecd	-0.0019912005
8	0x3b0305e5	0.0019992527
9	0x3b02cc24	0.0019958103
10	0xbaf9bc57	-0.0019053322
11	0x39e5a9d8	0.00043804827
12	0xbb03281a	-0.0020012916
13	0x3afdacfc	0.0019353922
14	0xbaf534dc	-0.001870777
15	0xbacf0c48	-0.0015796507
16	0xbaefb728	-0.0018288838
17	0xbb006f6f	-0.001959767
18	0x3aa61199	0.001267004
19	0x3a873ee1	0.0010318422
20	0x3b02f877	0.0019984522
21	0x3afbb159	0.0019202634
22	0xb9c7ec64	-0.00038132363
23	0x3b029ae6	0.0019928752
24	0xbb00c160	-0.001964651
25	0x399072b2	0.00027551275
26	0xbaf472cf	-0.0018649938
27	0x3b032151	0.0020008872
28	0xbb0328dd	-0.002001337
29	0x3aa29b1a	0.0012405843
30	0x3afa2b0c	0.0019086315
31	0x3b00e5eb	0.0019668292
32	0x3b02cb62	0.0019957651
33	0x39ef9f20	0.0004570419
34	0x399398e0	0.00028151926
35	0xbb0107e1	-0.0019688534
36	0x3b032265	0.0020009514
37	0xbaa8febf	-0.0012893303
38	0x3a9dfcf9	0.0012053541
39	0xba26cd31	-0.00063629734
40	0xbb0280de	-0.0019913237
41	0xbb00b510	-0.0019639172
42	0x3aeb1f3d	0.0017938387
43	0xbafd635c	-0.001933198
44	0xbaf994f2	-0.0019041582
45	0xbac56f00	-0.0015062988
46	0x3aeb7b91	0.0017965903
47	0xbabd0adc	-0.0014422792
48	0xbabe716d	-0.0014529653
49	0x39f1d2aa	0.0004612406
50	0xbaf26704	-0.0018493836
51	0xbabdd459	-0.001448284
52	0x3a8e5125	0.0010857923
53	0x3affa4f2	0.0019504114
54	0xbaf1ef8a	-0.0018458229
55	0xbafa4876	-0.0019095081
56	0x3b02eb0e	0.001997653
57	0xba5debc2	-0.00084656116
58	0x3a5dd462	0.00084621285
59	0xbab6a387	-0.0013934233
60	0x3b0074a8	0.0019600783
61	0x3a5b4772	0.0008364833
62	0xbad67660	-0.0016362183
63	0x3a32b538	0.0006817165
64	0xba91da93	-0.0011127762
65	0xbafcaa96	-0.0019276913
66	0xbb031885	-0.0020003628
67	0xbafc1824	-0.0019233269
68	0x3af80df4	0.0018925057
69	0x39a82b20	0.00032075588
70	0xbaeb02b8	-0.0017929887
71	0x3af9ca90	0.0019057561
72	0xba87a9b1	-0.0010350255
73	0xbaf2a3d4	-0.0018511959
74	0xba9e4330	-0.0012074467
75	0x3b02b426	0.0019943803
76	0xb9f26e96	-0.0004624023
77	0x3a2ae926	0.0006519727
78	0xbb02015e	-0.001983724
79	0x3b012b59	0.0019709675
80	0xbaeb719e	-0.0017962938
81	0x3b030f84	0.0019998262
82	0x3a8d60e2	0.001078632
83	0x3b02aaa2	0.001993813
84	0x3a8063bd	0.0009795349
85	0x39d63190	0.00040854188
86	0xbb0143ea	-0.0019724318
87	0x3acf5ba9	0.0015820164
88	0xbaf8470c	-0.0018942072
89	0xbaf8d812	-0.0018985292
90	0x3a9656e8	0.0011469992
91	0x39fcc386	0.00048210862
92	0x3a071890	0.00051535014
93	0xba543afe	-0.0008095949
94	0x3afadbdb	0.0019139008
95	0xbafbe4d2	-0.0019217974
96	0x3b025e75	0.0019892727
97	0x3a8b562b	0.0010630538
98	0xbaf5b306	-0.001874537
99	0x3aa36df3	0.001246868
100	0xbacbec10	-0.0015558023
101	0x3b02e876	0.0019974983
102	0x3b0152ec	0.0019733263
103	0x3b0298c2	0.0019927477
104	0xbafd05f0	-0.0019304138
105	0x3afaddbe	0.0019139571
106	0x3a3bdb58	0.00071661687
107	0xbafe9842	-0.0019424038
108	0xbb0328f0	-0.0020013414
109	0x3af4b3b4	0.0018669278
110	0x3a384dea	0.0007030653
111	0x3b004883	0.001957447
112	0x3b030514	0.001999204
113	0x3a9e8c97	0.0012096342
114	0x3a409df4	0.00073477556
115	0x3aeebf99	0.001821506
116	0x3ada9858	0.0016677482
117	0xbb0063a3	-0.0019590638
118	0x3ab0e451	0.0013495778
119	0x3a68049f	0.0008850786
120	0x3b03071a	0.0019993247
121	0xbaf35fb6	-0.0018567953
122	0x3aeddba2	0.0018147121
123	0xbb002a65	-0.001955652
124	0xbaf6ac88	-0.0018819729
125	0x3b022bae	0.001986246
126	0xbb00b452	-0.001963873
127	0xbaecb291	-0.0018058588
