artifact/02_12_2024_10_33_11/model_training_artifacts/model.pt (torch, 440907 bytes, 26 tensors)

conv1.0.weight f4 [16, 1, 3, 3]
-0.06899738 0.17091447 -0.23351449 -0.22231892 -0.3075554 0.1491132 0.2526688 0.08359185
0.27180806 -0.027794182 0.15722331 0.14126165 -0.18970835 -0.2030477 0.06755947 0.039051622
0.23551016 0.23920256 0.021837465 0.052777175 -0.03170045 -0.04600542 0.2950695 0.25053796
-0.31670812 -0.25290424 0.028721754 0.10681384 0.0814785 -0.17439492 0.20897797 0.27669415
0.15088859 -0.28758428 0.056091364 0.2683437 -0.13510628 -0.2810858 -0.022267703 -0.08375518
-0.15061705 -0.2846292 -0.27593693 0.20533222 -0.11173125 -0.10127254 -0.017369336 -0.22834718
-0.15895067 0.15438397 -0.08950188 -0.056187276 0.13934255 -0.32181144 0.14072646 -0.14526089
0.29593578 0.05933176 -0.19824404 0.33259946 0.26631477 0.00735711 0.107211776 -0.12034905
0.25605702 0.028115861 0.03867558 0.12740147 0.14028113 0.25594157 -0.17829636 0.26584736
-0.083103254 -0.29319483 0.23801093 0.067855805 -0.059306923 -0.29266107 -0.06057199 0.2181014
-0.283359 -0.07143073 -0.07673257 0.29807135 -0.277383 -0.20931959 0.03936755 0.052835666
-0.32489973 -0.24271028 0.30717826 0.009244 0.23088479 0.054541714 0.21074118 -0.14145899
0.16861661 -0.22932342 0.31472996 0.19684345 -0.060352877 0.049730573 -0.33073533 -0.03487405
0.21645585 0.19512063 0.19040194 -0.16508488 0.049736217 0.037625007 0.26083955 0.32012096
-0.08955918 -0.25515863 0.013955384 -0.15866007 0.13122825 -0.21714725 0.0340403 0.14088663
0.32571125 -0.086677626 -0.22423936 0.029011484 0.005009666 -0.21875851 0.060064428 -0.27260795
0.23915285 -0.2554679 0.12920277 0.027377967 -0.12404071 -0.21805322 -0.1314831 0.0013894727
0.07531873 0.19744581 0.15482633 -0.1937041 -0.19847223 -0.15943182 -0.18554062 0.07423021
00000000: 804e 8dbd 3404 2f3e 6c1e 6fbe 92a7 63be
00000010: e777 9dbe 21b1 183e ce5d 813e 3432 ab3d
00000020: 6d2a 8b3e a0b0 e3bc 26ff 203e e5a6 103e
00000030: e842 42be bceb 4fbe 9f5c 8a3d 98f4 1f3d
00000040: 9329 713e 84f1 743e 7ce4 b23c e12c 583d
00000050: 55d8 01bd 2e70 3cbd 5913 973e 8346 803e
00000060: 9127 a2be aa7c 81be e249 eb3c 37c1 da3d
00000070: 33de a63d 9594 32be 52fe 553e dbaa 8d3e
00000080: 8a82 1a3e 3f3e 93be 0fc0 653d 5864 893e
00000090: 4d59 0abe 7aea 8fbe c26a b6bc d687 abbd
000000a0: 5b3b 1abe ebba 91be 9b47 8dbe 9c42 523e
000000b0: 5bd3 e4bd fa67 cfbd 234a 8ebc d8d3 69be
000000c0: f7c3 22be d516 1e3e c34c b7bd a124 66bd
000000d0: d0af 0e3e 78c4 a4be 991a 103e 45bf 14be
000000e0: e584 973e dc05 733d 7c00 4bbe 7a4a aa3e
000000f0: 695a 883e e913 f13b d991 db3d 9079 f6bd
00000100: e819 833e 3c53 e63c 496a 1e3d 8875 023e
00000110: dba5 0f3e c60a 833e 5293 36be 251d 883e
00000120: 0a32 aabd a21d 96be 23b9 733e fcf7 8a3d
00000130: d1eb 72bd acd7 95be 561a 78bd f955 5f3e
00000140: 6e14 91be 464a 92bd f725 9dbd cf9c 983e
00000150: 2505 8ebe e057 56be de3f 213d 366a 583d
00000160: 4259 a6be 0b89 78be 7846 9d3e 2574 173c
00000170: 106d 6c3e 2267 5f3d 89cc 573e a0da 10be
00000180: d5a9 2c3e c2d3 6abe 4924 a13e 5491 493e
00000190: 9434 77bd 49b2 4b3d 2456 a9be 18d8 0ebd
000001a0: 9aa6 5d3e b4cd 473e baf8 423e 030c 29be
000001b0: 34b8 4b3d ae1c 1a3d c38c 853e e5e6 a33e
000001c0: ce6a b7bd 27a4 82be 1fa5 643c c977 22be
000001d0: b360 063e d95b 5ebe d76d 0b3d 9644 103e
000001e0: a0c3 a63e 0a84 b1bd 019f 65be 7ea9 ed3c
000001f0: 2028 a43b 3b02 60be 1e06 763d 4593 8bbe
00000200: 7ce4 743e b0cc 82be bb4d 043e c247 e03c
00000210: 0e09 febd 5849 5fbe 81a3 06be f81e b63a
00000220: b540 9a3d 3c2f 4a3e cb8a 1e3e 5e5a 46be
00000230: 4e3c 4bbe 1842 23be 5cfe 3dbe 0206 983d

conv1.0.bias f4 [16]
0.24967058 0.106265895 0.26358625 0.25652683 0.041752078 0.032221287 0.028001472 -0.03495338
0.22051772 0.1360652 0.2179154 0.20642863 0.18587665 -0.31121206 0.13501829 -0.21686132
00000000: a5a9 7f3e efa1 d93d c7f4 863e 7c57 833e
00000010: 3a04 2b3d 78fa 033d 5863 e53c 462b 0fbd
00000020: 66cf 613e ad54 0b3e 3725 5f3e 0762 533e
00000030: 7356 3e3e 3057 9fbe 3c42 0a3e e510 5ebe

conv1.1.weight f4 [16]
1.0025827 0.9971204 1.0032009 1.0020989 0.99766874 1.0026857 0.9983858 0.9970967
1.0031661 1.0031679 0.999213 0.9971295 1.0023719 0.99687755 0.9971531 0.99695396
00000000: a154 803f 4843 7f3f e368 803f c744 803f
00000010: 3867 7f3f 0158 803f 3696 7f3f bb41 7f3f
00000020: bf67 803f ce67 803f 6ccc 7f3f e143 7f3f
00000030: b94d 803f 5e33 7f3f 6d45 7f3f 6038 7f3f

conv1.1.bias f4 [16]
-0.003435488 0.0006568087 -0.0032504427 -0.0012438407 0.0013491665 -0.003949947 -0.0031477725 -0.0038616667
0.0009309669 -0.0022237366 -0.0034871728 -0.0037636426 -0.0037546186 0.0015080189 0.0016596281 -0.0032105513
00000000: ed25 61bb b02d 2c3a 6105 55bb 5e08 a3ba
00000010: 84d6 b03a 8f6e 81bb dc4a 4ebb 0414 7dbb
00000020: 220c 743a 1cbc 11bb 0d89 64bb 72a7 76bb
00000030: 0c10 76bb b8a8 c53a e187 d93a 1d68 52bb

conv1.1.running_mean f4 [16]
1.5274148 7.2302675 -0.019143004 10.490624 -17.431633 -10.559116 13.141027 12.472698
-8.383458 -12.6050625 14.265707 3.9815383 4.7556734 -3.2013063 -8.161397 -3.5621686
00000000: 5482 c33f 5a5e e740 cad1 9cbc 99d9 2741
00000010: fc73 8bc1 24f2 28c1 a641 5241 2c90 4741
00000020: a522 06c1 56ae 49c1 5640 6441 86d1 7e40
00000030: 7a2e 9840 34e2 4cc0 1595 02c1 92fa 63c0

conv1.1.running_var f4 [16]
18849.232 14836.957 18272.756 27780.81 38523.098 22360.227 35518.59 26134.096
24829.715 37765.203 27047.85 10762.342 14947.257 15320.681 18875.076 11434.457
00000000: 7742 9346 d4d3 6746 83c1 8e46 9f09 d946
00000010: 197b 1647 74b0 ae46 97be 0a47 312c cc46
00000020: 6efb c146 3485 1347 b34f d346 5e29 2846
00000030: 078d 6946 b962 6f46 2776 9346 d4a9 3246

conv2.0.weight f4 [32, 16, 3, 3]
-0.08066922 0.028359933 -0.021137329 -0.04558727 0.004879539 0.04688047 0.077310376 0.044883374
-0.054629326 0.07307284 0.028204517 -0.014888958 0.026178207 0.0628211 -0.08251353 -0.015299505
0.041752618 -0.015974257 4.0769693e-05 0.049811434 -0.014575295 0.024138559 0.020541344 -0.04764026
0.068398245 0.004543698 0.021125473 -0.027483113 -0.07851092 0.008264636 -0.014635491 -0.008948595
-0.013951192 0.07916977 0.032083873 -0.021838127 -0.08036464 0.05347076 -0.029979343 -0.040206753
-0.027563665 0.056443635 -0.021359576 0.0055717733 -0.021593211 -0.021796927 -0.009862581 -0.062374268
-0.030581051 0.07184339 0.025826696 0.05746034 0.05324392 -0.06111274 -0.029666642 -0.08169211
-0.0404562 0.027667925 0.0141981095 -0.044984758 -0.058552727 -0.009880746 -0.008215331 -0.019851694
0.02910425 0.003674148 0.011957761 -0.035237487 -0.024580855 0.0017284218 0.05572914 0.07878952
0.006700093 -0.06116488 -0.062193528 -0.036293507 -0.06320507 0.05111886 -0.026424434 0.0020247642
0.010275885 0.054318763 -0.043900274 0.02624293 -0.015015936 0.079000995 -0.02084781 -0.061161697
0.041769195 -0.04587647 -0.033473264 0.0018645142 -0.066557795 -0.06478525 0.02276479 -0.06970673
0.074864134 -0.04539116 0.02989067 -0.030662717 0.011414754 -0.018050903 0.027805137 -0.06587824
-0.00023929484 -0.04378915 -0.04558274 0.008370897 0.017391955 0.06718257 0.0016540459 -0.069519706
-0.022108322 -0.05876642 0.06701462 -0.05574804 -0.023023412 0.008487802 -0.06550878 -0.07022483
-0.080309406 0.0074170674 0.015004577 -0.013906769 -0.017498802 0.06121715 0.029029898 -0.075904466
-0.06646658 0.0028034232 -0.053153154 0.06480382 0.018265003 0.044681016 0.032192286 -0.012563533
-0.039644245 -0.043372903 0.022224598 -0.06754323 0.03659347 -0.03239091 -0.040743098 -0.059464753
-0.011084123 -0.07488638 0.0063797 -0.020156898 -0.0609478 0.0108029675 0.0171267 -0.029480398
0.017621383 0.013911998 0.0562385 -0.047522753 0.0033030396 0.04145988 -0.08215345 0.0528422
0.057894252 0.06339172 -0.05430453 0.036391117 -0.07269911 0.05780516 0.06593727 -0.0565663
0.062475435 0.04033696 0.07025062 -0.08217617 -0.07564394 -0.08079166 0.054683875 0.00077846163
0.07740926 -0.012653596 -0.06041117 -0.031238955 -0.0049057216 0.02003196 -0.02519556 0.06479101
-0.06707541 -0.03589206 0.068348736 -0.029321846 -0.084732376 0.039794274 -0.030817106 -0.08038611
0.070871875 0.011003726 0.0038054723 -0.016769195 0.013651407 0.035427544 0.031953678 0.053094234
0.014757114 -0.07656794 0.051609587 -0.07300005 -0.05656974 0.0049201683 -0.035706453 0.015344353
-0.05565511 -0.06387756 0.0020949156 0.051030524 -0.042544972 0.034409158 0.028429635 -0.023365347
0.036651213 -0.06824147 0.06730064 -0.018019855 -0.01949358 -0.046975035 0.014995908 0.06249215
-0.036970977 -0.02073127 0.046449967 0.06996967 0.055352647 -0.021693734 0.033345878 0.015386356
0.008027438 -0.03296384 0.034767468 0.0005830645 0.034415 0.07945756 0.013899876 -0.0018730041
0.050537206 -0.059858866 0.041938826 -0.013922948 0.08077886 0.031560358 -0.04433996 0.019212915
-0.061401583 -0.030054837 0.00090242154 0.036534622 0.07675519 -0.030546535 -0.015937025 -0.030517172
00000000: e735 a5bd 1753 e83c 3128 adbc b8b9 3abd
00000010: 8ae4 9f3b bc05 403d e754 9e3d a1d7 373d
00000020: 00c3 5fbd 37a7 953d 290d e73c d1f0 73bc
00000030: ae73 d63c 59a8 803d dbfc a8bd c6aa 7abc
00000040: cb04 2b3d 72dc 82bc 2000 2b38 1307 4c3d
00000050: 38cd 6ebc 3abe c53c 5246 a83c 6f22 43bd
00000060: 6114 8c3d 4de3 943b 540f ad3c 4424 e1bc
00000070: 55ca a0bd 6568 073c b3c9 6fbc 219d 12bc
00000080: 8a93 64bc c323 a23d 616a 033d dfe5 b2bc
00000090: 3796 a4bd 2804 5b3d 3d97 f5bc d6af 24bd
000000a0: 32cd e1bc 7131 673d 47fa aebc 6c93 b63b
000000b0: 3fe4 b0bc 788f b2bc aa96 21bc 297c 7fbd
000000c0: 1d85 fabc a122 933d 8292 d33c 895b 6b3d
000000d0: 4c16 5a3d 5a51 7abd 7507 f3bc 314e a7bd
000000e0: 66b5 25bd d8a7 e23c 309f 683c f041 38bd
000000f0: fcd4 6fbd dae2 21bc 9899 06bc 05a0 a2bc
00000100: 096c ee3c fac9 703b 7cea 433c 2f55 10bd
00000110: ca5d c9bc 368c e23a 3d44 643d 665c a13d
00000120: 748c db3b 0688 7abd a4be 7ebd 80a8 14bd
00000130: a971 81bd 0262 513d 0e78 d8bc e8b1 043b
00000140: 305c 283c 5a7d 5e3d c6d0 33bd 6afb d63c
00000150: 6705 76bc 46cb a13d 07c9 aabc b084 7abd
00000160: 2d16 2b3d f7e8 3bbd 431b 09bd b762 f43a
00000170: 744f 88bd 21ae 84bd 3a7d ba3c 67c2 8ebd
00000180: 5e52 993d 15ec 39bd 47dd f43c 6130 fbbc
00000190: f304 3b3c 7ddf 93bc 99c7 e33c 2ceb 86bd
000001a0: 38eb 7ab9 405c 33bd f8b4 3abd 1626 093c
000001b0: 9379 8e3c 0497 893d 92cc d83a 5960 8ebd
000001c0: 831c b5bc 0fb5 70bd f63e 893d 0f58 64bd
000001d0: 989b bcbc 6c10 0b3c 7829 86bd 09d2 8fbd
000001e0: 4279 a4bd df0a f33b c2d5 753c 38d9 63bc
000001f0: a659 8fbc d6be 7a3d 1cd0 ed3c cd73 9bbd
00000200: a11f 88bd a3b9 373b 1fb7 59bd ddb7 843d
00000210: 7da0 953c 7103 373d 0fdc 033d 47d7 4dbc
00000220: 0162 22bd c9a7 31bd 5c10 b63c 1b54 8abd
00000230: 09e3 153d 55ac 04bd 3ce2 26bd 5091 73bd
00000240: 2e9a 35bc 085e 99bd cd0c d13b 1420 a5bc
00000250: 66a4 79bd eefe 303c 4b4d 8c3c e080 f1bc
00000260: b85a 903c 26ef 633c 575a 663d 38a7 42bd
00000270: cf77 583b d6d1 293d 1140 a8bd 1071 583d
00000280: 8622 6d3d 85d3 813d 6d6e 5ebd da0e 153d
00000290: 45e3 94bd 1ac5 6c3d 1f0a 873d 11b2 67bd
000002a0: 3ee6 7f3d 5e38 253d 8fdf 8f3d fb4b a8bd
000002b0: 36eb 9abd 1976 a5bd 33fc 5f3d ad11 4c3a
000002c0: bf88 9e3d 0751 4fbc b471 77bd d6e8 ffbc
000002d0: 2dc0 a0bb 111a a43c eb66 cebc 26b1 843d
000002e0: d55e 89bd 8d03 13bd 6cfa 8b3d 5e34 f0bc
000002f0: 2b88 adbd 52ff 223d 2874 fcbc 79a1 a4bd
00000300: 4625 913d f948 343c 3b65 793b 8d5f 89bc
00000310: 27aa 5f3c 791c 113d dce1 023d 5779 593d
00000320: d3c7 713c a7cf 9cbd 9364 533d 0d81 95bd
00000330: acb5 67bd 5d39 a13b ee40 12bd e266 7b3c
00000340: 9df6 63bd 3dd2 82bd da4a 093b 6205 513d
00000350: a343 2ebd 9ef0 0c3d 44e5 e83c af68 bfbc
00000360: 951f 163d 2fc2 8bbd ebd4 893d 609e 93bc
00000370: 00b1 9fbc e568 40bd 66b1 753c c5f7 7f3d
00000380: e16e 17bd a0d4 a9bc 5242 3e3d 424c 8f3d
00000390: 75b9 623d 0fb7 b1bc b095 083d 0e17 7c3c
000003a0: 8485 033c 1705 07bd 5568 0e3d ccd8 183a
000003b0: bef6 0c3d a5ba a23d 4ebc 633c 977f f5ba
000003c0: 1a00 4f3d 922e 75bd 0cc8 2b3d 141d 64bc
000003d0: 636f a53d 6f45 013d d19d 35bd 6764 9d3c
000003e0: 3a80 7bbd 9035 f6bc 7c90 6c3a 54a5 153d
000003f0: d331 9d3d ba3c fabc 5d8e 82bc 26ff f9bc

conv2.0.bias f4 [32]
0.07394028 0.01813801 -0.061007366 -0.05570362 0.019465204 -0.07814911 0.032905087 0.0480335
-0.057119083 0.06350739 0.0146406125 0.057997733 -0.020250248 0.031205412 0.0052963574 0.0102418475
-0.02534675 -0.024630476 -0.009745607 0.010488509 0.0451259 0.02074979 -0.072648846 -0.02074478
-0.059038095 0.030435579 0.0042443555 -0.047077183 -0.047430377 0.005089034 0.07200138 0.052800555
00000000: 006e 973d 2a96 943c dce2 79bd 7b29 64bd
00000010: 7e75 9f3c a40c a0bd 7cc7 063d c6be 443d
00000020: b3f5 69bd 2a10 823d 2edf 6f3c 088f 6d3d
00000030: d9e3 a5bc 7ea2 ff3c 118d ad3b 6ccd 273c
00000040: fda3 cfbc dac5 c9bc 0aac 1fbc ffd7 2b3c
00000050: f0d5 383d 77fb a93c ebc8 94bd f5f0 a9bc
00000060: eed1 71bd 0954 f93c 3c14 8b3b 01d4 40bd
00000070: 5b46 42bd e9c1 a63b 7675 933d 6545 583d

conv2.1.weight f4 [32]
0.99674636 0.99927735 1.0028996 0.9978412 1.0031643 0.9962556 0.9974081 1.0026087
1.0018152 1.0028001 0.9971962 1.0026302 0.99666435 1.0027124 1.0025756 1.0016907
0.99826545 1.0018352 1.002594 0.9975647 1.0020888 0.99782825 0.99732316 0.9974769
1.0021642 0.9973578 0.9965052 1.0022335 1.0030617 1.0024077 0.99738353 0.99922514
00000000: c52a 7f3f a4d0 7f3f 045f 803f 8572 7f3f
00000010: b067 803f 9b0a 7f3f 2356 7f3f 7b55 803f
00000020: 7b3b 803f c15b 803f 4048 7f3f 3056 803f
00000030: 6525 7f3f e158 803f 6654 803f 6737 803f
00000040: 538e 7f3f 233c 803f 0055 803f 6660 7f3f
00000050: 7244 803f ac71 7f3f 9250 7f3f a55a 7f3f
00000060: eb46 803f d752 7f3f f71a 7f3f 3049 803f
00000070: 5364 803f e54e 803f 8754 7f3f 38cd 7f3f

conv2.1.bias f4 [32]
0.0039659794 0.0019974445 -0.0027552976 -0.0037162125 0.0029679749 -0.003636426 -0.0021752445 -0.001476106
-0.0037924647 0.0016656108 -0.003170095 -0.0039265626 -0.003151881 -0.0039185416 -0.0016699027 -0.00363409
-0.00076698815 -0.0039965026 -0.003596475 -0.0009385892 -0.0037673833 -0.0037169827 -0.0034548172 -0.0012833686
-0.0036973646 0.0020154717 -0.0038261977 -0.003978415 0.0017491032 0.0002628148 0.0031906976 -0.0003686999
00000000: 0cf5 813b 8fe7 023b 3992 34bb b38b 73bb
00000010: 5b82 423b 1b51 6ebb 8c8e 0ebb e679 c1ba
00000020: 008b 78bb a050 da3a 5ec1 4fbb 65aa 80bb
00000030: ca8f 4ebb 1c67 80bb a3e0 daba ea29 6ebb
00000040: b40f 49ba 18f5 82bb d7b2 6bbb a80b 76ba
00000050: 34e6 76bb 9f98 73bb 376a 62bb b436 a8ba
00000060: 7c4f 72bb 0116 043b f2c0 7abb 5d5d 82bb
00000070: 2a42 e53a 68ca 8939 061b 513b 104e c1b9

conv2.1.running_mean f4 [32]
-0.021994125 0.043108027 -0.027565885 -0.0027699 0.015151583 -0.02998434 0.009372048 0.01199921
0.008104757 0.03747517 -0.015778922 0.04675501 -0.03022317 0.022725936 0.0107031055 -0.057519335
-0.004864741 0.02390707 0.0046011806 0.0031467143 -0.02134008 0.04960554 -0.024660982 0.0066821235
-0.017699992 0.003938614 0.027195385 0.024122 -0.011177702 -0.0038231337 0.008715306 -0.0015228577
00000000: 062d b4bc 0b92 303d dad1 e1bc 3687 35bb
00000010: 583e 783c b8a1 f5bc 388d 193c 5698 443c
00000020: d1c9 043c 907f 193d cc42 81bc 2e82 3f3d
00000030: 9596 f7bc be2b ba3c 145c 2f3c 6599 6bbd
00000040: 6868 9fbb c2d8 c33c 80c5 963b 1b39 4e3b
00000050: 64d1 aebc 2e2f 4b3d d405 cabc b7f5 da3b
00000060: 93ff 90bc 7d0f 813b dbc8 de3c 809b c53c
00000070: ae22 37bc 8a8d 7abb a5ca 0e3c a09a c7ba

conv2.1.running_var f4 [32]
0.8557174 0.7846762 0.72999185 0.70261556 0.7095618 0.7357646 0.776285 0.7083212
0.7578575 0.70664513 0.7748097 0.8598108 0.75281817 0.69081825 0.8715279 0.8616811
0.798907 0.7437753 0.7789901 0.83527863 0.72864646 0.81746584 0.75041705 0.7567397
0.7492256 0.71120024 0.8116334 0.87975705 0.7594153 0.72706693 0.73153913 0.8090811
00000000: 4c10 5b3f 8ae0 483f bfe0 3a3f 9dde 333f
00000010: d8a5 353f 125b 3c3f 9dba 463f 8a54 353f
00000020: f302 423f b2e6 343f ee59 463f 901c 5c3f
00000030: b1b8 403f 77d9 303f 741c 5f3f 2297 5c3f
00000040: 2b85 4c3f 0f68 3e3f e56b 473f d2d4 553f
00000050: 9388 3a3f 7145 513f 551b 403f b1b9 413f
00000060: 40cd 3f3f 3811 363f 35c7 4f3f c237 613f
00000070: 0b69 423f 0f21 3a3f 2646 3b3f f01f 4f3f

conv3.0.weight f4 [64, 32, 3, 3]
0.038126975 0.023784637 0.013769096 0.03941167 -0.033979073 0.01997069 -8.364738e-05 -0.03738461
-0.042212337 0.02225432 0.018177906 0.027005844 0.02783237 -0.043910813 0.047746312 -0.002960377
-0.038482632 0.042668685 -0.011890787 -0.051259827 -0.00092973193 0.056361776 0.040125113 -0.0048676366
-0.0050074253 0.02654285 0.032748654 0.059343085 -0.033973977 0.016574759 -0.027974708 0.020508492
-0.023626283 0.047011457 0.007804949 -0.036780383 0.040605854 -0.049561866 -0.005884213 0.057154957
0.052915074 -0.01219935 -0.031748254 0.0080111 0.02487006 -0.0069409143 0.018025203 0.043745548
0.041485984 0.028322503 0.008657734 -0.006331164 -0.022094801 -0.025174413 0.02738945 0.022812545
0.031270325 -0.05033593 0.022461524 0.034338463 -0.00012076215 -0.020478303 0.030154524 -5.2608666e-05
-0.008086109 -0.056472838 -0.0598397 -0.014939816 -0.032520775 -0.046138246 -0.019839901 -0.051636375
-0.053995136 -0.042131845 0.009015774 -0.04855022 0.0058871377 0.026599435 0.033247136 -0.025321424
0.027364483 0.027391097 0.03836958 -0.049411017 0.05584268 -0.033989854 0.030833177 0.010135114
0.03948874 0.026856478 -0.0016997408 -0.043373197 0.023248939 -0.03408367 0.043486774 0.040551707
0.020877326 0.054161087 0.0555607 0.018001536 0.027362537 -0.035027884 -0.020769052 0.026798833
-0.036502577 0.0039490215 -0.019211613 -0.0026335684 -0.051903147 -0.00010895097 0.03324561 -0.04257149
-0.015419591 0.04759182 -0.015571873 0.0014810563 0.05732495 -0.014410062 -0.045223605 -0.015236429
-0.00387061 0.04860619 -0.040428754 0.033479482 -0.028015861 0.045981873 -0.02169543 -0.025083289
0.053737335 -0.041887444 -0.06089405 -0.034632146 -0.055018146 0.030328576 0.045612518 -0.035996404
0.014366423 0.0534246 0.03568346 -0.023498408 0.008445246 0.041869428 -0.019222202 0.05056436
-0.002318816 -0.052313585 -0.048094995 0.034679174 -0.016740113 0.054849815 0.017043723 -0.020895287
-0.009154703 0.008303428 0.045735016 -0.027012505 -0.052329946 0.040464923 0.031624246 -0.015067449
-0.0005296712 0.03118941 -0.04619161 -0.051504277 -0.058583174 0.010363121 0.0075820694 0.03774809
0.016920289 0.027368668 -0.04025913 -0.051661998 0.03557255 -0.052479766 0.040396594 -0.036821723
-0.041203804 0.045224 -0.012981919 0.034759812 0.0067455303 -0.04781205 0.045245085 -0.0051027257
-0.018940395 0.02394795 0.011282517 -0.051355954 -0.027866405 -0.009681862 -0.032763075 0.031222867
-0.0407413 0.054047193 -0.055690255 0.0059289588 -0.0139085045 0.05523431 -0.029972611 -0.041636754
-0.013719622 -0.049702495 -0.054929093 0.044544023 0.0026223385 -0.02044994 -0.055888087 0.060377922
0.03329708 -0.025145251 -0.0414932 -0.012001362 -0.010967275 0.0414909 0.04505997 0.029597726
0.0049862415 0.0055622472 -0.0023546682 -0.047056645 0.003575798 -0.010812887 0.04507507 -0.0204073
-0.039976925 0.03545735 0.03652745 -0.0018407544 -0.025271157 0.0033461903 0.010010983 -0.00608176
-0.026370434 0.032275952 0.05424697 -0.005834802 -0.047706146 -0.02420402 0.036597285 0.033954464
0.019593345 -0.0151981795 -0.05300942 -0.033109296 -0.039363615 0.021614224 -0.05092067 -0.05646211
0.002267102 -0.022643626 -0.0047001657 -0.017739894 0.019643007 -0.016647525 0.057461504 0.030401573
00000000: 082b 1c3d 00d8 c23c c697 613c 226e 213d
00000010: a42d 0bbd 9399 a33c d86b afb8 9b20 19bd
00000020: d8e6 2cbd b14e b63c d5e9 943c 5c3b dd3c
00000030: b600 e43c d3db 33bd a391 433d e202 42bb
00000040: f79f 1dbd 5cc5 2e3d 93d1 42bc d3f5 51bd
00000050: 41b9 73ba 9bdb 663d 3b5a 243d b280 9fbb
00000060: 5415 a4bb 6470 d93c 7423 063d bc11 733d
00000070: 4c28 0bbd cac7 873c 372b e5bc 6d01 a83c
00000080: e88b c1bc 168f 403d a8c0 ff3b 07a7 16bd
00000090: 5352 263d 6201 4bbd 5bd0 c0bb 511b 6a3d
000000a0: 7abd 583d c8df 47bc 750a 02bd fd40 033c
000000b0: 4cbc cb3c 9c70 e3bb 97a9 933c 882e 333d
000000c0: 35ed 293d 9804 e83c 2bd9 0d3c a775 cfbb
000000d0: 2800 b5bc 923a cebc d75f e03c 60e1 ba3c
000000e0: 5015 003d 0c2d 4ebd 3b01 b83c 7da6 0c3d
000000f0: b041 fdb8 1dc2 a7bc 9f06 f73c 20a8 5cb8
00000100: 997b 04bc 1050 67bd 791a 75bd 21c6 74bc
00000110: 8134 05bd 75fb 3cbd 4a87 a2bc aa80 53bd
00000120: 012a 5dbd 7192 2cbd e6b6 133c 98dc 46bd
00000130: e4e8 c03b 0fe7 d93c 262e 083d e06e cfbc
00000140: 7b2b e03c 4b63 e03c 6c29 1d3d 3563 4abd
00000150: 4bbb 643d f238 0bbd dc95 fc3c c00d 263c
00000160: f2be 213d 1e02 dc3c d6c9 deba 18a8 31bd
00000170: 8f74 be3c 519b 0bbd 301f 323d 8c19 263d
00000180: ed06 ab3c 04d8 5d3d 9e93 633d f577 933c
00000190: 6627 e03c 6679 0fbd dc23 aabc 3a89 db3c
000001a0: ba83 15bd cb66 813b ac61 9dbc f297 2cbb
000001b0: 6598 54bd 9b7c e4b8 8c2c 083d 715f 2ebd
000001c0: 74a2 7cbc a4ef 423d 2b21 7fbc 0120 c23a
000001d0: 91cd 6a3d 2e18 6cbc 633c 39bd 37a2 79bc
000001e0: 0faa 7dbb 4917 473d 9f98 25bd c821 093d
000001f0: 8581 e5bc 7d57 3c3d 9dba b1bc 787b cdbc
00000200: ae1b 5c3d 2b92 2bbd 0a6c 79bd 70da 0dbd
00000210: b55a 61bd a273 f83c 31d4 3a3d f770 13bd
00000220: 2561 6b3c c1d3 5a3d d228 123d bc7f c0bc
00000230: ee5d 0a3c 477f 2b3d e177 9dbc 931c 4f3d
00000240: 47f7 17bb c546 56bd 42ff 44bd c00b 0e3d
00000250: 9022 89bc 33aa 603d 479f 8b3c 982c abbc
00000260: 9bfd 15bc 1a0b 083c a454 3b3d 5449 ddbc
00000270: ed57 56bd 8cbe 253d 6d88 013d 76dd 76bc
00000280: a2d9 0aba ef80 ff3c 6a33 3dbd 26f6 52bd
00000290: e9f4 6fbd 14ca 293c 0273 f83b be9d 1a3d
000002a0: 6b9c 8a3c 4234 e03c c2e6 24bd 889b 53bd
000002b0: 86b4 113d 06f5 56bd e676 253d 60d2 16bd
000002c0: 52c5 28bd cd3c 393d 1db2 54bc 4e60 0e3d
000002d0: 9c09 dd3b 91d6 43bd e952 393d c434 a7bb
000002e0: e328 9bbc 7e2e c43c 4eda 383c 9f5a 52bd
000002f0: 1648 e4bc aca0 1ebc 9332 06bd 19c7 ff3c
00000300: 59e0 26bd 9760 5d3d 771b 64bd b647 c23b
00000310: 7fe0 63bc 5f3d 623d 1f89 f5bc 4d8b 2abd
00000320: 44c8 60bc d894 4bbd 54fd 60bd cb73 363d
00000330: 8adb 2b3b a286 a7bc e8ea 64bd d74e 773d
00000340: 8562 083d 6afd cdbc c6f4 29bd 5ca1 44bc
00000350: 16b0 33bc 5df2 293d ce90 383d ee76 f23c
00000360: a063 a33b 8343 b63b c750 1abb 78be 40bd
00000370: ef57 6a3b 8928 31bc a3a0 383d 362d a7bc
00000380: d8be 23bd ba3b 113d cf9d 153d 7845 f1ba
00000390: 7505 cfbc c24b 5b3b 1b05 243c 8049 c7bb
000003a0: cf06 d8bc ca33 043d 1232 5e3d de31 bfbb
000003b0: 8567 43bd 8247 c6bc 09e7 153d d613 0b3d
000003c0: 3982 a03c c901 79bc 6820 59bd 9d9d 07bd
000003d0: be3b 21bd 5010 b13c 3192 50bd d044 67bd
000003e0: a993 143b 207f b9bc d903 9abb 4153 91bc
000003f0: 5fea a03c 6460 88bc c15c 6b3d b80c f93c

conv3.0.bias f4 [64]
0.0032480094 0.0067622564 -0.05690422 0.00991989 -0.005925367 -0.034743413 0.009218066 0.043415476
0.04765935 -0.0368076 0.0071249465 0.009217786 -0.052010592 -0.021103162 -0.028683677 0.021041807
-0.032488752 0.00078825845 0.024384258 -0.046099614 -0.054834526 0.035746876 0.021127047 -0.0319553
0.018018002 -0.04684287 -0.0040371534 0.021352544 0.030890154 -0.023795726 0.034205593 0.025058577
-0.047004346 0.041780073 -0.024245284 -0.023393461 0.013916817 -0.014541185 -0.033037506 -0.035387605
0.052000694 -0.04115299 0.05702594 0.002976791 0.028330404 0.021372247 0.021418056 0.0149264205
0.043147717 -0.022544004 -0.005343267 -0.046137203 -0.03609837 -0.015717875 -0.056269925 0.0262049
-0.020923292 0.007479947 -0.013863048 0.05421483 -0.016010886 0.010341124 0.04231924 -0.022245144
00000000: 8edc 543b eb95 dd3b 6614 69bd 0987 223c
00000010: 9529 c2bb 1c4f 0ebd 5f07 173c 6dd4 313d
00000020: 7336 433d 91c3 16bd 6278 e93b 3206 173c
00000030: 0f09 55bd 8ae0 acbc 08fa eabc de5f ac3c
00000040: ed12 05bd 21a3 4e3a 7fc1 c73c f3d2 3cbd
00000050: 2b9a 60bd 516b 123d a112 ad3c 90e3 02bd
00000060: 7d9a 933c 4fde 3fbd 194a 84bb 88eb ae3c
00000070: 590d fd3c 41ef c2bc 2a1b 0c3d a547 cd3c
00000080: a187 40bd 9521 2b3d 0c9e c6bc a5a3 bfbc
00000090: 5c03 643c 273e 6ebc 5652 07bd 98f2 10bd
000000a0: aefe 543d 0a90 28bd 0894 693d 4416 433b
000000b0: 2a15 e83c da14 af3c eb74 af3c f28d 743c
000000c0: a9bb 303d 34ae b8bc 9316 afbb 5dfa 3cbd
000000d0: e2db 13bd c6c2 80bc 4b7b 66bd a9ab d63c
000000e0: 5367 abbc 581a f53b d621 63bc 5f10 5e3d
000000f0: 4329 83bc d16d 293c f056 2d3d 733b b6bc

conv3.1.weight f4 [64]
1.0028294 0.99994093 0.9977773 1.0020815 1.0034099 0.99859655 0.99641657 0.9973204
1.0033392 1.0034776 0.99735695 0.9971338 0.997828 1.002803 1.0021912 0.9982501
1.001793 1.0028682 1.0020372 1.0029922 0.9964872 0.9974832 1.002861 0.99999726
0.9974673 1.0028665 1.0027765 1.0028678 1.001313 1.0022169 0.9967367 0.99731755
0.9971304 1.0033276 0.99750865 0.9985285 1.002658 0.99727756 1.0027835 1.002484
0.99679047 1.00235 0.99691135 0.9974021 0.9961961 1.0028008 0.9983702 1.0038532
1.0030038 1.0018462 1.0015763 0.99632514 1.003081 1.00333 1.0014321 1.0036551
1.0024021 0.9975224 0.99756753 1.0016875 1.0024794 0.997219 0.9989279 0.9969302
00000000: b75c 803f 21fc 7f3f 556e 7f3f 3544 803f
00000010: bc6f 803f 06a4 7f3f 2815 7f3f 6450 7f3f
00000020: 6b6d 803f f471 803f c952 7f3f 2944 7f3f
00000030: a871 7f3f d95b 803f cd47 803f 528d 7f3f
00000040: c13a 803f fc5d 803f c142 803f 0c62 803f
00000050: c919 7f3f 0f5b 7f3f c05d 803f d2ff 7f3f
00000060: 045a 7f3f ee5d 803f fb5a 803f f95d 803f
00000070: 062b 803f a548 803f 232a 7f3f 3450 7f3f
00000080: f043 7f3f 0a6d 803f ba5c 7f3f 909f 7f3f
00000090: 1957 803f 954d 7f3f 365b 803f 6551 803f
000000a0: a92d 7f3f 014d 803f 9535 7f3f be55 7f3f
000000b0: b506 7f3f c75b 803f 3095 7f3f 437e 803f
000000c0: 6e62 803f 7f3c 803f a733 803f 2a0f 7f3f
000000d0: f564 803f 1e6d 803f ed2e 803f c577 803f
000000e0: b64e 803f a15d 7f3f 9660 7f3f 4c37 803f
000000f0: 3f51 803f bf49 7f3f bdb9 7f3f d136 7f3f

conv3.1.bias f4 [64]
0.0035348795 8.395e-06 0.002158066 0.00063540036 0.003311205 0.0032500648 -0.0037439265 -0.0024060113
0.0036028626 3.414374e-05 -0.0036471386 -0.0032885505 0.0030377982 -0.0008674057 -0.0038743643 -0.00010417547
0.0007660851 6.717257e-05 -0.0006182457 0.0005667184 -0.003979332 -0.0012733345 -0.0001935694 5.4843083e-05
-0.003988697 0.0013705657 0.001483992 -0.0027418903 0.0013067321 -0.0011107267 -0.002647242 0.0016149967
-0.0038704807 -0.0033687833 -0.0036719688 -0.00094737834 0.0027533574 -0.0030996322 0.00055522943 0.0006722487
-0.0016862771 -0.003719984 -0.0008521074 -0.0032866967 -0.003911367 0.0017593189 0.00039914 0.0039837174
0.0036272146 0.0014361185 -0.0039133676 0.00032146618 0.0035425723 0.0022704042 0.001186634 0.0020291726
-7.2080875e-06 -0.0015848074 -0.0014737733 -0.0036709048 -0.0008364823 -0.002883994 -0.0036690012 -0.003822755
00000000: 70a9 673b 40d8 0c37 576e 0d3b ff90 263a
00000010: cd00 593b 0aff 543b aa5c 75bb 2cae 1dbb
00000020: 011e 6c3b 9035 0f38 d504 6fbb b984 57bb
00000030: cc15 473b 9c62 63ba 0ce9 7dbb c878 dab8
00000040: 1ad3 483a 00df 8c38 c411 22ba d48f 143a
00000050: 0e65 82bb 04e6 a6ba e4f8 4ab9 5007 6638
00000060: 9eb3 82bb 8ea4 b33a 8282 c23a 49b1 33bb
00000070: a746 ab3a ce95 91ba 5a7d 2dbb 4cae d33a
00000080: e4a7 7dbb cec6 5cbb 6aa5 70bb 7c59 78ba
00000090: ac71 343b 3323 4bbb d18c 113a d939 303a
000000a0: 1206 ddba faca 73bb f65f 5fba 9f65 57bb
000000b0: ed2a 80bb f298 e63a aa43 d139 d889 823b
000000c0: 90b6 6d3b 243c bc3a b53b 80bb 768a a839
000000d0: 802a 683b 10cb 143b d488 9b3a defb 043b
000000e0: 00dd f1b6 50b9 cfba a02b c1ba 9093 70bb
000000f0: 6047 5bba 6401 3dbb a073 70bb 3087 7abb

conv3.1.running_mean f4 [64]
-0.0033188588 -0.039994888 0.019836007 0.010709398 -0.04600029 -0.014977394 0.0018589876 -0.021144478
-0.008770416 0.022957401 -0.020513091 -0.011701923 -0.013808861 -0.02516315 0.04506445 -0.07688692
0.021774117 0.0018478916 0.024601754 -0.026382556 0.05302668 0.011539602 0.01548189 -0.06756449
0.015678715 0.038849592 0.032940052 0.039707147 -0.028279599 0.04782529 -0.05246193 0.007010053
0.052984297 0.09183621 -0.039695516 0.018942334 0.027150162 -0.018091837 0.0059938296 0.02529495
0.054771014 0.027417198 -0.045646705 -0.0093508195 -0.083141595 0.03491944 0.0825957 -0.030680059
0.07114268 -0.00854398 0.044133723 -0.050629407 0.00922188 0.031112405 -0.083847865 -0.0017413547
0.034432124 0.038145613 -0.023427524 0.035746023 -0.023490846 0.007076297 0.03559188 0.032624222
00000000: 3681 59bb aed1 23bd 1f7f a23c 7976 2f3c
00000010: cd6a 3cbd be63 75bc 46a9 f33a 2f37 adbc
00000020: cab1 0fbc 2911 bc3c 120b a8bc 6cb9 3fbc
00000030: 903e 62bc f322 cebc 8095 383d e476 9dbd
00000040: a25f b23c f434 f23a 9e89 c93c 3b20 d8bc
00000050: 8132 593d 9910 3d3c c1a7 7d3c 405f 8abd
00000060: a670 803c c020 1f3d 26ec 063d f6a3 223d
00000070: 9eaa e7bc 74e4 433d 52e2 56bd 96b4 e53b
00000080: 1006 593d 9f14 bc3d c497 22bd f42c 9b3c
00000090: 046a de3c 5535 94bc e367 c43b 5b37 cf3c
000000a0: 9257 603d 089a e03c 0af8 3abd 2e34 19bc
000000b0: 2446 aabd b007 0f3d ef27 a93d bf54 fbbc
000000c0: 41b3 913d 0dfc 0bbc 90c5 343d c860 4fbd
000000d0: 5e17 173c 71df fe3c 6eb8 abbd 2b3e e4ba
000000e0: b308 0d3d 933e 1c3d 14eb bfbc 6c6a 123d
000000f0: e06f c0bc 48e0 e73b cbc8 113d faa0 053d

conv3.1.running_var f4 [64]
0.73646575 0.8496536 0.79810613 0.7383232 0.8341282 0.7353786 0.748331 0.7416577
0.7423248 0.82032746 0.75654477 0.7403621 0.7213138 0.87529904 0.78938 1.0792854
0.78633296 0.7390563 0.7331127 0.8160692 0.9068694 0.7283181 0.7599789 0.7955171
0.80980164 0.786161 0.7432281 0.7532874 0.7797314 0.8289048 0.84452564 0.7601339
0.8421872 0.9467893 0.7894511 0.7090124 0.7108115 0.7162445 0.72472167 0.8168959
0.85165244 0.77479917 0.79683375 0.7953131 0.9405502 0.71547836 0.89201826 0.8058413
0.7916683 0.7738759 0.8174927 0.7432114 0.7129513 0.8067858 0.9076919 0.74164474
0.8490376 0.7481535 0.79530215 0.7269648 0.75412357 0.71289307 0.75316006 0.8201147
00000000: 0589 3c3f e682 593f af50 4c3f c002 3d3f
00000010: 6d89 553f c641 3c3f 9f92 3f3f 47dd 3d3f
00000020: 0009 3e3f fb00 523f ebac 413f 5f88 3d3f
00000030: 05a8 383f 9913 603f cf14 4a3f 0626 8a3f
00000040: 1e4d 493f cb32 3d3f 46ad 3b3f e9e9 503f
00000050: 9828 683f 0e73 3a3f fa8d 423f 02a7 4b3f
00000060: 294f 4f3f d941 493f 3244 3e3f 71d7 403f
00000070: 7a9c 473f 1b33 543f d532 583f 2398 423f
00000080: 9599 573f c960 723f 7819 4a3f d681 353f
00000090: bef7 353f cd5b 373f 5c87 393f 1720 513f
000000a0: e505 5a3f 3d59 463f 4cfd 4b3f a499 4b3f
000000b0: e6c7 703f 9729 373f 4f5b 643f 9e4b 4e3f
000000c0: c6aa 4a3f bb1c 463f 3447 513f 1a43 3e3f
000000d0: fa83 363f 8489 4e3f 7f5e 683f 6edc 3d3f
000000e0: 875a 593f fd86 3f3f ec98 4b3f 5d1a 3a3f
000000f0: 3e0e 413f 2980 363f 19cf 403f 09f3 513f

conv4.0.weight f4 [128, 64, 3, 3]
0.030504324 0.0070827114 -0.012236888 0.014634649 0.041875664 0.039525088 -0.040487453 0.030251088
0.042579215 0.012639012 -0.029437229 0.0075115133 -0.015662039 -0.0439425 0.022949168 -0.015333931
0.0205143 0.029080285 -0.0346325 0.0025543743 -0.02877059 -0.03178863 -0.04031367 -0.014278328
-0.032102365 0.008331548 0.034665324 0.02839543 0.024789635 0.04016363 -0.017714703 0.016505575
0.01632233 -0.0029979383 -0.04085405 0.022639222 -0.044070095 0.027528126 0.010639788 -0.042402353
-0.026799843 0.02631281 -0.0045111924 0.020324256 0.019053448 0.032135148 -0.026294604 0.038100418
0.016605364 0.032499693 0.019383352 0.020591406 -0.023221625 0.011401766 -0.0074872174 -0.0009749874
0.005878664 0.03234034 -0.023925712 0.004378313 -0.020961821 0.0131507125 -0.03851245 -0.020730339
0.028948292 0.031119373 -0.009574827 -0.03762205 -0.0386445 -0.018530343 -0.006291471 -0.0059750555
-0.029962555 -0.0017208224 -0.01393602 0.009132785 0.03699029 0.011297332 -0.0127573665 0.017383547
-0.014542958 -0.025430713 0.028544048 -0.017760694 -0.0074135493 -0.035069972 -0.015288351 0.0043304954
0.005599797 -0.03331167 -0.011746196 -0.022142192 0.03275047 0.02378216 -0.005710497 -0.00023499053
0.029362744 -0.03755978 0.025054133 -0.011345601 0.031923175 0.033643655 0.018617934 0.020262795
-0.019506782 0.032193936 0.001493826 0.0069398033 0.0074097645 0.0004998413 -0.016996138 0.037818573
-0.0029239794 0.0076482007 -0.03779748 -0.0391279 -0.03147933 -0.04408912 -0.028390575 0.005797695
-0.002460363 0.006700732 -0.029629746 0.02362595 -0.0013878847 0.024414964 0.019366633 -0.018184083
-0.026154017 0.018113805 0.038514074 0.040104453 -0.002677022 0.027618181 -0.030527307 0.036981717
-0.02877705 0.036687147 -0.023506207 -0.002138019 -0.036103737 -0.02183709 0.026198292 0.037059896
-0.011510545 -0.03220937 -9.1093476e-05 -0.017801506 -0.030985612 -0.023858 0.010360494 -0.028277196
0.00929667 0.017358528 0.030715737 0.034262497 0.035998184 0.015023514 -0.020342719 0.00078271347
-0.028061394 0.03134608 -0.021827117 -0.012760251 -0.028136544 -0.013140992 0.033143964 -0.02642642
0.03086192 -0.033505745 0.04249296 0.014709349 -0.03529383 0.030483084 -0.005855739 -0.003921216
0.009967701 0.017089859 -0.029653274 0.016086847 -0.014644313 0.037929475 0.012599113 -0.02149049
0.0026390394 -0.031417865 0.012189343 0.016962558 0.023188155 0.03187166 0.023943031 0.02509666
-0.019437673 0.03543894 -0.038157906 0.028940165 -0.03113197 0.02554154 -0.024479875 0.02385014
0.0020009023 0.037763502 -0.0007353053 0.025941733 0.011937398 -0.030493036 0.020986633 -0.029362625
-0.020698778 -0.0044609257 0.03571527 0.028714212 0.04111677 0.010156913 -0.03683243 -0.040266562
-0.03839976 0.019078594 0.031421293 -0.036720052 0.0088728005 -0.011405656 -0.023553524 -0.014752692
-0.005640018 0.004856512 -0.013106163 -0.022289976 0.03694219 -0.043893337 0.032721303 -0.021599064
0.02102526 -0.0036469547 -0.0199026 -0.021903064 -0.04096799 0.0036232057 -0.04366509 0.019131487
-0.04131448 -0.04421642 -0.018259747 -0.0024723196 0.03688048 0.019219099 -0.03890935 -0.034103002
-0.011958041 -0.003501504 0.031632397 0.014694655 -0.01781448 -0.011461935 0.020826653 0.012359748
00000000: 34e4 f93c 1716 e83b 3a7d 48bc 2bc6 6f3c
00000010: d185 2b3d 0fe5 213d 2cd6 25bd 21d1 f73c
00000020: 8b67 2e3d dc13 4f3c 5826 f1bc 2423 f63b
00000030: ad4d 80bc 0dfd 33bd e5ff bb3c 2b3b 7bbc
00000040: 9b0d a83c c739 ee3c cfda 0dbd 4a67 273b
00000050: 4db0 ebbc cb34 02bd f21f 25bd a6ef 69bc
00000060: c57d 03bd 0c81 083c 3afd 0d3d 889d e83c
00000070: a213 cb3c 9e82 243d 6d1e 91bc b336 873c
00000080: 68b6 853c 0f79 44bb 9456 27bd e475 b93c
00000090: d882 34bd aa82 e13c 8152 2e3c 17ae 2dbd
000000a0: 588b dbbc f68d d73c a0d2 93bb 0e7f a63c
000000b0: fa15 9c3c 25a0 033d c867 d7bc 2f0f 1c3d
000000c0: f907 883c 661e 053d d6c9 9e3c 4faf a83c
000000d0: 473b bebc 79ce 3a3c 5557 f5bb 4c96 7fba
000000e0: cfa1 c03b 4e77 043d dbff c3bc f477 8f3b
000000f0: 20b8 abbc 1676 573c 3bbf 1dbd acd2 a9bc
00000100: f824 ed3c 0eee fe3c bcdf 1cbc 9419 1abd
00000110: b249 1ebd f2cc 97bc af28 cebb 66ca c3bb
00000120: 0874 f5bc 388d e1ba e853 64bc ada1 153c
00000130: 2183 173d 7218 393c 4604 51bc f167 8e3c
00000140: 9645 6ebc 1254 d0bc 35d5 e93c e07e 91bc
00000150: 5ced f2bb 88a5 0fbd fe7b 7abc d4e6 8d3b
00000160: 807e b73b d171 08bd 1e73 40bc 8b63 b5bc
00000170: 5b25 063d ced2 c23c 1f1f bbbb ca67 76b9
00000180: 238a f03c 49d8 19bd 533e cd3c e6e2 39bc
00000190: e0c1 023d eecd 093d a384 983c 29fe a53c
000001a0: b0cc 9fbc cadd 033d 7ccc c33a 4a67 e33b
000001b0: 9ccd f23b c807 033a 7c3b 8bbc a6e7 1a3d
000001c0: 3ca0 3fbb c29d fa3b 88d1 1abd 9444 20bd
000001d0: 78f0 00bd cb96 34bd 5a93 e8bc 97fa bd3b
000001e0: 0b3e 21bb d091 db3b 15ba f2bc 358b c13c
000001f0: afe9 b5ba e401 c83c c6a6 9e3c c9f6 94bc
00000200: f340 d6bc 6763 943c efc0 1d3d 9144 243d
00000210: fa70 2fbb 863f e23c 6714 fabc 247a 173d
00000220: d9bd ebbc 4345 163d 1790 c0bc 021e 0cbb
00000230: 83e1 13bd b2e3 b2bc cd9d d63c 1ecc 173d
00000240: ba96 3cbc f9ed 03bd 7009 bfb8 77d4 91bc
00000250: 8ad5 fdbc da71 c3bc 10bf 293c 94a5 e7bc
00000260: 0f51 183c 7933 8e3c 929f fb3c d556 0c3d
00000270: d572 133d 2f25 763c c6a5 a6bc 032f 4d3a
00000280: 02e1 e5bc bf64 003d c8ce b2bc 5f10 51bc
00000290: 9c7e e6bc 514d 57bc f7c1 073d 387c d8bc
000002a0: 23d2 fc3c 523d 09bd 190d 2e3d 7bff 703c
000002b0: 4390 10bd a9b7 f93c 80e1 bfbb 8b7d 80bb
000002c0: 914f 233c 0800 8c3c 6ceb f2bc 90c8 833c
000002d0: b3ee 6fbc f05b 1b3d 836c 4e3c d30c b0bc
000002e0: bcf3 2c3b 05b0 00bd cfb5 473c 10f5 8a3c
000002f0: 16f5 bd3c dc8b 023d 2d24 c43c 8397 cd3c
00000300: c13b 9fbc 6c28 113d 774b 1cbd ed13 ed3c
00000310: 7908 ffbc 7e3c d13c 058a c8bc 5e61 c33c
00000320: 9221 033b e7ad 1a3d 81c1 40ba c283 d43c
00000330: 1495 433c 88cc f9bc 29ec ab3c e389 f0bc
00000340: 7c90 a9bc f52c 92bb 2d4a 123d 113a eb3c
00000350: 0f6a 283d 2e69 263c 9add 16bd 8dee 24bd
00000360: 1149 1dbd b64a 9c3c 9db3 003d c467 16bd
00000370: 395f 113c cade 3abc 52f3 c0bc 46b5 71bc
00000380: e6cf b8bb 6023 9f3b 3bbb 56bc 7899 b6bc
00000390: b250 173d 80c9 33bd c606 063d 85f0 b0bc
000003a0: 2b3d ac3c bf01 6fbb c70a a3bc 0e6e b3bc
000003b0: 0dce 27bd 4e73 6d3b 2ada 32bd a3b9 9c3c
000003c0: 5f39 29bd 471c 35bd 7795 95bc a406 22bb
000003d0: fc0f 173d 5f71 9d3c 695f 1fbd 97af 0bbd
000003e0: a9eb 43bc 7d79 65bb f990 013d dac1 703c
000003f0: acef 91bc d7ca 3bbc a89c aa3c 8a80 4a3c

conv4.0.bias f4 [128]
-0.023625787 -0.024940522 -0.004726195 -0.033842888 0.025509758 0.027285563 0.0248835 0.016747024
-0.0068957396 0.008562409 -0.004178483 0.032941297 0.021288501 -0.022996603 -0.0063544577 0.021292629
0.015537103 -0.0005272296 0.03616065 -0.00077291334 0.02300136 0.018195946 0.008184439 -0.007727867
-0.030160427 -0.03655178 0.03454818 -0.0052718087 0.0010860899 0.03596567 -0.0081127295 -0.036953915
-0.013008285 -0.025377491 -0.034924403 0.017856883 -0.006769408 0.004226393 0.037099693 0.033474267
-0.009566745 -0.027716862 -0.034282945 -0.034903526 -0.021799793 -0.018345958 -0.01840188 -0.0024787595
0.02505588 -0.03847068 -0.014562188 -0.037024166 0.00035985548 0.017125715 -0.0046637487 0.040744748
-0.031634297 0.019123549 0.03139717 -0.028500965 0.00048641875 -0.00019220429 0.014251998 0.03727562
0.015890723 0.03294817 -0.029019056 -0.03935559 -0.02272702 0.031933863 -0.022426287 -0.009618086
-0.017736584 -0.0042511374 0.010272185 0.019800602 -0.011867961 -0.034818586 -0.029336752 -0.029913511
-0.03528329 -0.03803878 -0.026352324 -0.008946206 -0.039530765 0.0029957008 -0.015007261 0.0043337625
-0.0040428317 0.027126063 -0.03199516 0.027567534 -0.021105748 -0.041343898 0.027124133 0.02436942
0.004758683 0.00017301331 -0.021108665 -0.026858153 -0.018396987 -0.039850898 -0.0019047102 -0.003536308
0.007370374 -0.03549315 -0.024651658 0.00491141 0.008216793 0.011772765 -0.032297853 -0.0038681433
0.029980548 0.008238203 -0.027996138 -0.028622946 0.03272712 -0.03370284 0.022034276 0.03953291
0.01791397 -0.02217843 -0.03489348 -0.004477578 0.006908297 0.010194691 -0.03304287 -0.03434645
00000000: de8a c1bc 1150 ccbc 32de 9abb d79e 0abd
00000010: d7f9 d03c f985 df3c 7bd8 cb3c 0e31 893c
00000020: a8f5 e1bb 5949 0c3c a8eb 88bb 74ed 063d
00000030: 3965 ae3c 5f63 bcbc 0e39 d0bb e16d ae3c
00000040: 558f 7e3c c835 0aba 311d 143d 569d 4aba
00000050: 596d bc3c aa0f 953c 0618 063c 0c3a fdbb
00000060: 0013 f7bc 52b7 15bd 6482 0d3d 23bf acbb
00000070: 215b 8e3a bd50 133d 41eb 04bc fd5c 17bd
00000080: b420 55bc 75e4 cfbc e40c 0fbd 9948 923c
00000090: e9d1 ddbb 8e7d 8a3b d9f5 173d 501c 093d
000000a0: d6bd 1cbc 790e e3bc 466c 0cbd 00f7 0ebd
000000b0: 7b95 b2bc 434a 96bc 8abf 96bc af72 22bb
000000c0: fd41 cd3c 6f93 1dbd 3e96 6ebc a7a6 17bd
000000d0: fcaa bc39 3a4b 8c3c 5cd2 98bb f7e3 263d
000000e0: f792 01bd fda8 9c3c 529a 003d db7a e9bc
000000f0: 0506 ff39 728a 49b9 3681 693c 52ae 183d
00000100: 432d 823c a9f4 063d 5fb9 edbc 5433 21bd
00000110: 042e babc 15cd 023d 55b7 b7bc 2d95 1dbc
00000120: 504c 91bc 204d 8bbb ab4c 283c df34 a23c
00000130: d671 42bc ef9d 0ebd a153 f0bc 2e0d f5bc
00000140: 3685 10bd 8dce 1bbd d4e0 d7bc 1c93 12bc
00000150: 03eb 21bd 8553 443b 04e1 75bc 3c02 8e3b
00000160: bb79 84bb 7a37 de3c 5b0d 03bd 4fd5 e13c
00000170: f6e5 acbc 3858 29bd 6e33 de3c 61a2 c73c
00000180: baee 9b3b e86a 3539 14ec acbc a105 dcbc
00000190: 47b5 96bc b23a 23bd 78a7 f9ba 67c1 67bb
000001a0: 2e83 f13b 4461 11bd 46f2 c9bc e5ef a03b
000001b0: ba9f 063c 8ee2 403c c14a 04bd ad80 7dbb
000001c0: c499 f53c 87f9 063c 2858 e5bc ab7a eabc
000001d0: df0c 063d fd0b 0abd 3a81 b43c 43ed 213d
000001e0: 51c0 923c 8aaf b5bc 77ec 0ebd a6b8 92bb
000001f0: ff5e e23b a207 273c f657 07bd ddae 0cbd

conv4.1.weight f4 [128]
0.99754447 1.0022871 0.99711674 0.9978269 1.0026722 1.0024282 1.0013964 0.9969422
0.9967596 1.0005846 1.0010089 0.9995831 1.0016952 1.0024552 0.9975474 0.99962753
0.99744946 1.0022168 0.99788177 1.001725 0.9965677 1.0035018 1.0003777 0.9964432
0.9969733 1.0020694 1.0026202 0.9966558 1.0026088 1.002186 1.0022156 0.99758106
1.0019317 1.0022368 0.9967419 1.0027117 1.0022981 0.99965256 0.99775296 0.9967157
0.9993702 0.99620634 0.99694324 1.001973 1.0008879 0.996935 0.99753535 0.9974573
1.0013062 0.9981899 0.9970484 0.99772555 1.0027266 1.0004321 0.9967571 0.9962728
1.0010562 1.0024354 1.0024844 1.0018502 1.0038534 0.99664545 0.9968848 1.0024955
1.0013288 0.9981263 1.003293 0.9968603 0.9973046 1.0017513 0.9964008 0.9962147
0.9962473 1.0027404 1.0014548 0.9987066 0.9967873 1.0021567 0.9964294 1.0025059
1.0006891 0.99762785 0.9961587 0.9991057 1.0026779 1.0027294 1.001496 1.0011076
0.9961033 0.99696064 0.9977781 0.9999848 0.99720263 0.9979858 0.997707 0.9969323
1.0020136 1.0034622 1.0022627 0.99743885 0.9975624 1.0012182 0.99790543 1.0025382
0.9995664 1.0023588 1.001648 1.0019271 1.0019497 1.0026182 0.9960349 0.99750465
1.0014359 1.0009559 0.9972419 1.0023462 1.0023252 1.001255 1.0011793 0.9994736
1.0029092 0.9973379 0.9966213 0.9998534 1.0022119 0.996758 0.9973179 1.0016124
00000000: 135f 7f3f f24a 803f 0b43 7f3f 9571 7f3f
00000010: 9057 803f 914f 803f c22d 803f 9b37 7f3f
00000020: a32b 7f3f 2813 803f 0f21 803f aee4 7f3f
00000030: 8c37 803f 7450 803f 445f 7f3f 97e7 7f3f
00000040: d958 7f3f a448 803f 2e75 7f3f 8638 803f
00000050: 101f 7f3f bf72 803f 600c 803f e716 7f3f
00000060: a439 7f3f cf43 803f dc55 803f d624 7f3f
00000070: 7c55 803f a147 803f 9a48 803f 7961 7f3f
00000080: 4c3f 803f 4c49 803f 7a2a 7f3f db58 803f
00000090: 4e4b 803f 3be9 7f3f bd6c 7f3f c328 7f3f
000000a0: bad6 7f3f 6107 7f3f ac37 7f3f a740 803f
000000b0: 181d 803f 2237 7f3f 7a5e 7f3f 5d59 7f3f
000000c0: cd2a 803f 6089 7f3f 903e 7f3f f16a 7f3f
000000d0: 5859 803f 290e 803f 792b 7f3f bc0b 7f3f
000000e0: 9c22 803f ce4f 803f 6951 803f a13c 803f
000000f0: 457e 803f 2824 7f3f d833 7f3f c651 803f
00000100: 8b2b 803f 3585 7f3f e86b 803f 3d32 7f3f
00000110: 5b4f 7f3f 6339 803f 1f14 7f3f ed07 7f3f
00000120: 100a 7f3f cc59 803f ac2f 803f 3cab 7f3f
00000130: 742d 7f3f ac46 803f ff15 7f3f 1d52 803f
00000140: 9516 803f 8a64 7f3f 4204 7f3f 64c5 7f3f
00000150: c057 803f 7059 803f 0531 803f 4b24 803f
00000160: a000 7f3f d038 7f3f 636e 7f3f 01ff 7f3f
00000170: ac48 7f3f ff7b 7f3f ba69 7f3f f536 7f3f
00000180: fb41 803f 7371 803f 254a 803f 2758 7f3f
00000190: 4060 7f3f eb27 803f bb76 7f3f 2c53 803f
000001a0: 95e3 7f3f 4b4d 803f 0036 803f 263f 803f
000001b0: e33f 803f cb55 803f 25fc 7e3f 775c 7f3f
000001c0: 0d2f 803f 531f 803f 3f4b 7f3f e14c 803f
000001d0: 314c 803f 2029 803f a526 803f 80dd 7f3f
000001e0: 545f 803f 8951 7f3f 9322 7f3f 64f6 7f3f
000001f0: 7b48 803f 882b 7f3f 3a50 7f3f d634 803f

conv4.1.bias f4 [128]
-0.0020148708 0.00024823472 -0.0039031627 -0.0024580688 0.0029410985 -2.2297434e-05 -0.0038513371 0.0009772575
0.0008014132 0.00137842 0.0008606631 -0.002961639 -0.0035012383 -0.00021932976 -0.0021834872 0.0030293462
-0.0018796867 -0.0011533934 -0.0017591858 -0.00096586294 -0.003276029 0.00084400363 0.0026154767 -0.00318594
-0.0012642071 -0.00340882 -0.0025361886 -0.0036417567 -0.0004192572 -0.003680001 -0.0034145631 0.0030014822
-0.0009086078 -0.003917614 -0.0033435458 0.001999671 0.0023391696 -0.0031605945 0.00031500863 -0.0033342452
0.003568023 -0.003904562 -0.00014600909 5.9252197e-06 -0.0012063746 -0.0033156555 -0.0024859884 -0.0018889856
0.0014384632 0.0028614667 -0.0006604686 -0.00097417354 -0.00044255063 -0.0035320106 -0.0031783432 -0.0033280367
0.00031320038 -0.0018178197 -0.0025318936 0.0007811996 0.0036945518 -0.001362423 -0.0024956022 0.002603296
-0.0036735358 -0.0019455719 0.0035470072 -0.0030875646 -0.003606709 -0.0037583276 -0.00090990623 -0.003820377
-0.00048679393 -0.0014703609 -0.0039659906 0.0036693702 -0.0031024467 -0.0011835601 -0.0035785888 0.0003729705
-0.00038489682 0.002991728 -0.0010819768 -0.00083294476 -0.002451342 -0.0017090802 -0.0036125458 -0.0033461123
-0.003874953 -0.0028334425 -0.0018445835 0.00333401 0.0027870415 -8.2056795e-06 0.003457085 -0.0010089956
-0.0010233545 0.0029801845 -0.003576912 -0.00023218937 -0.00073645054 0.0013112363 1.1181874e-05 -0.0009049362
0.0010988892 -0.0031809555 -0.0034839816 0.0022365414 -7.6568336e-05 0.0032883552 -0.0036913955 -0.002374105
-0.0037257387 -0.0006206153 -0.0027247476 6.7512214e-05 -0.0006100109 0.0037594638 0.003730056 -0.00039707945
0.0012802649 -0.0030685933 -0.0030673887 0.0037815673 -0.0004782746 0.003286677 -0.0024638243 -0.0034287355
00000000: ec0b 04bb 8025 8239 34cc 7fbb 8d17 21bb
00000010: 72bf 403b 600b bbb7 b766 7cbb 5217 803a
00000020: ee15 523a 1aac b43a 1f9e 613a 0f18 42bb
00000030: 0875 65bb e2fb 65b9 d618 0fbb ff87 463b
00000040: d25f f6ba 762d 97ba 7b94 e6ba f731 7dba
00000050: a5b2 56bb 2040 5d3a 6b68 2b3b 34cb 50bb
00000060: c0b3 a5ba 8266 5fbb 2f36 26bb 8aaa 6ebb
00000070: c0cf dbb9 2c2c 71bb ddc6 5fbb 84b4 443b
00000080: a32f 6eba 545f 80bb 641f 5bbb ea0c 033b
00000090: c14c 193b fa21 4fbb be27 a539 5a83 5abb
000000a0: 7ed5 693b aee3 7fbb 041a 19b9 40d1 c636
000000b0: 371f 9eba 784b 59bb f7eb 22bb d797 f7ba
000000c0: d18a bc3a 7287 3b3b 4c23 2dba ae5f 7fba
000000d0: 2406 e8b9 4e79 67bb c04b 50bb 311b 5abb
000000e0: 0b35 a439 e843 eeba 20ee 25bb 6bc9 4c3a
000000f0: 4b20 723b 5493 b2ba 428d 23bb 0f9c 2a3b
00000100: b4bf 70bb 8f02 ffba e874 683b bd58 4abb
00000110: 895e 6cbb 464e 76bb c686 6eba 4a5f 7abb
00000120: 6038 ffb9 20b9 c0ba 24f5 81bb d179 703b
00000130: 6b52 4bbb b021 9bba c286 6abb 418b c339
00000140: facb c9b9 de10 443b 1ed1 8dba fa59 5aba
00000150: b2a6 20bb 3703 e0ba 76c0 6cbb 734a 5bbb
00000160: ecf2 7dbb 47b1 39bb f4c5 f1ba 687f 5a3b
00000170: cca6 363b 20ab 09b7 4390 623b 4640 84ba
00000180: 1422 86ba 334f 433b a06a 6abb dc77 73b9
00000190: 5c0e 41ba cadd ab3a c899 3b37 3e39 6dba
000001a0: 9a08 903a 9477 50bb 8353 64bb f092 123b
000001b0: 5093 a0b8 7281 573b 57eb 71bb df96 1bbb
000001c0: 862b 74bb cab0 22ba ae91 32bb 5895 8d38
000001d0: 23e9 1fba 5661 763b f573 743b 1a2f d0b9
000001e0: 90ce a73a 741a 49bb 3e06 49bb 2cd4 773b
000001f0: eec0 fab9 4a65 573b 1d78 21bb a3b4 60bb

conv4.1.running_mean f4 [128]
0.011867105 0.07414341 0.046366673 -0.061217684 0.052640513 0.040680766 0.031494018 -0.023698844
0.007264789 -0.06628694 -0.10489829 -0.0067541283 0.012999704 0.030707138 0.018517667 -0.07644093
0.035846367 0.043735333 -0.041484453 0.010847737 -0.024036828 0.02140617 0.06469241 -0.056473546
0.05625069 0.053982437 0.050287306 0.024106849 0.0054943934 0.080818444 0.06603922 0.09080573
0.050439037 0.039643817 0.0638811 0.014437882 0.01902793 -0.09563298 -0.014426222 -0.06780352
-0.07685833 0.011875504 -0.031282905 0.012686633 0.037289724 -0.052449837 -0.02851452 0.02857858
0.021032153 -0.022758558 0.006137318 -0.0040879026 -0.018338375 0.022371756 -0.0034143566 0.038062565
-0.06500725 0.059326366 0.07951349 -0.049085494 -0.09365915 -0.013903097 -0.006823496 0.026143719
0.029826133 0.044417 -0.026095426 -0.10598547 -0.04960765 0.09586251 -0.032191567 -0.07617784
0.015194852 0.048834767 0.053643532 0.08003685 -0.0029684594 0.011779677 -0.01777127 -0.00540053
-0.029214732 0.0062360363 0.008292941 -0.1379078 0.02977654 0.054672547 0.024707537 0.0031432216
-0.015080292 -0.046209097 -0.084880464 -0.071485564 0.020093322 -0.03892857 0.07107867 -0.0039390344
0.033466853 0.07441397 0.0390038 -0.0040904963 -0.023785718 -0.08940024 -0.06523796 0.04117305
-0.12778676 0.028671522 0.020309374 0.004631362 0.004904042 0.035308026 0.038595967 -0.12015613
0.041869566 0.0202578 -0.035278916 0.025414003 0.07736837 -0.051011413 -0.058650434 -0.08120767
0.037306894 -5.6792516e-05 -0.0363384 -0.122889325 -0.056419488 -0.038584374 -0.018267224 0.010770305
00000000: 3f6e 423c 80d8 973d fbea 3d3d 65bf 7abd
00000010: 949d 573d e0a0 263d dfff 003d 1424 c2bc
00000020: 780d ee3b 72c1 87bd ead4 d6bd bc51 ddbb
00000030: b6fc 543c 898d fb3c 5db2 973c 108d 9cbd
00000040: a4d3 123d d223 333d 9aeb 29bd b5ba 313c
00000050: e2e8 c4bc fe5b af3c 747d 843d ce50 67bd
00000060: 2067 663d b01c 5d3d 10fa 4d3d ba7b c53c
00000070: 500a b43b 2484 a53d 923f 873d 5bf8 b93d
00000080: 2a99 4e3d 8e61 223d 18d4 823d de8c 6c3c
00000090: 76e0 9b3c 39db c3bd f65b 6cbc 92dc 8abd
000000a0: e667 9dbd 7991 423c 8122 00bd 98db 4f3c
000000b0: 1cbd 183d a4d5 56bd 4897 e9bc a01d ea3c
000000c0: 9f4b ac3c 2870 babc 8e1b c93b d0f3 85bb
000000d0: 5c3a 96bc f944 b73c 66c3 5fbb 7ee7 1b3d
000000e0: 8522 85bd 3400 733d f8d7 a23d df0d 49bd
000000f0: 5ed0 bfbd d1c9 63bc a297 dfbb 5a2b d63c
00000100: ef55 f43c 9aee 353d 13c6 d5bc e90e d9bd
00000110: 6431 4bbd 9053 c43d 4edb 03bd 2103 9cbd
00000120: d4f3 783c f706 483d 52b9 5b3d 5cea a33d
00000130: 7c8a 42bb 8cff 403c 0e95 91bc eef6 b0bb
00000140: bc53 efbc aa57 cc3b 1edf 073c b437 0dbe
00000150: eeed f33c 52f0 5f3d 7667 ca3c 82fe 4d3b
00000160: 5413 77bc c045 3dbd cfd5 adbd 0667 92bd
00000170: c09a a43c 9073 1fbd b291 913d 0413 81bb
00000180: 8a14 093d 5a66 983d 73c2 1f3d 9209 86bb
00000190: 44da c2bc 7917 b7bd 7b9b 85bd 12a5 283d
000001a0: 88da 02be 8ae0 ea3c d85f a63c aec2 973b
000001b0: 16b2 a03b 269f 103d ce16 1e3d 6b14 f6bd
000001c0: 6c7f 2b3d b0f3 a53c a080 10bd 0731 d03c
000001d0: 4f73 9e3d 58f1 50bd 703b 70bd 3550 a6bd
000001e0: 1dcf 183d 8034 6eb8 93d7 14bd 66ad fbbd
000001f0: 1f18 67bd a60a 1ebd 25a5 95bc ef75 303c
