artifact/02_12_2024_10_15_53/model_training_artifacts/model.pt (torch, 440907 bytes, 26 tensors)

conv1.0.weight f4 [16, 1, 3, 3]
0	0xbd75be38	-0.05999586
1	0xbe94f34f	-0.2909188
2	0xbe39094e	-0.18069956
3	0xbe017958	-0.12643945
4	0xbb0b3acd	-0.0021244765
5	0x3e071a85	0.1319371
6	0xbcaddbec	-0.021223031
7	0xbe55af66	-0.2086769
8	0x3e8f87da	0.28033334
9	0xbe91f88a	-0.28509933
10	0xbeab5725	-0.33464924
11	0xbe34061a	-0.17580453
12	0xbe570546	-0.20998105
13	0x3e5cbeb6	0.21557125
14	0xbe1d8e1c	-0.15386242
15	0xbd321e0f	-0.043485697
16	0x3e7c06d6	0.24611983
17	0x3d91ce5b	0.07119437
18	0xbe6cf55b	-0.2314047
19	0x3e0ad47d	0.1355762
20	0xbd69ec77	-0.057110276
21	0x3ea00965	0.31257167
22	0xbdd7b547	-0.10532623
23	0xbe986484	-0.29764187
24	0x3e74e9ae	0.23917267
25	0x3db0cb6c	0.0863255
26	0xbd1dac55	-0.038494427
27	0xbe9917f9	-0.29901102
28	0x3df3720c	0.11886987
29	0x3e2b9677	0.16756617
30	0x3dd341f9	0.10315318
31	0xbea841ee	-0.328628
32	0x3b836529	0.004009862
33	0x3d23199b	0.03981934
34	0x3e527efb	0.20556252
35	0x3e0dfad0	0.13865209
36	0x3e45c989	0.19315161
37	0x3e83de77	0.25755665
38	0x3e73dc77	0.2381457
39	0xbe4120df	-0.18860196
40	0xbe019699	-0.12655105
41	0xbdfa37b5	-0.122176565
42	0xbe4a0daf	-0.19731782
43	0xbe9df476	-0.3085057
44	0x3e16c827	0.1472479
45	0x3ea998a6	0.33124274
46	0xbe8f3970	-0.2797351
47	0xbe1428ab	-0.14468639
48	0xbcecc925	-0.028904507
49	0xbe50c7a0	-0.20388651
50	0x3e83c510	0.25736284
51	0xbe4619ce	-0.19345781
52	0x3ea24745	0.31695
53	0xbe2e2ffc	-0.17010492
54	0x3e65c999	0.22440185
55	0x3e485d99	0.19566955
56	0xbe44b3ee	-0.19209263
57	0x3dd8e0b5	0.105897345
58	0xbe248c3a	-0.16069117
59	0xbe4ef7e4	-0.2021175
60	0x3ddb741b	0.10715505
61	0xbe54422e	-0.2072837
62	0x3e2e4b23	0.1702085
63	0xbe47700f	-0.1947634
64	0x3e9fca68	0.3120911
65	0xbe0df859	-0.13864268
66	0x3db986f6	0.09058945
67	0xbe7ba54f	-0.24574779
68	0xbc84bed0	-0.016204268
69	0xbe93d4cb	-0.28873286
70	0xbca3b33a	-0.019982923
71	0xbd77fbce	-0.060542874
72	0x3c802ee6	0.015647363
73	0x3e0d68b8	0.13809478
74	0xbd0f8254	-0.0350364
75	0x3e2abef6	0.16674408
76	0x3e29ea99	0.16593398
77	0xbd7fcdba	-0.062452056
78	0xbe88c9ec	-0.26716554
79	0xbe5afa61	-0.21384574
80	0x3e49c741	0.19704916
81	0xbe092ce9	-0.13396038
82	0x3dc50836	0.09620707
83	0xbe68ddb6	-0.22740826
84	0x3ea35853	0.31903324
85	0x3e012e9f	0.12615441
86	0x3e2f0cc4	0.17094713
87	0x3d37eea4	0.04490532
88	0x3e850831	0.25982812
89	0xbe9580bc	-0.2919978
90	0x3ea444b2	0.3208366
91	0x3deec8aa	0.116593674
92	0x3d94662b	0.072460495
93	0xbd67523e	-0.056474917
94	0x3d4cdbae	0.05001419
95	0xbcdcdb04	-0.026959904
96	0x3e8dba3a	0.27681142
97	0x3e937bca	0.2880538
98	0x3e7a08ad	0.24417372
99	0x3e9dde81	0.3083382
100	0xbccfc350	-0.025361687
101	0xbbe5ce82	-0.007013143
102	0x3e96a650	0.2942376
103	0x3e8fce81	0.28087237
104	0x3e086497	0.13319622
105	0x3e10707f	0.14105414
106	0xbdffcac1	-0.12489844
107	0xbe728fe5	-0.23687704
108	0xbe7073eb	-0.23481719
109	0x3e898d08	0.2686541
110	0xbe8a508a	-0.2701457
111	0x3ea9ed2a	0.33188754
112	0xbea6a148	-0.32544923
113	0x3ea816d8	0.32829928
114	0xbe82940c	-0.25503576
115	0x3e8301a2	0.25587183
116	0x3e60042f	0.21876596
117	0x3e8ad21f	0.27113435
118	0x3e4e7111	0.20160319
119	0xbe4ed93e	-0.20200059
120	0xbd996bff	-0.07491302
121	0xbe473dbf	-0.19457148
122	0xbd79290c	-0.06083016
123	0x3df6390a	0.12022598
124	0xbd978756	-0.0739886
125	0x3e1e6114	0.1546672
126	0x3e36621d	0.17810865
127	0xbe960e93	-0.29307994
128	0x3e46e365	0.19422682
129	0xbe635bbe	-0.22202966
130	0xbe1cb0d3	-0.15301828
131	0x3dbbfda8	0.091792405
132	0xbe0a318a	-0.1349546
133	0x3dae1acf	0.08501207
134	0xbe91407b	-0.28369507
135	0xbd9cc8bd	-0.07655475
136	0x3e740f2b	0.23833911
137	0x3e8af0ce	0.27136844
138	0xbea698a8	-0.32538342
139	0x3e7a2939	0.24429788
140	0x3d57b29b	0.052660566
141	0x3d138aac	0.03602092
142	0x3e54597b	0.20737259
143	0xbd9fcb9a	-0.07802506

conv1.0.bias f4 [16]
0	0x3e932bde	0.28744406
1	0xbea9347a	-0.3304785
2	0x3e93c503	0.28861246
3	0x3da0ce06	0.07851796
4	0xbd18a46e	-0.037266187
5	0xbdf314dc	-0.11869213
6	0x3dc6b5ab	0.09702619
7	0x3ea740d2	0.3266664
8	0xbe817a5b	-0.25288662
9	0x3e0d0491	0.13771273
10	0x3d938e12	0.07204832
11	0xbe6d7b8a	-0.23191658
12	0xbe944d3c	-0.28965175
13	0x3e57a674	0.2105959
14	0xbdcbd76a	-0.09953196
15	0x3e1d1f72	0.15344027

conv1.1.weight f4 [16]
0	0x3f80a25e	1.004955
1	0x3f7f0169	0.99611527
2	0x3f8074b2	1.0035613
3	0x3f8002f3	1.00009
4	0x3f7f8305	0.99809295
5	0x3f7f5224	0.9973471
6	0x3f80b70e	1.0055864
7	0x3f7f03ea	0.9961535
8	0x3f7fda62	0.999426
9	0x3f809367	1.0044984
10	0x3f7ffaeb	0.99992245
11	0x3f8075ab	1.003591
12	0x3f7f424b	0.9971053
13	0x3f7fb669	0.9988771
14	0x3f7f044a	0.9961592
15	0x3f7f13ac	0.9963939

conv1.1.bias f4 [16]
0	0xb9a3ce12	-0.00031243317
1	0x3b23b0b4	0.002497715
2	0x3b852911	0.0040637334
3	0x3bbf2748	0.00583354
4	0x3ad3a514	0.001614722
5	0xbab8f6ce	-0.001411164
6	0x3bb8f27a	0.00564414
7	0xba8aa7b4	-0.0010578544
8	0xb97b20f4	-0.00023949501
9	0x3a39325a	0.0007064693
10	0xbbab9e88	-0.0052374043
11	0xba16d7be	-0.0005754194
12	0x3bb50a1d	0.0055248872
13	0xb92a6504	-0.00016250095
14	0x3b1eb452	0.0024216366
15	0x3ad77013	0.0016436599

conv1.1.running_mean f4 [16]
0	0xc126155c	-10.380215
1	0xc16551e8	-14.332497
2	0x3f63f298	0.89042044
3	0x405aa3f5	3.4162571
4	0xc0045fba	-2.0683427
5	0xc0169bd2	-2.3532605
6	0x3f37f7b6	0.7186235
7	0xc13881a2	-11.531649
8	0x4004ed7a	2.0769944
9	0x40f419da	7.6281557
10	0x41dbd1c7	27.47743
11	0x4180802c	16.062584
12	0x40daa27e	6.8323355
13	0x40457b47	3.0856493
14	0xc136b088	-11.418098
15	0x41467846	12.404364

conv1.1.running_var f4 [16]
0	0x46d015d3	26634.912
1	0x47235b88	41819.53
2	0x46cccc9f	26214.31
3	0x46784ebf	15891.687
4	0x46f09c31	30798.096
5	0x46d6933d	27465.62
6	0x46b8e6df	23667.436
7	0x46992011	19600.033
8	0x4662846a	14497.104
9	0x46d0c180	26720.75
10	0x473544e8	46404.906
11	0x472485d3	42117.824
12	0x46f562cd	31409.4
13	0x466f13ff	15300.999
14	0x46dbf1bd	28152.87
15	0x47141ca1	37916.63

conv2.0.weight f4 [32, 16, 3, 3]
0	0x3d4d741a	0.05015955
1	0x3d540cbf	0.051769968
2	0xbc41bd77	-0.011824957
3	0xbd878af4	-0.066183
4	0x3bbe03a4	0.005798774
5	0xbda2e440	-0.079536915
6	0x3d6559da	0.055993892
7	0x3bdcdfea	0.00674056
8	0xbd309590	-0.043111384
9	0xbd7c2ddd	-0.061567176
10	0xbd961a74	-0.07329264
11	0x3d7ed8bb	0.06221841
12	0xbcadbbb0	-0.02120766
13	0x3d782d4d	0.060590077
14	0xbd6a06d1	-0.057135407
15	0xbb93d7d2	-0.004511812
16	0x3ccca1cb	0.024979493
17	0x3d4bdabf	0.04976916
18	0xbd86fb9e	-0.06590961
19	0xbda6f448	-0.08152062
20	0xbd8b3542	-0.067972675
21	0xbc32987e	-0.010900615
22	0xbd9db831	-0.07701147
23	0xbd928212	-0.07153715
24	0x3ca28578	0.019839033
25	0xbb11e1ae	-0.002225976
26	0x3c18e1a4	0.009331141
27	0xbd608ae6	-0.054819964
28	0x3d113e40	0.035459757
29	0x3b4dd8a0	0.0031409636
30	0x3bc86cb1	0.0061164727
31	0xbc0cfe6a	-0.008605579
32	0xbd37ba80	-0.044855595
33	0x3d92399a	0.07139893
34	0x3da05341	0.078283794
35	0x3d009efe	0.031401627
36	0x3d9fd805	0.07804874
37	0x3d8742c9	0.06604535
38	0x3da2a16e	0.079409465
39	0xbc9c1860	-0.019054592
40	0xbd6f5a81	-0.05843592
41	0xbd929b58	-0.07158536
42	0x3da71654	0.081585556
43	0x3bf61512	0.007509836
44	0x3ca547cc	0.020175837
45	0x3d7f0bc7	0.06226709
46	0xbd3ebce9	-0.046566878
47	0xbd4aedab	-0.049543064
48	0x3c80f38d	0.015741134
49	0x3cc28dec	0.023749314
50	0x3d4f56a5	0.05061974
51	0x3da1024c	0.07861766
52	0xbd9ee3a3	-0.07758262
53	0x3d888579	0.06666083
54	0xbc8b0355	-0.016969362
55	0x3b7aa1c1	0.0038243385
56	0xbd27e3d1	-0.040988747
57	0x3d59d8c3	0.053185236
58	0x390342f0	0.0001251807
59	0x3da13487	0.07871347
60	0xbb00558a	-0.0019582235
61	0xbc802606	-0.015643131
62	0xbd61e5c5	-0.055150766
63	0xbc856a38	-0.016286
64	0xbcac6aa8	-0.021046951
65	0xbd33bc3d	-0.04388069
66	0xbbca68c1	-0.0061770384
67	0x3c0bb92a	0.008528033
68	0xbd59b0d7	-0.053147163
69	0xbd46c390	-0.048526347
70	0xbcbc3450	-0.022974163
71	0x3d0b0b83	0.033946525
72	0xbd25cf77	-0.040481057
73	0x3d08370f	0.033255633
74	0xbd12cb06	-0.03583815
75	0xbdaefcc3	-0.08544304
76	0xbbb18be1	-0.005418286
77	0x3d31ff7f	0.04345655
78	0x3d39e241	0.04538179
79	0xbd555a30	-0.052087963
80	0x3d3c7388	0.046008617
81	0xbd915992	-0.07097162
82	0x3bb78483	0.0056005134
83	0x3cd4e425	0.025987694
84	0xbca1db74	-0.019757964
85	0x3d2b038c	0.04175143
86	0xbc1df429	-0.009640732
87	0xbd974d32	-0.07387771
88	0x3d0d35f2	0.034475274
89	0x3bd339f0	0.0064461157
90	0xbd2b2221	-0.041780595
91	0xbd928a6e	-0.071553096
92	0xbd75e16d	-0.060029436
93	0xbbc1280d	-0.005894667
94	0xbd1b778f	-0.037955817
95	0x3d8cb28a	0.06869991
96	0xbcb2ed9b	-0.021841815
97	0xbd45fa94	-0.048334673
98	0xbbb9a86d	-0.00566583
99	0xbda5c76b	-0.080946766
100	0xbd0d9da7	-0.034574177
101	0xbd8a67c9	-0.06758077
102	0x3d885360	0.066565275
103	0xbd3d112a	-0.046158947
104	0x3d93f005	0.072235145
105	0xbd8b869b	-0.06812783
106	0x3d73433d	0.059390295
107	0xbc0e53d5	-0.008686979
108	0x3d850e2a	0.06496842
109	0x3d19fafc	0.037592873
110	0xbd6f952b	-0.058491867
111	0x3d965e14	0.07342163
112	0x3d879f21	0.06622148
113	0x3d01911c	0.031632528
114	0x3c6730ce	0.014110757
115	0x3d8cf9f4	0.06883612
116	0xbd544633	-0.05182476
117	0xbd466b02	-0.048441894
118	0x3d13bb57	0.036067333
119	0x3cad7021	0.021171631
120	0x3d9633f6	0.073341295
121	0xbda26ef1	-0.07931317
122	0xbd86bedb	-0.065793715
123	0x3cc85bb8	0.024457797
124	0x3c04b1aa	0.008098999
125	0xbcc7a5b0	-0.024370998
126	0xbd21f48f	-0.03953987
127	0x3d87123e	0.06595276
128	0xbca50da0	-0.020148098
129	0xbd944ce2	-0.07241227
130	0xbc89a401	-0.016801836
131	0x3d970d79	0.073756166
132	0x3c5e47a9	0.01356689
133	0xbd12bc62	-0.035824187
134	0xbd2a8a7e	-0.041635983
135	0x3cde9fe1	0.027175846
136	0xbd423447	-0.047413137
137	0xbd0cfcb7	-0.034420695
138	0x3d8f0bcc	0.06984672
139	0x3be0012d	0.0068360777
140	0x3d7d357a	0.061818577
141	0xbbd24272	-0.0064166123
142	0x3d96cec6	0.07363658
143	0x3d7aa271	0.061190072
144	0x3bee05e4	0.007263886
145	0xbd0a2e24	-0.03373541
146	0x3d9f428c	0.07776365
147	0x3d67419a	0.056459047
148	0x3c040971	0.008058892
149	0x3d8077c4	0.062728435
150	0x3b76799e	0.003760911
151	0xbd62501a	-0.055252172
152	0xbcb7206f	-0.022354333
153	0x3c64806d	0.013946635
154	0x3d4146c4	0.047186628
155	0xbd525630	-0.051351726
156	0xbd9b4fb3	-0.07583561
157	0x3d191068	0.03736916
158	0x3c9723b5	0.018449644
159	0x3d567d56	0.052365623
160	0x3afd2508	0.0019313404
161	0x3d8b2af2	0.067953005
162	0x3d9e34db	0.07724925
163	0xbd93ead4	-0.07222524
164	0x3ce103ed	0.027467692
165	0xbd0a1811	-0.033714358
166	0xbd33718e	-0.043809466
167	0x3d1d6208	0.038423568
168	0xbd6ec1e7	-0.05829039
169	0xbd40cec1	-0.047072176
170	0xbd273874	-0.040825322
171	0xbd2bb4ee	-0.041920595
172	0x3d98efaa	0.07467587
173	0xbd2baac2	-0.041910894
174	0xbd36572d	-0.04451673
175	0x3d9e8fc6	0.07742266
176	0xbc280f90	-0.010257617
177	0xbc6fd387	-0.014637834
178	0x3c7a911c	0.015293386
179	0xbc3ddc69	-0.011588194
180	0x3d1ac353	0.037783932
181	0xbd0ca298	-0.03433475
182	0x3ce7cd78	0.028296217
183	0xbcbcd0d9	-0.023048805
184	0xbcfa9c9f	-0.03059226
185	0x3d89d97b	0.06730934
186	0x3d143b99	0.03618965
187	0x3d54ebf2	0.051982827
188	0x3cd98bd5	0.026555935
189	0x3c96fcae	0.018431034
190	0xbd1e65b2	-0.038671203
191	0xbcbcc659	-0.023043798
192	0x3d921634	0.07133141
193	0xbad99f95	-0.0016603345
194	0x3ce61024	0.028083868
195	0x3da4721e	0.080295786
196	0x3d7c3fd5	0.061584312
197	0x3da55081	0.080719955
198	0x3c9d9cdb	0.019239834
199	0xbd6d3da5	-0.057920117
200	0xbcc47786	-0.023982774
201	0x3d5ebe1a	0.054380514
202	0xbd79267b	-0.060827713
203	0xbd9e180c	-0.0771943
204	0xbd8a40d5	-0.06750647
205	0xbd07b119	-0.033127878
206	0x3cf0d2a0	0.029397309
207	0x3d87fe5d	0.06640313
208	0x3c77dea4	0.015128765
209	0x3d0b87a3	0.0340649
210	0xbcb0c7f7	-0.021579726
211	0x3c44bc24	0.012007747
212	0x3d185c47	0.037197378
213	0x3d404fd2	0.046951123
214	0x3d937c39	0.07201428
215	0x3d078802	0.03308869
216	0x3d065ae5	0.032801528
217	0x3d711892	0.058861323
218	0x3d647c09	0.05578235
219	0x3d9c7708	0.07639891
220	0xbbec6211	-0.007213839
221	0x3d65fb1e	0.056147687
222	0xbd92e35f	-0.07172274
223	0x3cc9eaf2	0.024648163
224	0x3d4b1e69	0.04958955
225	0xbd6489bb	-0.055795413
226	0xbcbf5a4b	-0.023358485
227	0xbd2859f8	-0.041101426
228	0xbda95682	-0.08268453
229	0xbc2eb950	-0.010664299
230	0xbd20eb93	-0.03928716
231	0xbd9a9467	-0.07547837
232	0xbbd25a89	-0.006419484
233	0xbd880d1f	-0.06643128
234	0xbd41e984	-0.04734184
235	0xbd19721d	-0.037462343
236	0x3ce66ea3	0.028128928
237	0x3c25df20	0.010123998
238	0xbd849e67	-0.06475525
239	0xbd5329d1	-0.05155355
240	0x3da92b1a	0.08260174
241	0xbd263a15	-0.040582735
242	0x3c14d82f	0.009084745
243	0x3d0fbcf1	0.035092298
244	0x3d2dd2bb	0.042437296
245	0x3cfc4ed1	0.030799301
246	0xbd91280f	-0.07087719
247	0xbd7f92c5	-0.06239583
248	0x3ced51c1	0.028969647
249	0x3b4c5c07	0.0031182782
250	0xbb501042	-0.0031747972
251	0xbd190d11	-0.037365977
252	0xbd12b615	-0.03581818
253	0x3d7135d8	0.05888924
254	0x3d596610	0.05307585
255	0xbd63ccc5	-0.055615205

conv2.0.bias f4 [32]
0	0x3d8ffc6c	0.070305675
1	0xbd8fbddc	-0.07018635
2	0x3d1d3bc6	0.038387083
3	0x3ca1cf37	0.019752128
4	0x3d10ab3c	0.03531955
5	0xbda7f018	-0.08200091
6	0x3da12743	0.07868817
7	0x3cc284e8	0.023745015
8	0x3c07ca9a	0.00828805
9	0x3d0c2db8	0.03422329
10	0x3d3947ad	0.04523437
11	0x3bb70820	0.0055856854
12	0xbc69b4a2	-0.014264258
13	0x3d0ece13	0.034864496
14	0xbcbf58f5	-0.023357848
15	0x3d941b64	0.07231787
16	0x3d8743f6	0.066047594
17	0xbd2992f2	-0.041399904
18	0x3d3a7c5b	0.04552875
19	0x3da907c6	0.08253436
20	0xbd743944	-0.059624925
21	0xbccc0495	-0.024904529
22	0x3cb84d18	0.022497699
23	0xbcde73b4	-0.02715478
24	0x3d5f73e3	0.054553878
25	0x3d29290b	0.041298907
26	0x3d98efee	0.07467638
27	0xba694900	-0.00088991225
28	0x3c815a97	0.015790267
29	0x3d4962a6	0.049166344
30	0x3d5489dc	0.051889285
31	0x3c9d998d	0.019238258

conv2.1.weight f4 [32]
0	0x3f7fca6d	0.9991825
1	0x3f7fc669	0.99912125
2	0x3f800aeb	1.0003332
3	0x3f80ab0c	1.0052199
4	0x3f7fddde	0.9994792
5	0x3f80198a	1.0007794
6	0x3f804ae0	1.002285
7	0x3f800eee	1.0004556
8	0x3f7ff104	0.99977136
9	0x3f7f86ae	0.9981488
10	0x3f8020ea	1.0010045
11	0x3f7f456c	0.99715304
12	0x3f7f1eee	0.9965657
13	0x3f802f1c	1.0014377
14	0x3f8028f6	1.00125
15	0x3f7fe1db	0.99954003
16	0x3f80190d	1.0007645
17	0x3f7f1e34	0.9965546
18	0x3f7f5d69	0.9975191
19	0x3f801cfa	1.0008843
20	0x3f7f812f	0.99806494
21	0x3f7eee36	0.9958223
22	0x3f80646b	1.0030645
23	0x3f801426	1.0006149
24	0x3f805469	1.002576
25	0x3f8079ec	1.0037208
26	0x3f809ceb	1.0047888
27	0x3f7f4698	0.9971709
28	0x3f80014a	1.0000393
29	0x3f80a2dd	1.0049702
30	0x3f7eefc9	0.99584633
31	0x3f809dbc	1.0048137

conv2.1.bias f4 [32]
0	0x3b997b43	0.0046838834
1	0xbb78deba	-0.0037974552
2	0x3a6b17a2	0.000896806
3	0xb9e4077a	-0.0004349312
4	0x3b8d27cb	0.004307722
5	0x3b64db04	0.0034920583
6	0x3b4dfafa	0.0031430111
7	0x3b9525b3	0.0045516132
8	0x3ae3e4ed	0.0017386951
9	0x3b0d6e6e	0.0021580714
10	0x3b9d1614	0.0047938917
11	0x3aa3a2e6	0.0012484461
12	0xbb21eb4a	-0.0024706894
13	0xbb999984	-0.00468749
14	0x3b8e3fa4	0.0043410826
15	0xbae82670	-0.001771165
16	0x39f1e30f	0.00046136274
17	0xbab2d5ed	-0.0013644077
18	0x3ac438bb	0.001497052
19	0xbb5f1f4b	-0.0034045752
20	0x3ba75644	0.005106719
21	0x3bb7654f	0.0055967937
22	0x3af521e7	0.001870212
23	0xbb01d1c3	-0.0019808866
24	0x3b427783	0.0029673285
25	0x3b5f25c2	0.0034049605
26	0x3abc325d	0.0014358271
27	0xbb9755f7	-0.004618402
28	0x3b4ea4a4	0.003153124
29	0xbb022aac	-0.001986186
30	0xbab60036	-0.0013885561
31	0x3b3db605	0.0028947603

conv2.1.running_mean f4 [32]
0	0x3ce90346	0.028443944
1	0xbd66f9bd	-0.056390513
2	0xbd42e155	-0.047578175
3	0x3bf169ba	0.00736734
4	0x3dff4ae5	0.12465457
5	0x3b0e9be0	0.002176039
6	0x3d7303ec	0.059329912
7	0xbd080434	-0.033207133
8	0xbd8744c2	-0.066049114
9	0x3b4bf649	0.003112214
10	0xbd9b7d4f	-0.0759226
11	0x3d3c5bd5	0.045986015
12	0xbd71e98c	-0.05906062
13	0x3d209fb9	0.039214823
14	0x3d90617a	0.07049842
15	0x3d136ba9	0.035991345
16	0x3d6dfa97	0.05810031
17	0x3cc2ca3d	0.023778075
18	0xbd2e236a	-0.042514242
19	0x3df502e9	0.11963446
20	0xbd8d8a4d	-0.069111444
21	0x3cfb24e4	0.03065724
22	0x3cfbd644	0.030741818
23	0xbd9e04eb	-0.07715782
24	0x3deb6d2e	0.11495434
25	0xbd5e0876	-0.054207288
26	0x3d578b3b	0.052623015
27	0xbc0e5be9	-0.008688905
28	0x3d1740bd	0.036926974
29	0x3d63b7c6	0.055595182
30	0x3da5aa4a	0.08089121
31	0xbdda38fe	-0.10655402

conv2.1.running_var f4 [32]
0	0x3f33dc63	0.7025816
1	0x3f3f29e2	0.74673283
2	0x3f309efa	0.6899258
3	0x3f341196	0.70339334
4	0x3f615cab	0.88032025
5	0x3f2c4e58	0.67307043
6	0x3f2309ad	0.6368664
7	0x3f44d869	0.76892716
8	0x3f447e7a	0.7675549
9	0x3f51b277	0.8191294
10	0x3f75fb43	0.9608652
11	0x3f37c9fd	0.71792585
12	0x3f445179	0.7668682
13	0x3f1f8126	0.6230644
14	0x3f2bdcca	0.6713377
15	0x3f21e15d	0.632345
16	0x3f17e145	0.5932811
17	0x3f200fe7	0.62524265
18	0x3f4947d5	0.7862523
19	0x3f3cbec7	0.73728603
20	0x3f4c22df	0.7974071
21	0x3f3411a5	0.70339423
22	0x3f3818f4	0.71913075
23	0x3f29183e	0.66052616
24	0x3f530772	0.82433236
25	0x3f4da27b	0.8032605
26	0x3f2c79e2	0.6737348
27	0x3f443742	0.76646817
28	0x3f3def73	0.74193496
29	0x3f18ef40	0.59740067
30	0x3f42b246	0.76053274
31	0x3f8b6572	1.0890334

conv3.0.weight f4 [64, 32, 3, 3]
0	0xbc19511c	-0.009357717
1	0x3c87b185	0.01656414
2	0x3ceca9a6	0.028889488
3	0x3ca5a78f	0.0202215
4	0x3ceda825	0.029010842
5	0x3d0c56ba	0.034262396
6	0xbc21f969	-0.009886124
7	0x3ce26639	0.027636634
8	0xbd136e1c	-0.03599368
9	0x3b04457d	0.002018302
10	0xbc861e9f	-0.016372023
11	0x3d21dc8b	0.039516967
12	0x3ccb0a48	0.024785176
13	0x3d2f044e	0.042728715
14	0xbc9a5422	-0.018838946
15	0x3d32ecca	0.04368285
16	0xbd5e4de7	-0.054273512
17	0x3d76c0dc	0.06024252
18	0xbceab0e7	-0.028648807
19	0xbc812630	-0.01576528
20	0x3d0dfd41	0.03466535
21	0xbd1aa34f	-0.0377534
22	0xbaa285df	-0.0012399516
23	0x3c10b3a9	0.008831897
24	0xbc8cea23	-0.017201489
25	0x3d23d35d	0.039996494
26	0xbd3e4cee	-0.046460085
27	0xbc2c99b1	-0.01053469
28	0x3ccc6c46	0.024953973
29	0xbd0ef433	-0.034900855
30	0x3c6194d9	0.013768398
31	0x3cde2d09	0.027121084
32	0x3d49ee77	0.049299683
33	0xbb6e45df	-0.0036357564
34	0x3d43db37	0.04781648
35	0x3d6b975c	0.057517394
36	0xbcef9fa8	-0.029250935
37	0x3d0beff0	0.03416437
38	0x3cd82d2b	0.026388725
39	0xbce1af8f	-0.027549533
40	0x3cf4ff2c	0.029906832
41	0xbcb8b4b5	-0.022547105
42	0xbc94b2e0	-0.0181517
43	0x3c6b90e6	0.014377808
44	0xbc597877	-0.01327335
45	0x3cb582f0	0.022157162
46	0xbd223927	-0.039605286
47	0xbcdc5fd6	-0.026901167
48	0x3d2eba28	0.042658
49	0x3cbd9f48	0.02314724
50	0xbc34c069	-0.011032202
51	0xbd6931f4	-0.056932405
52	0xbcdaf03f	-0.026725886
53	0x3d15a339	0.036532614
54	0xbc2cdb7b	-0.010550375
55	0xbcee3b4a	-0.029081006
56	0x3c1ffa24	0.009764228
57	0xbd229e1b	-0.039701562
58	0xbcd6502e	-0.02616128
59	0xbd249f3c	-0.04019092
60	0xbcc21ce0	-0.02369541
61	0x3ceffe82	0.029296163
62	0xbd539e5e	-0.051664703
63	0xbd3249eb	-0.043527525
64	0x3c1c240c	0.009530079
65	0x3d5cd04f	0.053909596
66	0xbd7be18f	-0.061494406
67	0xbd5cf730	-0.053946674
68	0xbc91b564	-0.01778669
69	0xbd08ab21	-0.033366326
70	0x3d0a6291	0.033785407
71	0x3b251e82	0.0025195186
72	0x3be0d04c	0.0068607684
73	0xbcbb44c1	-0.022859933
74	0x3be6c2cb	0.007042264
75	0xbc9e14bc	-0.019296996
76	0xbbad16bf	-0.0052822526
77	0x3d4ca126	0.04995837
78	0xbcda2c7e	-0.026632544
79	0x3d5e273a	0.054236628
80	0xbb814054	-0.003944436
81	0xbc54f1d7	-0.012997112
82	0xbb01fe4b	-0.0019835408
83	0xbd3bf391	-0.04588658
84	0x3d2bb491	0.04192025
85	0x3d1cdb93	0.03829534
86	0x3d24ba31	0.04021663
87	0xbd2f8cbb	-0.04285882
88	0xbceedf3b	-0.029159179
89	0xbb995d03	-0.0046802773
90	0xbc804b6c	-0.015660964
91	0xbc852f89	-0.016258018
92	0x3d60403a	0.05474875
93	0xbbab7be4	-0.005233275
94	0x3d7710a0	0.06031859
95	0x3c0640f1	0.008194194
96	0xbc91a553	-0.017779028
97	0xbd602bc8	-0.054729253
98	0x3d16606d	0.036713053
99	0xba7bfa46	-0.0009612184
100	0xbd50517b	-0.050858956
101	0x3cce0c55	0.025152365
102	0xbd296a9d	-0.04136144
103	0x3cfd495f	0.030918775
104	0xbc877f19	-0.016540097
105	0xbd2fceea	-0.042921938
106	0xbd0b8f04	-0.034071937
107	0x3d43f5ed	0.047841955
108	0x3d10a825	0.035316605
109	0xbcaabb1c	-0.020841174
110	0x3c72c592	0.014817612
111	0xbcb713d9	-0.022348331
112	0x3cffb002	0.031211857
113	0x3cd4c3bd	0.025972242
114	0x3d2adce1	0.041714553
115	0xb96f04a8	-0.00022794551
116	0xbd59a429	-0.05313507
117	0x3d3f4533	0.046696853
118	0xbaafab81	-0.0013402553
119	0xba363927	-0.00069512654
120	0xbd1fa446	-0.038975023
121	0xbb866213	-0.004101047
122	0x3d0ad8f5	0.033898313
123	0x3be8bb40	0.0071024
124	0xbac7ef16	-0.0015253748
125	0x3d59d86f	0.053184923
126	0x3c6640e7	0.01405356
127	0x3bb0f23b	0.00539997
128	0x3c860c9b	0.016363433
129	0x3d38b989	0.045098815
130	0x3cd25a9e	0.025677975
131	0x3bc973ca	0.0061478363
132	0x3cf476ce	0.029841807
133	0x3d59d9a7	0.053186085
134	0x3d661725	0.056174416
135	0xbd2a79e0	-0.041620135
136	0x3d584ac6	0.052805685
137	0xbcecde53	-0.028914606
138	0xbc805d00	-0.015669346
139	0xbd175dab	-0.036954563
140	0xbca116d8	-0.019664213
141	0xbd22c5e2	-0.039739497
142	0xbd23b0da	-0.03996358
143	0x3ce72193	0.028214252
144	0x3c59877c	0.013276931
145	0x3d391e27	0.04519477
146	0xbc97772b	-0.01848944
147	0xbcc8b370	-0.024499625
148	0x3cd089ac	0.025456272
149	0x3cb667fa	0.022266377
150	0x3cd2e587	0.025744213
151	0x3b3831e0	0.00281059
152	0xbb831467	-0.004000235
153	0xbc8a94f1	-0.016916724
154	0x3d02c802	0.031929024
155	0xbbcb0b81	-0.0061964397
156	0xbd14ad9f	-0.03629839
157	0xbc93afa7	-0.018028094
158	0xbc945d46	-0.018110882
159	0xbce5f869	-0.028072553
160	0xbc3e3538	-0.011609368
161	0x3d4bc596	0.04974898
162	0x3d089250	0.03334266
163	0xbd055bc0	-0.032558203
164	0x3c7be128	0.015373506
165	0xbd68f964	-0.056878462
166	0xbcff1eda	-0.03114264
167	0xbc7610cf	-0.015018656
168	0x3d2c3e9f	0.042051908
169	0xbd53ae6d	-0.051680017
170	0x3d017873	0.03160901
171	0x3c88542c	0.016641699
172	0xbce05a1a	-0.027386714
173	0xbc00645d	-0.0078364285
174	0xbb5feaa3	-0.0034166954
175	0xbca06ad8	-0.019582197
176	0x3d1637fc	0.036674485
177	0xbbebc975	-0.0071956464
178	0xbcf870cc	-0.030327223
179	0x3d071f1a	0.032988645
180	0x3d20c720	0.0392524
181	0xbd026abc	-0.03184007
182	0x3bfb9f38	0.0076788925
183	0xbc6efdbb	-0.014586861
184	0x3d12db4a	0.03585366
185	0xbd530211	-0.051515643
186	0x3d4b4067	0.049621966
187	0xbbf8868f	-0.0075844
188	0x3c72a1a9	0.014809051
189	0x3c36016e	0.011108739
190	0xbcf959ab	-0.030438265
191	0x3cd88344	0.02642978
192	0x3c81349a	0.015772153
193	0x3cad3347	0.021142615
194	0x3d3ae993	0.04563291
195	0xbbc643c7	-0.00605056
196	0x3d247869	0.040153895
197	0x3d4ad5b2	0.049520202
198	0xbc499e0f	-0.0123057505
199	0x3c8df8e1	0.017330589
200	0x3d606e54	0.054792717
201	0x3c22a61c	0.009927299
202	0xbd46af75	-0.048507173
203	0x3d6ef94d	0.05834322
204	0x3d25cf05	0.040480632
205	0x3bc35268	0.0059607513
206	0x3ca2b712	0.019862685
207	0xbbe1f914	-0.0068961475
208	0x3c1cd313	0.009571808
209	0x3b250ba2	0.0025183936
210	0x3d02a3ab	0.031894367
211	0x3c0e6889	0.008691915
212	0x3d0d838f	0.034549292
213	0xba58cbb2	-0.0008270099
214	0x3d1ee909	0.03879646
215	0x3d26aeb6	0.04069396
216	0xbd31943b	-0.043354254
217	0x3d0fcc95	0.035107214
218	0xbc8750fb	-0.016518107
219	0x3d43bbe9	0.047786627
220	0xbc719c33	-0.014746713
221	0x3d734404	0.059391037
222	0x3cd27ebf	0.025695203
223	0x3d4050d1	0.046952073
224	0x3d020a21	0.03174794
225	0xbd055101	-0.032547954
226	0xb8145730	-3.536715e-05
227	0xbc33b869	-0.01096926
228	0x3c928ecd	0.017890358
229	0x3d10ab3b	0.035319548
230	0xbc3ac956	-0.011400541
231	0xbd7441fd	-0.059633244
232	0x3a1d6501	0.00060041255
233	0x3c146941	0.009058298
234	0x3cd56294	0.026047982
235	0x3cad6000	0.02116394
236	0x3d5f87cf	0.054572877
237	0xbd47bf00	-0.048766136
238	0xbc920f30	-0.017829508
239	0x3cd3a248	0.025834218
240	0x3d0c2181	0.03421164
241	0xbcff4c03	-0.031164175
242	0x3be832aa	0.0070861178
243	0xbc7ee844	-0.015558306
244	0xbd135940	-0.035973787
245	0x3d2e7a1f	0.042596933
246	0x3d004489	0.03131536
247	0x3c3f953d	0.011693296
248	0x3d0375d1	0.03209478
249	0xbb9cce20	-0.004785314
250	0x3d139518	0.03603086
251	0x3d627b5c	0.055293426
252	0xbd0c8cf5	-0.034314115
253	0x3d7f7421	0.06236661
254	0xbcaa9015	-0.020820657
255	0x3cc002f0	0.0234389

conv3.0.bias f4 [64]
0	0xbcdfa677	-0.027301056
1	0xbca5eb07	-0.020253671
2	0xbcdf5367	-0.027261449
3	0x3bf3a307	0.007435206
4	0x3d0e31af	0.03471535
5	0xba92d689	-0.0011202852
6	0x3c2296cc	0.009923648
7	0xbcfc56cc	-0.030803107
8	0x3ca21a1a	0.019787837
9	0xbce59211	-0.028023751
10	0xbcd03be7	-0.025419189
11	0x3c6c58a4	0.01442543
12	0x3b3547e0	0.002766125
13	0x3cd20101	0.025635244
14	0xbb268672	-0.0025409725
15	0x3c2da72a	0.010598937
16	0x3b46fabb	0.003036185
17	0xbd5d6cae	-0.054058723
18	0x3b85ae34	0.0040796045
19	0x39cfda1a	0.00039644615
20	0xbc944fb3	-0.01810441
21	0x3adaa214	0.0016680383
22	0x3b7219fb	0.0036941755
23	0x3d6ea326	0.05826106
24	0x3d5fb3f7	0.054614987
25	0xbbc035df	-0.005865797
26	0xbb19cb0f	-0.002346698
27	0xbd6f8f1a	-0.05848608
28	0x3d2a1a90	0.04152924
29	0xbcf08116	-0.029358428
30	0xbcf7fe81	-0.030272724
31	0x3cc5bd46	0.024138104
32	0xbcf2e421	-0.029649796
33	0x3bbdec72	0.0057960087
34	0x3c484f4f	0.01222594
35	0x3cf3cbe5	0.02976031
36	0x3cf7de2f	0.030257313
37	0xbc3e095f	-0.011598914
38	0x3c9f10c0	0.019417167
39	0xbc05696f	-0.008142813
40	0xbbed3027	-0.007238406
41	0xbcb7745b	-0.02239435
42	0x39c49803	0.0003749729
43	0xbc9275be	-0.01787841
44	0xbd5dd178	-0.054154843
45	0x3d2cd66a	0.04219667
46	0x3c155515	0.009114523
47	0xbd500343	-0.05078436
48	0xbd03b25d	-0.032152522
49	0x3a785ab8	0.00094739674
50	0x3d08845b	0.03332935
51	0x3ca012b5	0.01954017
52	0x3d6b49e3	0.05744351
53	0xbd34b057	-0.044113483
54	0x3b41b5bd	0.0029557787
55	0x3cef7e09	0.029234903
56	0xbbd45300	-0.006479621
57	0x3d0d06d4	0.03443034
58	0xba08610f	-0.0005202451
59	0x3cf1088f	0.029423026
60	0xbcf6f4d5	-0.030146042
61	0x3cd12045	0.025528083
62	0x3c87f869	0.016597943
63	0x3d2eb5bb	0.04265378

conv3.1.weight f4 [64]
0	0x3f80912b	1.0044302
1	0x3f809074	1.0044084
2	0x3f808b8b	1.0042585
3	0x3f8085a1	1.004078
4	0x3f8056f8	1.0026541
5	0x3f8002b3	1.0000824
6	0x3f7f13e0	0.996397
7	0x3f805e69	1.0028812
8	0x3f7ff71b	0.9998643
9	0x3f7fde6d	0.9994877
10	0x3f80b004	1.0053716
11	0x3f7f5f28	0.9975457
12	0x3f8087ed	1.0041481
13	0x3f80bd91	1.0057851
14	0x3f80063c	1.0001903
15	0x3f8098bb	1.004661
16	0x3f806748	1.0031519
17	0x3f7fb153	0.9987995
18	0x3f7fffb9	0.99999577
19	0x3f803789	1.0016948
20	0x3f7fbd14	0.99897885
21	0x3f800c1c	1.0003695
22	0x3f7fbb73	0.998954
23	0x3f7f046a	0.9961611
24	0x3f7fab00	0.998703
25	0x3f7eb78a	0.9949881
26	0x3f7fe91f	0.9996509
27	0x3f7feab5	0.9996751
28	0x3f7f99f3	0.9984428
29	0x3f7fe29d	0.9995516
30	0x3f7fc325	0.9990714
31	0x3f8002a2	1.0000803
32	0x3f805bb7	1.0027989
33	0x3f7ff68e	0.9998559
34	0x3f7ffd9c	0.9999635
35	0x3f7efbc3	0.9960291
36	0x3f806a59	1.0032455
37	0x3f7f4bdc	0.9972513
38	0x3f80926d	1.0044686
39	0x3f802d64	1.0013852
40	0x3f806307	1.0030221
41	0x3f8027ba	1.0012124
42	0x3f7fedb2	0.9997207
43	0x3f7ee71e	0.99571407
44	0x3f804538	1.0021124
45	0x3f7f7db8	0.99801207
46	0x3f7f17c7	0.99645656
47	0x3f7ff146	0.9997753
48	0x3f7ef55a	0.99593127
49	0x3f804146	1.001992
50	0x3f7f8942	0.99818814
51	0x3f7ee99e	0.9957522
52	0x3f80743a	1.003547
53	0x3f7fb29d	0.9988192
54	0x3f801b5a	1.0008347
55	0x3f7f43b9	0.9971271
56	0x3f7f108f	0.9963464
57	0x3f803611	1.00165
58	0x3f7f148c	0.9964073
59	0x3f7fb3c3	0.9988367
60	0x3f803c93	1.0018486
61	0x3f7f88b6	0.9981798
62	0x3f7febde	0.9996928
63	0x3f80491c	1.0022311

conv3.1.bias f4 [64]
0	0x3b81bc10	0.0039591864
1	0x3ba5f5e1	0.0050647114
2	0x3b9a0572	0.004700356
3	0x3b6314e9	0.0034649915
4	0x3baaa5f9	0.0052077738
5	0xbb2eb11f	-0.0026655865
6	0x3aa3613f	0.0012464895
7	0x3ba2209d	0.0049477355
8	0xba77bf51	-0.00094508106
9	0x3b9fd0fc	0.004877208
10	0x3bb0cc99	0.0053954837
11	0xbb6525f2	-0.0034965244
12	0x3b0c1fbd	0.0021381222
13	0x3b9a2772	0.0047044093
14	0x3b8e6f52	0.0043467665
15	0x3b851bc1	0.0040621464
16	0x3b96b53c	0.0045992415
17	0xbba5df48	-0.0050620176
18	0xb83a6670	-4.4441258e-05
19	0xba7e3705	-0.00096975296
20	0xbb62c910	-0.0034604706
21	0xbad5e035	-0.0016317429
22	0xbb6971d2	-0.003562082
23	0x3a95bb7f	0.0011423676
24	0x3b9e500f	0.004831321
25	0x3ac1cc33	0.0014785588
26	0x3b9a6c2d	0.0047126026
27	0x3b6a960d	0.0035795004
28	0xbb65cd42	-0.003506497
29	0x3ac06184	0.00146775
30	0x3af4346e	0.0018631348
31	0xbb84ae2e	-0.004049084
32	0xbac03aa3	-0.0014665913
33	0x3b3313ad	0.002732496
34	0x3b8e6357	0.0043453383
35	0xbb6994d3	-0.0035641685
36	0x3b9059f0	0.0044052526
37	0x3ba66b1e	0.0050786873
38	0x3bbc48b5	0.005745972
39	0x3ba052d0	0.0048926845
40	0xbb550ff1	-0.0032510723
41	0x3bb3e0aa	0.0054894285
42	0xbb15b7df	-0.0022845191
43	0xbbab0281	-0.0052188043
44	0x3af3895c	0.0018580365
45	0xbb613124	-0.0034361565
46	0x3aeea96f	0.0018208454
47	0xba1bfc0c	-0.00059503387
48	0xb9860c44	-0.0002556761
49	0xbb2fe47a	-0.0026839064
50	0xbaa40d29	-0.0012516129
51	0xbbb05f34	-0.005382443
52	0x3b189513	0.0023282215
53	0xbb48761c	-0.0030587977
54	0x3bb2bd0e	0.005454666
55	0xbac0184a	-0.0014655676
56	0x39aa4e54	0.00032483286
57	0x382653a0	3.9655366e-05
58	0xbb1df0c6	-0.002409981
59	0x3b8e0c98	0.0043349974
60	0xbaa163a2	-0.0012313018
61	0x3b619592	0.0034421426
62	0xba19ab4e	-0.0005862013
63	0x3b899c3f	0.004199534

conv3.1.running_mean f4 [64]
0	0x3dbbad29	0.09163887
1	0xbc9bb9b0	-0.019009441
2	0x3d3e78c4	0.04650189
3	0x3dd61784	0.10453704
4	0x3ccb853a	0.0248438
5	0x3d391c62	0.045193084
6	0xbd119217	-0.035539713
7	0x3d25a7d6	0.040443264
8	0x3b860b5b	0.004090709
9	0xbd703852	-0.05864746
10	0xbde26f89	-0.1105643
11	0x3cf3c78b	0.029758235
12	0xbc2a3673	-0.010388958
13	0xbd07d8f3	-0.033165883
14	0x3dac1f79	0.084044404
15	0xbda8beb8	-0.08239502
16	0xbd623fa3	-0.05523647
17	0x3d383572	0.044972844
18	0xbe4c2166	-0.19934615
19	0x3e000e3e	0.12505433
20	0x3cf29b5e	0.0296151
21	0x3e39a2a6	0.18128452
22	0x3d6dcdd3	0.058057617
23	0xbb6a1e66	-0.0035723685
24	0xbd385876	-0.045006238
25	0x3df0cbd8	0.1175763
26	0x3c9817f3	0.018566107
27	0xbb965350	-0.0045875683
28	0x3d3a57f2	0.045494027
29	0xbe0babd1	-0.13639762
30	0x3d5f9e9d	0.054594625
31	0x3dbcc0d1	0.09216464
32	0xbc49e370	-0.012322292
33	0xbd418506	-0.047246
34	0x3d3073d8	0.043079227
35	0xbc98797a	-0.018612612
36	0xbbf90a8c	-0.0076001342
37	0xbd9a688e	-0.075394735
38	0x3da5513c	0.08072135
39	0xbcdf908b	-0.027290603
40	0x3d1f4fa5	0.038894314
41	0x3ddff8b1	0.10936106
42	0x3b40be8a	0.0029410445
43	0xbd49761a	-0.049184896
44	0x3d9df323	0.0771239
45	0xbd39d246	-0.045366548
46	0xbd9daf5c	-0.07699463
47	0xbd89a2f5	-0.06720535
48	0x3e046388	0.12928593
49	0x3da57009	0.0807801
50	0x3de234a6	0.11045198
51	0xbc9cea13	-0.019154584
52	0x3cfcb2ea	0.030847032
53	0xbe228bb6	-0.15873608
54	0x3d96b971	0.07359589
55	0x3def03c0	0.11670637
56	0x3c4fd2d6	0.012684545
57	0x3dbbe528	0.091745675
58	0x3d0a7d95	0.03381117
59	0x3cf8d98c	0.030377172
60	0xbd1adec8	-0.037810117
61	0xbdea9cad	-0.11455665
62	0x3c4bbfe3	0.012435886
63	0xbddccd15	-0.10781304

conv3.1.running_var f4 [64]
0	0x3f7aeb09	0.98014885
1	0x3f28b26f	0.6589727
2	0x3f43c485	0.7647174
3	0x3f4b1713	0.79332083
4	0x3f2b05c2	0.6680566
5	0x3f3944ac	0.7237041
6	0x3f2f05cb	0.68368214
7	0x3f1f143d	0.62140256
8	0x3f19b40f	0.6004037
9	0x3f4d90fd	0.8029936
10	0x3f50ffbb	0.81640214
11	0x3f1efc0a	0.6210333
12	0x3f2608a6	0.64856946
13	0x3f2952ad	0.6614178
14	0x3f47f34f	0.78105634
15	0x3f421093	0.7580654
16	0x3f31c95c	0.69447875
17	0x3f3ed0a7	0.7453713
18	0x3fcb078d	1.5861679
19	0x3f878daa	1.0590107
20	0x3f1eaf1e	0.6198596
21	0x3faf37de	1.3688924
22	0x3f231559	0.6370445
23	0x3f280966	0.6563934
24	0x3f41e692	0.7574245
25	0x3f6e8835	0.93176585
26	0x3f3654f7	0.71223396
27	0x3f3461d0	0.7046175
28	0x3f2b2f1d	0.66868764
29	0x3f7a5d23	0.97798365
30	0x3f2e0dcd	0.6798981
31	0x3f36efd1	0.7145968
32	0x3f251a40	0.6449318
33	0x3f3cf9e5	0.7381881
34	0x3f2a1357	0.6643576
35	0x3f27d5c4	0.65560555
36	0x3f1ce059	0.6127983
37	0x3f25569b	0.64585274
38	0x3f41110b	0.7541663
39	0x3f3a4b16	0.7277082
40	0x3f2b1e95	0.6684354
41	0x3f73b9f8	0.9520564
42	0x3f196233	0.59915465
43	0x3f2e8a7c	0.6818006
44	0x3f78a783	0.971306
45	0x3f2864e2	0.65778935
46	0x3f4e8b15	0.8068097
47	0x3f3ad7af	0.7298536
48	0x3f6ba090	0.92041874
49	0x3f6318a8	0.887095
50	0x3f400cf1	0.75019747
51	0x3f2e3b7c	0.68059516
52	0x3f2c1b0f	0.6722879
53	0x3f5248ea	0.8214251
54	0x3f444692	0.7667018
55	0x3f544642	0.82919705
56	0x3f2673fe	0.6502074
57	0x3f238f5d	0.6389063
58	0x3f2cdaa4	0.6752112
59	0x3f28656e	0.6577977
60	0x3f22eb60	0.63640404
61	0x3f8d7606	1.1051643
62	0x3f1df77a	0.61705744
63	0x3f6059a6	0.8763679

conv4.0.weight f4 [128, 64, 3, 3]
0	0xbb8f0d07	-0.0043655667
1	0x3d2d39f9	0.042291615
2	0x3cb6320e	0.022240665
3	0x3c97ddd9	0.018538402
4	0xbc0625a2	-0.008187683
5	0x3b605ad8	0.0034233835
6	0x3ca455a2	0.020060364
7	0xbc94ce82	-0.018164877
8	0xbd0f2fb1	-0.03495759
9	0xbc32abd3	-0.010905224
10	0x3d163521	0.03667176
11	0x3c92dd6e	0.017927852
12	0xbc4fcc0d	-0.012682927
13	0xbc1d32d8	-0.009594642
14	0x3bc1a8ab	0.0059099994
15	0xbd07afb1	-0.033126537
16	0xbbff88d4	-0.0077982936
17	0xbc87f209	-0.016594904
18	0xbcc1d058	-0.023658916
19	0xbb9e7e90	-0.004836865
20	0x3d18fe5f	0.037351962
21	0xbd089979	-0.033349488
22	0x3ca2bb18	0.019864604
23	0x3cc93858	0.024563
24	0xbbdc181e	-0.006716742
25	0x3ceca897	0.028888984
26	0xbcbd59f3	-0.02311418
27	0xbbbeface	-0.005828238
28	0xbcd88b65	-0.026433656
29	0xbd04b91e	-0.032403104
30	0x3c5fd566	0.013661718
31	0x3cb75747	0.022380484
32	0x3d21aa55	0.039469082
33	0xbd03f59f	-0.032216664
34	0x3d046981	0.03232718
35	0xbd04c7f7	-0.032417264
36	0xbce67cd4	-0.028135695
37	0xbd0633a0	-0.032764077
38	0x3caf3310	0.021386653
39	0xbc7da625	-0.0154815065
40	0x3cc417b2	0.02393708
41	0x3adffa30	0.0017088111
42	0x3cb56681	0.022143604
43	0xbd17e1b0	-0.037080467
44	0xbc990b76	-0.018682223
45	0x3c9ee985	0.01939846
46	0xbb0feb3a	-0.0021960274
47	0xbcef3028	-0.029197767
48	0xbcb86529	-0.022509174
49	0xbd011f5c	-0.031524047
50	0xbcc32cd9	-0.023825096
51	0xbcffe0c1	-0.0312351
52	0x3d0c2718	0.03421697
53	0xbbb9729f	-0.005659416
54	0xbaf2b848	-0.0018518055
55	0xbc8b041a	-0.01696973
56	0xbcd67524	-0.026178904
57	0x3cd38c62	0.025823776
58	0x3bc4f6a5	0.0060108476
59	0x3ccd0476	0.025026541
60	0xbc982d9d	-0.018576438
61	0x3a9c628f	0.0011931228
62	0x3c96cd54	0.018408455
63	0x3b81999d	0.0039550797
64	0x3c6488c1	0.01394862
65	0xbd1b6292	-0.0379358
66	0x3ccc90f8	0.02497147
67	0xbca0a118	-0.019608065
68	0xbc933b74	-0.017972685
69	0x3d120b79	0.035655472
70	0xbd1c3a09	-0.038141284
71	0x3cd0c863	0.025486177
72	0xbbb38e54	-0.0054796133
73	0x3c274a07	0.010210521
74	0x3d0089fc	0.031381592
75	0x3d2160dc	0.039399013
76	0x3c329a64	0.010901067
77	0x3b6c84ca	0.003608989
78	0x3c08ba0a	0.008345136
79	0xbc9aeb9b	-0.018911174
80	0x3ba27584	0.0049578566
81	0x3d169030	0.0367586
82	0xbcb5af87	-0.022178425
83	0x3c99d397	0.018777652
84	0xbb268d63	-0.0025413863
85	0x3c824ce0	0.015905797
86	0x3c2ca102	0.010536434
87	0x3a75a710	0.00093709026
88	0xbc804c9a	-0.015661526
89	0x3d1ebe7f	0.03875589
90	0xbd1471d8	-0.036241382
91	0x3c5241e2	0.0128330905
92	0xbc9f253b	-0.019426933
93	0x3bd96204	0.006633999
94	0x3d07c64d	0.0331481
95	0x3d06bdc0	0.032895803
96	0xbc7b53db	-0.015339817
97	0x3c227eab	0.009917895
98	0xbc9198ad	-0.017772997
99	0x3d0dde0c	0.03463559
100	0x3d004698	0.031317323
101	0xbcf52842	-0.029926423
102	0x3b38e082	0.002820999
103	0x3b021aea	0.0019852468
104	0xbcf662df	-0.030076442
105	0xbd0b4a2d	-0.034006286
106	0x3c029e71	0.007972346
107	0xbc835d87	-0.016035808
108	0xbd1895a5	-0.037252087
109	0x3cd2714e	0.025688794
110	0xbb0e5b19	-0.002172178
111	0xbc4100e2	-0.011779996
112	0xbce05fd1	-0.027389439
113	0xbbd68ffb	-0.0065479255
114	0xbce7601e	-0.028244074
115	0x3c9414e2	0.018076364
116	0xba9e3b41	-0.0012072102
117	0x3ca346bc	0.01993119
118	0xbd1652b2	-0.03669996
119	0x3ca5219b	0.020157626
120	0x3d17d0cd	0.037064362
121	0x3c3a0a7c	0.011355039
122	0x3d22ae0e	0.039716773
123	0xbbcb1fbe	-0.0061988523
124	0x3c06dd08	0.008231409
125	0xbb6789bc	-0.0035329899
126	0xba0cc3d2	-0.00053697557
127	0x3cc1e3b7	0.023668153
128	0x3d0667b0	0.032813728
129	0x3cf99cc7	0.030470265
130	0xbb34977d	-0.0027556114
131	0x3d08c10e	0.033387236
132	0xbbef72a1	-0.007307366
133	0xbd1deba6	-0.03855481
134	0x3c23242e	0.009957356
135	0x3ce1342c	0.027490698
136	0x3cc47e39	0.023985969
137	0xbae57d06	-0.0017508573
138	0x3c529b81	0.012854458
139	0xbc9ca016	-0.019119304
140	0xbcae6302	-0.021287445
141	0xbb7caa4f	-0.003855366
142	0x3c856711	0.016284497
143	0xbcd1233f	-0.025529502
144	0x3ccfe04b	0.025375506
145	0x3d1cdd9a	0.038297273
146	0x3ca34778	0.01993154
147	0xbb04e78b	-0.0020279612
148	0xbd107a14	-0.035272673
149	0xbb772a45	-0.0037714404
150	0xbd087027	-0.03331008
151	0x3c6782a7	0.014130271
152	0x3ca682c5	0.020326028
153	0xbc0578c3	-0.008146468
154	0x3cca2d28	0.024679735
155	0xbccd5b49	-0.025067942
156	0x3b70b858	0.0036730971
157	0xbce8d9fb	-0.028424254
158	0xbce384d5	-0.0277733
159	0x3c5264cc	0.012841415
160	0xbaeb235b	-0.0017939614
161	0x39be08e8	0.0003624626
162	0x3ceb127f	0.028695343
163	0xbce4fe71	-0.027953358
164	0xbd2d18ce	-0.042259984
165	0xbb4bec42	-0.0031116162
166	0xbd1cb418	-0.03825769
167	0x3cfa90f1	0.030586692
168	0xbc1b906c	-0.009494882
169	0xb8e936d8	-0.00011120521
170	0x3c8784f6	0.016542893
171	0xbc770008	-0.015075691
172	0x3d3597dd	0.04433428
173	0x3d07839a	0.03308449
174	0xbd209688	-0.039206058
175	0xbcac116c	-0.021004401
176	0x3cad095e	0.02112263
177	0xbcfa8cd3	-0.030584728
178	0x3cb5cc82	0.022192243
179	0xbcda60b7	-0.026657445
180	0xbd0aa8c0	-0.03385234
181	0x3c018411	0.007905022
182	0xbc1c3eb9	-0.009536439
183	0xbb11b2f8	-0.0022231918
184	0x3cdb03ae	0.026735153
185	0x3a41ede8	0.00073978165
186	0x3bf65bb9	0.0075182584
187	0x3ccc1f9a	0.024917413
188	0x3d0120ec	0.031525537
189	0x3bbda3ef	0.0057873647
190	0x3d397cce	0.04528504
191	0xbcf98730	-0.03045997
192	0xbc328604	-0.01089621
193	0x3d14007e	0.036133282
194	0x3ba37c13	0.004989156
195	0x3ca53894	0.02016858
196	0x3c49215b	0.012276019
197	0x3d25c5d7	0.040471878
198	0xbd36f586	-0.044667743
199	0x3c9695db	0.018382004
200	0xbbd4f869	-0.0064993394
201	0xbb2aae6d	-0.0026043907
202	0xbbcefe57	-0.0063169408
203	0xbc0d702b	-0.0086327
204	0x3cc9f415	0.02465252
205	0x3bec7a89	0.0072167558
206	0xbb8596b9	-0.0040768054
207	0x3cd20b68	0.025640205
208	0x3d2247c7	0.039619233
209	0x3c8ed20b	0.01743414
210	0xbd057591	-0.032582823
211	0xbcdf735f	-0.027276693
212	0xbcc99cad	-0.024610842
213	0x3d09d809	0.033653293
214	0xb96ee750	-0.0002278362
215	0x3cd93215	0.026513139
216	0x3bbe0dcd	0.005799985
217	0xbbcbe541	-0.0062223976
218	0x3b7c23ea	0.0038473555
219	0xbc1511b8	-0.009098463
220	0x3c5e4485	0.013566141
221	0x3b45944a	0.0030148202
222	0xbd1955d8	-0.037435383
223	0xbcdeba64	-0.027188487
224	0xbc3cf984	-0.011534099
225	0xbc274471	-0.010209189
226	0xbd11c262	-0.03558577
227	0x3cbcd8c7	0.023052586
228	0x3d0eea44	0.03489138
229	0xbd1c1f63	-0.03811587
230	0x3c53eca5	0.012934838
231	0xbc8cde3c	-0.017195813
232	0xbcc7b117	-0.024376435
233	0x3cbdfa59	0.023190664
234	0x3c84d749	0.016215937
235	0xbc5cc51e	-0.013474731
236	0x3b8eb62b	0.004355212
237	0x3aa76a41	0.0012772755
238	0x3cd49f77	0.025954945
239	0x3bb30f31	0.0054644574
240	0xbcd2e6ff	-0.025744913
241	0xbafbcec6	-0.0019211404
242	0x3c01cb36	0.007921984
243	0xbb626a16	-0.0034548095
244	0xbcc8e462	-0.024522964
245	0x3d181c82	0.037136562
246	0x3d1360cb	0.03598098
247	0x3a90d6e0	0.0011050366
248	0x3d286f10	0.041121542
249	0xbca2319e	-0.01979905
250	0xbcd6046c	-0.026125155
251	0xbc2d2609	-0.01056815
252	0x3cea068e	0.028567579
253	0xbc104696	-0.0088058915
254	0xbd1ab634	-0.03777142
255	0xbc8c65f1	-0.017138453

conv4.0.bias f4 [128]
0	0xbbfa7274	-0.0076430384
1	0x3a455b61	0.000752857
2	0x3b185d6d	0.0023249045
3	0xbbaedc3f	-0.005336314
4	0x3cbebc8f	0.023283271
5	0xbbdc7065	-0.0067272657
6	0xbc2c71ee	-0.01052521
7	0x3d059444	0.0326121
8	0xbc99ee60	-0.018790424
9	0xbb54d16e	-0.0032473463
10	0xbc4f6371	-0.012657986
11	0x3c877b23	0.016538208
12	0xbd0852d7	-0.033282127
13	0xbc9cc2ff	-0.01913595
14	0x3cce7919	0.025204228
15	0xbca8dd63	-0.020613378
16	0x3cfa6e13	0.030570066
17	0x3ca62a64	0.020283885
18	0xbc9b5061	-0.018959226
19	0x3ba4f52c	0.0050341096
20	0xbd2333e0	-0.039844394
21	0x3ca377cb	0.019954583
22	0x3d05a450	0.032627404
23	0x3d163bcf	0.03667813
24	0xbc9286ab	-0.01788648
25	0x3c040b7c	0.008059379
26	0x3ce655c8	0.028117076
27	0xbc16386a	-0.009168724
28	0x3cb1597e	0.021649119
29	0xbcf0d9ab	-0.029400667
30	0xbccf2d8b	-0.025290271
31	0x3cefe102	0.029282097
32	0xbc3890b0	-0.011264965
33	0xbcc9e15b	-0.02464359
34	0xbc2049b2	-0.009783195
35	0xbb826d22	-0.003980295
36	0xbcf6a514	-0.030108012
37	0x3b98d31f	0.0046638395
38	0xbaeb8d0c	-0.0017971112
39	0x3ca5f0c6	0.020256411
40	0x3cbedf47	0.023299826
41	0x3d180bbc	0.037120566
42	0xbd034b23	-0.032054078
43	0xbc2c1764	-0.010503624
44	0xbd05cc68	-0.03266564
45	0x3cf070f2	0.029350732
46	0xbd087427	-0.033313897
47	0x3c9a6e28	0.018851355
48	0xbd11e45f	-0.035618182
49	0x3c27cb69	0.010241368
50	0xbc5ce42f	-0.013482138
51	0x3c907d93	0.017638003
52	0x3bb8d265	0.0056403154
53	0x3d143e83	0.03619243
54	0xbd27aa17	-0.040933695
55	0xbd129fd6	-0.035796963
56	0x3a20a42b	0.00061279786
57	0xbcd9afd6	-0.026573103
58	0x3d0faef4	0.035078958
59	0x3ce93385	0.02846695
60	0x3d1cf396	0.03831824
61	0x3d1a9ddf	0.037748214
62	0x3c118cd6	0.008883676
63	0xbc821a36	-0.015881639
64	0xbcc6aaca	-0.02425136
65	0xbc738843	-0.01486403
66	0xbcf68ec8	-0.03009738
67	0x3c29587b	0.010336037
68	0x3caa0ce3	0.020758098
69	0x3cab6cc6	0.02092589
70	0x3d1ed1bb	0.038774233
71	0x3cf618cf	0.030041127
72	0x3d1b28fc	0.037880883
73	0x3ce824ac	0.028337799
74	0xbbf831b8	-0.0075742863
75	0xbba392ad	-0.0049918504
76	0xbc81b10f	-0.015831498
77	0xbc446cfd	-0.011988875
78	0x3cb45a16	0.022015613
79	0xbc9aeb6d	-0.018911088
80	0x3d01a3b6	0.031650268
81	0x3d212c26	0.039348744
82	0x3b253861	0.0025210606
83	0x3ba664bd	0.005077927
84	0x3cb39199	0.021920012
85	0x3c746df1	0.01491879
86	0x3cd575c5	0.026057133
87	0xbcc9d6a8	-0.024638489
88	0x3d1ae70c	0.037818
89	0xbcc994eb	-0.024607142
90	0x3d0dbf96	0.03460654
91	0x3cb7a0bc	0.022415511
92	0x3be81fad	0.007083854
93	0xbbeeafe1	-0.00728415
94	0x3cccb696	0.024989408
95	0x3c347d92	0.011016266
96	0x3d018da6	0.031629227
97	0xbc5cacf5	-0.013468971
98	0x3c56cc4f	0.013110234
99	0xbc0e7a85	-0.008696203
100	0xbc5a0f09	-0.013309249
101	0xbd0b5ed7	-0.034025993
102	0x3cd21fb3	0.025649881
103	0x3d1d2280	0.03836298
104	0xbc900aef	-0.017583339
105	0xba6148d1	-0.00085939193
106	0xbc00ff06	-0.007873302
107	0x3cee2d43	0.029074317
108	0xbd053737	-0.03252336
109	0xbc868ce1	-0.016424598
110	0x3d0817ff	0.03322601
111	0x3c2b72c6	0.010464376
112	0xbc0385c6	-0.0080275
113	0x3ce841ad	0.02835163
114	0x3d0d5960	0.034509063
115	0x3d0a9fd5	0.033843834
116	0x3c8cb3db	0.017175606
117	0xbcc0455f	-0.023470579
118	0x3ceacbfd	0.028661722
119	0x3cd327d2	0.025775824
120	0xbc753059	-0.01496514
121	0x3c9e5851	0.019329222
122	0xbc6a4365	-0.014298295
123	0xbcf682da	-0.030091692
124	0x3d03a414	0.0321389
125	0x3af06b67	0.0018342555
126	0xbcffa378	-0.031205878
127	0xbcc8b973	-0.024502492

conv4.1.weight f4 [128]
0	0x3f807dbc	1.0038371
1	0x3f7f5e20	0.99753
2	0x3f806d2a	1.0033314
3	0x3f7f2cc1	0.99677664
4	0x3f808b24	1.0042462
5	0x3f7f32e5	0.99687034
6	0x3f808151	1.0039464
7	0x3f7f27aa	0.996699
8	0x3f80646c	1.0030646
9	0x3f806fb1	1.0034086
10	0x3f806144	1.0029683
11	0x3f808b2b	1.0042471
12	0x3f803fe9	1.0019504
13	0x3f80470e	1.0021684
14	0x3f7ee9ee	0.995757
15	0x3f7ff8d8	0.9998908
16	0x3f806f23	1.0033916
17	0x3f805fcf	1.0029238
18	0x3f7ef666	0.99594724
19	0x3f7f1b1b	0.99650735
20	0x3f7ff5ee	0.99984634
21	0x3f80779d	1.0036503
22	0x3f8039d0	1.0017643
23	0x3f807eab	1.0038656
24	0x3f80b05e	1.0053823
25	0x3f7ff610	0.99984837
26	0x3f7fd624	0.9993613
27	0x3f7f86de	0.99815166
28	0x3f801e5c	1.0009265
29	0x3f7f3efd	0.9970549
30	0x3f8097a7	1.0046281
31	0x3f8054b3	1.0025848
32	0x3f7ff86e	0.9998845
33	0x3f80676f	1.0031565
34	0x3f7f7088	0.99781084
35	0x3f7fbf56	0.9990133
36	0x3f7faeb4	0.9987595
37	0x3f7ffc47	0.9999432
38	0x3f80017f	1.0000457
39	0x3f809bcd	1.0047547
40	0x3f808075	1.0039202
41	0x3f809677	1.0045918
42	0x3f7fc0b0	0.9990339
43	0x3f80236f	1.0010813
44	0x3f7fbb1c	0.9989488
45	0x3f7f2653	0.99667853
46	0x3f7f5a3a	0.9974705
47	0x3f807d0a	1.0038159
48	0x3f8032fd	1.001556
49	0x3f801b8f	1.000841
50	0x3f7f71c2	0.99782956
51	0x3f8057e0	1.0026817
52	0x3f80a226	1.0049484
53	0x3f7fba26	0.99893415
54	0x3f80752f	1.0035762
55	0x3f8016b0	1.0006924
56	0x3f7f19ca	0.99648726
57	0x3f80206f	1.0009898
58	0x3f80ace1	1.0052758
59	0x3f800689	1.0001994
60	0x3f7fe6e7	0.99961704
61	0x3f7f274a	0.99669325
62	0x3f7fdf12	0.99949753
63	0x3f7ed049	0.9953657
64	0x3f7fed51	0.9997149
65	0x3f8058ae	1.0027063
66	0x3f7f50cb	0.99732655
67	0x3f7fd8cb	0.99940175
68	0x3f807326	1.003514
69	0x3f800428	1.0001268
70	0x3f800c76	1.0003803
71	0x3f7fd34b	0.9993178
72	0x3f7f4e36	0.99728715
73	0x3f8088fa	1.0041802
74	0x3f801dac	1.0009055
75	0x3f804c51	1.002329
76	0x3f80b5a7	1.0055436
77	0x3f8073d8	1.0035353
78	0x3f7f082f	0.9962186
79	0x3f8027c3	1.0012134
80	0x3f7ff169	0.9997774
81	0x3f807b1c	1.003757
82	0x3f806def	1.0033549
83	0x3f7f101b	0.9963395
84	0x3f8061d2	1.0029852
85	0x3f801a9c	1.000812
86	0x3f8010e4	1.0005155
87	0x3f7f1783	0.9964525
88	0x3f802b59	1.0013229
89	0x3f803b15	1.001803
90	0x3f7f2083	0.99658984
91	0x3f807e69	1.0038577
92	0x3f7ec17b	0.9951398
93	0x3f802eb6	1.0014255
94	0x3f7f6d27	0.9977593
95	0x3f8021f7	1.0010365
96	0x3f7f14a7	0.9964089
97	0x3f7f93d3	0.99834937
98	0x3f802b35	1.0013186
99	0x3f7fb754	0.9988911
100	0x3f806359	1.0030318
101	0x3f7fe813	0.9996349
102	0x3f8043f7	1.0020741
103	0x3f8031ee	1.0015237
104	0x3f7fe376	0.9995645
105	0x3f7f09fb	0.99624604
106	0x3f805c4f	1.002817
107	0x3f7ef113	0.995866
108	0x3f803709	1.0016795
109	0x3f7fd730	0.99937725
110	0x3f7f18f8	0.99647474
111	0x3f801a58	1.000804
112	0x3f7fe090	0.9995203
113	0x3f8062b3	1.0030121
114	0x3f7fc769	0.9991365
115	0x3f8013d3	1.000605
116	0x3f7fb1b0	0.99880505
117	0x3f80804b	1.0039152
118	0x3f7f0008	0.9960942
119	0x3f808514	1.0040612
120	0x3f8023ea	1.001096
121	0x3f80189a	1.0007508
122	0x3f7f1c92	0.9965297
123	0x3f7f69d8	0.9977088
124	0x3f8091b3	1.0044464
125	0x3f808b17	1.0042447
126	0x3f7ee3ec	0.9956653
127	0x3f7fc69e	0.9991244

conv4.1.bias f4 [128]
0	0xbadc9682	-0.0016829523
1	0xbb861a24	-0.0040924717
2	0xbb20dce1	-0.0024545717
3	0x3b2f84bf	0.0026782004
4	0x3b60b451	0.0034287164
5	0x3b40ed80	0.0029438436
6	0x3b9ee381	0.004848898
7	0xbb00cb5f	-0.0019652469
8	0x3ba12929	0.0049182368
9	0xbb059d2c	-0.0020387871
10	0x3b8111bc	0.0039388817
11	0x3a99270e	0.0011684613
12	0x3b0efbed	0.002181764
13	0x3a372ca0	0.00069875456
14	0xbba015d2	-0.0048854137
15	0x3a96286e	0.0011456141
16	0xbb2b52d7	-0.0026141906
17	0x3b4ad602	0.0030950313
18	0xbb027dba	-0.0019911365
19	0xba975396	-0.0011545296
20	0xbaa3b60e	-0.001249017
21	0xb9a8b0ac	-0.00032175088
22	0x3abf9934	0.0014617802
23	0x3af9e50b	0.0019065453
24	0x3b9a4820	0.004708305
25	0x39458b0c	0.00018839183
26	0xbb1cd6bd	-0.0023931705
27	0x3b8c315b	0.0042783446
28	0x38481278	4.7700916e-05
29	0xbb2f1a6e	-0.0026718634
30	0xba34998a	-0.0006889334
31	0x3b510a78	0.003189711
32	0xbbaf8b86	-0.0053572087
33	0x3b7f4222	0.003894933
34	0xbb2bb8bb	-0.0026202637
35	0x3b179458	0.0023129191
36	0xbb43eab1	-0.0029894526
37	0xbabaaa41	-0.0014241413
38	0xbb1ac5df	-0.0023616476
39	0x3b991ab7	0.004672374
40	0xbb32c270	-0.0027276538
41	0x3aeaba1f	0.0017908252
42	0xbb8ae7d0	-0.00423906
43	0xbb3e8927	-0.0029073448
44	0x3b49bb8e	0.0030781957
45	0x3b949218	0.0045340173
46	0x3a81d833	0.0009906351
47	0x3b882bab	0.0041555963
48	0x3b8224d0	0.0039716735
49	0xbb81e5a9	-0.003964145
50	0xbb953c8f	-0.0045543383
51	0x3ac41e0f	0.0014962571
52	0xbadacbb4	-0.0016692788
53	0x3b7833ea	0.003787274
54	0xbb3fc98f	-0.0029264425
55	0x3bafbede	0.0053633293
56	0x3ae02683	0.0017101321
57	0xba8fcd0d	-0.0010971144
58	0x3bc02b76	0.005864556
59	0xbb827fb7	-0.00398251
60	0xba4d1f83	-0.0007824825
61	0xbb8c0e5c	-0.0042741727
62	0xbaf8812c	-0.0018959395
63	0xbb67e8b2	-0.00353865
64	0x3a33f049	0.00068641134
65	0x3a1a80e0	0.00058938377
66	0x3afd8137	0.0019340877
67	0x3b2c8854	0.0026326375
68	0xba86dac9	-0.0010288592
69	0x3b7cbf0b	0.003856602
70	0x3b239a40	0.0024963766
71	0xbaf8b830	-0.0018975791
72	0x3b32ca3e	0.002728119
73	0x3b649126	0.0034876554
74	0xbac458f3	-0.0014980122
75	0x3bac3752	0.005255618
76	0x3bb79316	0.005602251
77	0x3b83f126	0.00402655
78	0xbb673500	-0.0035279393
79	0xbac22d43	-0.0014814514
80	0xbb16aeb8	-0.0022992324
81	0x3b918e98	0.0044420473
82	0x3b769866	0.0037627458
83	0xbb847005	-0.004041674
84	0x3b86f7ac	0.0041188803
85	0xbb89fd39	-0.0042110947
86	0xbb8c7588	-0.0042864718
87	0xbb32460a	-0.002720239
88	0xba92903c	-0.0011181901
89	0xbb93c59b	-0.0045096404
90	0xbb9fa226	-0.0048716245
91	0x365f1700	3.3242977e-06
92	0x3a82c57e	0.000997707
93	0x3b3d8965	0.0028921005
94	0xbb9df52b	-0.004820486
95	0xba9fe0ac	-0.0012197695
96	0x3af401f4	0.0018616305
97	0x3a934a4e	0.0011237354
98	0x3b23384e	0.0024905386
99	0x3aa60212	0.0012665412
100	0xbb09e862	-0.0021043052
101	0x3b6e3c3a	0.0036351816
102	0x39b215e0	0.00033967104
103	0xbaef450e	-0.0018254833
104	0x3bbef61b	0.005827678
105	0x397de5bd	0.00024213544
106	0x3b0b2af7	0.0021235326
107	0x3a84055c	0.0010072398
108	0x3b52fc86	0.0032193973
109	0x3b544585	0.003239007
110	0xbb924143	-0.004463346
111	0xbb93db11	-0.0045121987
112	0x39e6eb8b	0.00044044512
113	0xbb323b0c	-0.002719584
114	0x3adf0415	0.0017014766
115	0x3b50edfe	0.0031880136
116	0x3b65edb2	0.0035084304
117	0x3b8a1dd9	0.004214984
118	0xbb1334a5	-0.0022461799
119	0x3aebdad0	0.0017994288
120	0x3b8dc252	0.0043261433
121	0x3ad85024	0.0016503376
122	0xbb68709f	-0.0035467518
123	0xbb133f66	-0.0022468208
124	0x3b7f8e50	0.0038994737
125	0x3abad8a3	0.0014255237
126	0xbab78a2d	-0.0014002972
127	0x39d1eb18	0.00040038745
