artifact/02_12_2024_09_49_15/model_training_artifacts/model.pt (torch, 440907 bytes, 26 tensors)

conv1.0.weight f4 [16, 1, 3, 3]
-0.15851149 0.08049001 -0.2778553 -0.31179652 0.02509167 -0.2525723 0.17398104 -0.28096306
-0.28670138 -0.26320153 0.06421658 -0.045585934 -0.14679153 -0.26844937 -0.09803749 0.08870977
-0.27461907 -0.29440534 0.20558785 0.07423349 0.21951164 0.28165728 -0.11414865 0.14606956
0.028327873 -0.20606036 -0.08694696 0.15753435 -0.08237194 0.30526206 -0.09162309 -0.11264882
0.19902354 0.27771908 -0.038635097 -0.2006064 0.12079265 -0.2708923 -0.201528 0.28516716
-0.12080191 -0.25762665 -0.07373811 -0.08391071 0.32314795 -0.091536805 -0.20924437 -0.20521888
0.12618037 0.12709567 -0.027727934 0.2896601 -0.27269524 -0.23784856 -0.18468103 0.031606503
-0.1651018 0.20517097 0.31667918 0.31530255 -0.22163022 -0.20883226 -0.32132748 -0.055584602
-0.29198214 0.06726958 0.09985626 -0.21379763 -0.2926433 -0.08388365 0.2224414 -0.2581487
0.17803775 -0.11333959 -0.15805073 -0.31433564 0.2270191 -0.061299916 0.25695276 0.16427167
-0.24012375 -0.20523608 -0.26501343 -0.29351774 -0.006654188 -0.041423313 -0.30769965 0.16162954
-0.046809066 -0.1276083 -0.009759891 -0.103736304 -0.30543968 0.30084172 -0.0023101086 -0.083752334
0.33153823 0.07955526 0.1879607 0.16462125 -0.024102962 0.08522007 -0.04924561 -0.23623532
-0.1906927 0.20465165 0.3170713 -0.04760991 -0.3276611 -0.31952217 -0.17671071 -0.24487527
0.2571854 -0.20665677 0.030583005 0.1763862 0.23634486 -0.1450736 -0.11768695 0.20541789
-0.26577812 0.15745093 -0.04411545 -0.30688924 0.13596654 -0.33067045 0.057118107 -0.27768713
-0.13455264 -0.32033005 -0.056776702 0.22283784 -0.29209 0.12542136 0.26738766 -0.11325208
0.041481934 -0.1552084 -0.32645088 0.3175679 -0.278667 -0.03828863 -0.23325197 0.006945733
00000000: d650 22be f2d7 a43d 0d43 8ebe cba3 9fbe
00000010: 0c8d cd3c 2851 81be 1628 323e 64da 8fbe
00000020: 86ca 92be 5ac2 86be fb83 833d 51b8 3abd
00000030: 8550 16be 3272 89be e1c7 c8bd 78ad b53d
00000040: df9a 8cbe 4cbc 96be 9f85 523e ba07 983d
00000050: a9c7 603e 6235 903e c4c6 e9bd 4293 153e
00000060: db0f e83c 7d01 53be 3f11 b2bd af50 213e
00000070: 9fb2 a8bd 4f4b 9c3e e3a4 bbbd 6db4 e6bd
00000080: d4cc 4b3e 3231 8e3e d63f 1ebd c46b 4dbe
00000090: 2362 f73d 65b2 8abe 5b5d 4ebe 6e01 923e
000000a0: fe66 f7bd a4e7 83be 0204 97bd 61d9 abbd
000000b0: a673 a53e a677 bbbd 2844 56be e624 52be
000000c0: 6d35 013e 5e25 023e b125 e3bc 544e 943e
000000d0: b69e 8bbe 938e 73be 061d 3dbe d275 013d
000000e0: 7210 29be 5718 523e c623 a23e 566f a13e
000000f0: 08f3 62be 20d8 55be 0985 a4be aeac 63bd
00000100: af7e 95be a2c4 893d 7081 cc3d c4ed 5abe
00000110: 58d5 95be 31cb abbd aec7 633e 112c 84be
00000120: 874f 363e 961e e8bd 0dd8 21be 9af0 a0be
00000130: b277 683e 9f15 7bbd 508f 833e d536 283e
00000140: 00e3 75be 6829 52be d7af 87be f547 96be
00000150: 600b dabb 7eab 29bd cf8a 9dbe 3782 253e
00000160: ddba 3fbd c0ab 02be f3e7 1fbc b373 d4bd
00000170: 9762 9cbe ed07 9a3e 3165 17bb 5886 abbd
00000180: 61bf a93e deed a23d c578 403e 7992 283e
00000190: 9373 c5bc dc87 ae3d c4b5 49bd ace7 71be
000001a0: f244 43be 3490 513e 2b57 a23e 9c02 43bd
000001b0: 32c3 a7be 6998 a3be a7f3 34be 95c0 7abe
000001c0: cead 833e d59d 53be 3689 fa3c 969e 343e
000001d0: 6304 723e 2c8e 14be db05 f1bd 1159 523e
000001e0: 1214 88be d13a 213e 67b2 34bd 9620 9dbe
000001f0: d03a 0b3e a34d a9be adf4 693d 022d 8ebe
00000200: 2bc8 09be 4d02 a4be b08e 68bd 9a2f 643e
00000210: d28c 95be 756e 003e 09e7 883e b5f0 e7bd
00000220: f6e8 293d f3ee 1ebe 9224 a7be 4398 a23e
00000230: 71ad 8ebe 8ad4 1cbd 9bd9 6ebe 0899 e33b

conv1.0.bias f4 [16]
0.31256643 -0.24062236 -0.17002495 -0.11693444 0.13617687 0.03933602 -0.13641672 0.025723645
-0.03821764 -0.20590585 0.2099123 0.19217414 0.22284532 -0.080501676 0.30656448 0.070346
00000000: b508 a03e b565 76be 051b 2ebe 537b efbd
00000010: f371 0b3e ce1e 213d d3b0 0bbe 65ba d23c
00000020: 1a8a 1cbd fcd8 52be 40f3 563e 4cc9 443e
00000030: 9031 643e 10de a4bd 05f6 9c3e 9011 903d

conv1.1.weight f4 [16]
0.9962023 1.0078245 0.9964282 1.003248 1.0031224 1.0011609 0.99571854 1.0040869
0.9969471 1.0018318 0.99934506 0.9995843 1.0036892 0.9975169 1.0063027 0.9961634
00000000: 1d07 7f3f 6500 813f eb15 7f3f 6e6a 803f
00000010: 5166 803f 0a26 803f 69e7 7e3f eb85 803f
00000020: ed37 7f3f 063c 803f 14d5 7f3f c2e4 7f3f
00000030: e378 803f 445d 7f3f 87ce 803f 9104 7f3f

conv1.1.bias f4 [16]
0.002615137 0.0082397675 0.0068760253 0.0058612647 0.0005907825 0.0009081438 -0.004506105 0.00031139693
0.007714911 0.0060962774 -0.0031768733 0.0053772265 0.0077971998 -0.0020940262 0.0060677817 -0.0009315584
00000000: b862 2b3b 1700 073c 4850 e13b da0f c03b
00000010: bede 1a3a 8010 6e3a f3a7 93bb fd42 a339
00000020: 5dcd fc3b 48c3 c73b 1733 50bb 7233 b03b
00000030: a77f ff3b ee3b 09bb 3ed4 c63b d333 74ba

conv1.1.running_mean f4 [16]
-41.550102 -40.797268 17.753942 13.1184435 -9.04645 -16.167398 -7.579629 -26.573444
-1.837517 -36.779755 12.821097 7.704875 -18.824917 -23.293259 -13.474476 -25.107674
00000000: 4e33 26c2 6730 23c2 1308 8e41 25e5 5141
00000010: 42be 10c1 d556 81c1 528c f2c0 6a96 d4c1
00000020: c233 ebbf 781e 13c2 3723 4d41 568e f640
00000030: 6e99 96c1 9858 bac1 7497 57c1 84dc c8c1

conv1.1.running_var f4 [16]
100772.805 89347.62 47705.387 37201.61 54097.457 45358.656 34146.582 62618.707
33841.863 86338.266 61739.504 25261.594 76217.06 65663.3 70371.71 54846.617
00000000: 67d2 c447 cf81 ae47 6359 3a47 9c51 1147
00000010: 7551 5347 a82e 3147 9562 0547 b59a 7447
00000020: dd31 0447 22a1 a847 812b 7147 305b c546
00000030: 88dc 9447 a63f 8047 db71 8947 9e3e 5647

conv2.0.weight f4 [32, 16, 3, 3]
-0.03245058 -0.024849122 -0.043975804 -0.059920095 0.052374355 -0.026015623 0.058706578 -0.07585604
-0.044188194 0.036150385 0.057616506 -0.05330307 -0.06065866 -0.064467035 -0.05267167 -0.06861516
-0.08536709 0.0537467 0.023005607 0.054656636 -0.06280409 -0.061505046 0.07188356 -0.024423655
-0.018366989 0.040005345 -0.03471018 0.071373425 -0.017928218 0.016672961 0.021079505 0.07609334
0.064709164 0.045857076 -0.055957098 0.017207937 -0.018565612 -0.055592112 0.082210645 -0.033256274
-0.053781323 -0.009317736 -0.07340797 0.003971482 0.05149552 0.08260678 0.030360637 0.05781729
-0.07674145 0.05915153 0.039996024 0.005653099 0.07309884 0.02023401 0.05394456 0.0028989804
0.07436087 0.063312754 -0.041537013 0.048431225 -0.010518195 -0.085499026 0.02722524 0.08357619
-0.043932036 -0.0030395729 0.057389494 -0.015819926 -0.061456885 -0.019927278 0.05162201 -0.02006168
-0.05893224 -0.011969141 0.00068506977 -0.020785108 -0.07286842 0.015465541 -0.013312996 -0.07108969
0.029698582 -0.043417532 0.012814833 0.071365885 0.074940555 0.07109817 -0.069642454 0.026611328
-0.033049125 -0.050709736 -0.00452698 -0.07929536 0.036290452 -0.028558485 0.0185323 -0.022986602
-0.05499921 0.06815278 0.0725211 -0.011354283 0.056546107 -0.07528034 -0.023246605 0.05097421
0.06827605 -0.035821464 -0.036248613 -0.07105932 0.06404854 0.05973836 -0.024513349 0.023373557
0.013635108 0.048618816 0.058168266 -0.013464133 -0.031684745 -0.04060173 -0.030041674 0.034129377
0.037605047 -0.05204536 0.07392246 -0.014124997 0.054806836 -0.031510014 0.053756822 0.06699479
-0.07794759 -0.06305507 0.035954576 0.04743717 -0.00017936566 -0.0075200596 -0.004140201 0.059974063
-0.0133854635 0.032993525 0.027170403 -0.039311513 0.031960633 0.050176557 0.031264402 -0.0065608253
0.03922747 0.028512133 -0.07578726 0.035477247 -0.07801627 0.07596712 -0.012041222 -0.04847425
-0.030832618 0.0048031816 -0.06487794 -0.06464154 0.021753779 0.0022722043 0.05531144 0.023123246
0.029590882 0.030361764 -0.07481499 -0.04336362 0.069157146 0.0398161 0.0068187714 0.05849211
-0.01036945 0.047365908 -0.024481703 0.025598057 0.029880127 0.05806785 -0.07097283 0.04415923
0.06090377 0.0105736405 -0.011977131 -0.016212061 -0.018051444 -0.0870742 -0.017859569 0.00449948
0.053600624 0.034980208 -0.06367264 0.002061934 -0.004965119 -0.017735932 -0.013301142 -0.040163763
-0.034858458 0.020986393 -0.070751555 -0.06943276 -0.07404548 -0.011760372 -0.061139766 -0.01985163
-0.031977214 0.058018956 0.059122752 -0.026195569 -0.0009568444 -0.052274033 0.056824706 -0.015964255
-0.0312993 0.036571406 0.07199771 -0.007892903 -0.06715901 0.058957394 -0.036711372 0.047596242
0.0004216093 0.038659476 0.0065114335 -0.08616804 -0.06229969 -0.058497492 -0.013652068 -0.031529326
-0.030690292 0.07961959 -0.038754437 0.043224756 0.015716968 0.053646017 -0.0040995497 0.05590212
0.019207856 -0.03431237 -0.07718186 -0.030813355 0.026015649 -0.017808553 -0.019358763 -0.075630784
-0.03534416 0.043111034 -0.06993275 0.056014773 -0.08567481 0.040967103 0.055382974 -0.017201044
-0.0716002 0.055359125 -0.032936588 0.04464145 0.022978863 0.010582179 -0.030311884 -0.058677614
00000000: e6ea 04bd 6390 cbbc f91f 34bd c66e 75bd
00000010: 7e86 563d b71e d5bc 4f76 703d 695a 9bbd
00000020: aefe 34bd 6d12 143d 49ff 6b3d 5254 5abd
00000030: 3775 78bd 4b07 84bd 40be 57bd 1b86 8cbd
00000040: f1d4 aebd 8025 5c3d 4176 bc3c a3df 5f3d
00000050: 6e9f 80bd b7ec 7bbd b037 933d 1e14 c8bc
00000060: 5e76 96bc a5dc 233d 432c 0ebd 3b2c 923d
00000070: 33de 92bc bc95 883c edae ac3c d3d6 9b3d
00000080: 3d86 843d a1d4 3b3d 4533 65bd a9f7 8c3c
00000090: e916 98bc 8eb4 63bd 0e5e a83d bb37 08bd
000000a0: ce49 5cbd 6ba9 18bc eb56 96bd 3523 823b
000000b0: f7ec 523d be2d a93d dfb6 f83c d3d1 6c3d
000000c0: 9f2a 9dbd e048 723d dfd2 233d a23d b93b
000000d0: d8b4 953d cbc1 a53c f9f4 5c3d d2fc 3d3b
000000e0: 834a 983d 1eaa 813d b722 2abd d25f 463d
000000f0: 8254 2cbc 1d1a afbd 7707 df3c fe29 ab3d
00000100: 14f2 33bd 9233 47bb 3f11 6b3d ca98 81bc
00000110: 37ba 7bbd 883e a3bc 9a71 533d 6458 a4bc
00000120: ef62 71bd 371a 44bc 4196 333a 8845 aabc
00000130: 0a3c 95bd 2e63 7d3c c11e 5abc 7997 91bd
00000140: 714a f33c 95d6 31bd 4ef5 513c 4728 923d
00000150: 6f7a 993d eb9b 913d b4a0 8ebd 0000 da3c
00000160: 855e 07bd 03b5 4fbd 1057 94bb 9b65 a2bd
00000170: 4ca5 143d 7cf3 e9bc 0dd1 973c 664e bcbc
00000180: da46 61bd af93 8b3d f185 943d 5107 3abc
00000190: e49c 673d 942c 9abd aa6f bebc 55ca 503d
000001a0: 50d4 8b3d 87b9 12bd 6d79 14bd 8c87 91bd
000001b0: e22b 833d 36b0 743d 38d0 c8bc e779 bf3c
000001c0: ca65 5f3c 8624 473d d941 6e3d ab98 5cbc
000001d0: ddc7 01bd 004e 26bd f519 f6bc 3fcb 0b3d
000001e0: c007 1a3d 842d 55bd a964 973d 886c 67bc
000001f0: 227d 603d a510 01bd 1d30 5c3d 9134 893d
00000200: fca2 9fbd 0423 81bd 1b45 133d 7a4d 423d
00000210: 1a14 3cb9 d56a f6bb 86aa 87bb 5da7 753d
00000220: b44e 5bbc 3824 073d 7794 de3c 1c05 21bd
00000230: 27e9 023d ef85 4d3d 1a0f 003d 31fc d6bb
00000240: fcac 203d 4792 e93c 5a36 9bbd 9750 113d
00000250: ffc6 9fbd a694 9b3d 8c48 45bc ef8c 46bd
00000260: b094 fcbc 0264 9d3b bade 84bd c962 84bd
00000270: fb34 b23c 43e9 143b 408e 623d f66c bd3c
00000280: 9468 f23c 3cb9 f83c 9a38 99bd 0d9e 31bd
00000290: 43a2 8d3d 3516 233d 0070 df3b 6c95 6f3d
000002a0: a0e4 29bc c102 423d da8d c8bc 04b3 d13c
000002b0: 2bc7 f43c 8ed8 6d3d 345a 91bd 4fe0 343d
000002c0: 3b76 793d 103d 2d3c ba3b 44bc 28cf 84bc
000002d0: 9fe0 93bc f553 b2bd 3b4e 92bc 6070 933b
000002e0: 548c 5b3d 6847 0f3d cd66 82bd 8321 073b
000002f0: 70b2 a2bb f24a 91bc 08ed 59bc c282 24bd
00000300: bec7 0ebd a8eb ab3c 31e6 90bd c332 8ebd
00000310: 28a5 97bd 93ae 40bc b16d 7abd e39f a2bc
00000320: 8afa 02bd 49a5 6d3d b32a 723d 1798 d6bc
00000330: bed4 7aba 4c1d 56bd 06c1 683d 78c7 82bc
00000340: b233 00bd e6cb 153d 8973 933d 3c51 01bc
00000350: aa8a 89bd 4f7d 713d aa5e 16bd 47f4 423d
00000360: 710b dd39 6659 1e3d dd5d d53b df78 b0bd
00000370: f62d 7fbd 119b 6fbd ecac 5fbc e524 01bd
00000380: 356a fbbc 980f a33d f9bc 1ebd 710c 313d
00000390: dfc0 803c edbb 5b3d 8455 86bb 9ff9 643d
000003a0: cb59 9d3c 218b 0cbd 8611 9ebd 4a6c fcbc
000003b0: c51e d53c 3ee3 91bc 4596 9ebc 50e4 9abd
000003c0: 0ac5 10bd 3295 303d e738 8fbd bf6f 653d
000003d0: 4676 afbd 1fcd 273d 42d9 623d 34e9 8cbc
000003e0: 20a3 92bd 40c0 623d 84e8 06bd f4d9 363d
000003f0: 2b3e bc3c e060 2d3c a150 f8bc f057 70bd

conv2.0.bias f4 [32]
0.07068414 0.0036655155 -0.035038907 0.036834214 0.07426097 -0.06337868 0.03730336 -0.033840403
0.006203348 0.02170473 -0.06322456 -0.018936662 -0.011464085 0.040574394 0.08283282 -0.010055273
-0.036863044 -0.023228873 -0.054528948 0.019639436 0.03301092 0.038552836 0.04267419 -0.078589216
0.030936334 0.042770248 -0.037826143 0.022756327 0.011231869 0.0025916996 0.0077821836 -0.038072314
00000000: d9c2 903d 2539 703b f584 0fbd 79df 163d
00000010: 2316 983d aecc 81bd 68cb 183d 3c9c 0abd
00000020: 7445 cb3b 1ece b13c e17b 81bd 0f21 9bbc
00000030: dcd3 3bbc 5631 263d 41a4 a93d dfbe 24bc
00000040: b4fd 16bd 7a4a bebc bf59 5fbd e2e2 a03c
00000050: 7536 073d 94e9 1d3d 22cb 2e3d 62f3 a0bd
00000060: 326e fd3c db2f 2f3d 96ef 1abd 7a6b ba3c
00000070: e005 383c 81d9 293b b001 ff3b b7f1 1bbd

conv2.1.weight f4 [32]
0.9981905 0.9970202 0.9968986 1.0006739 1.0035362 1.0037413 0.99852604 0.9949564
1.0026418 1.0020345 1.0050168 0.996515 1.0004523 0.9961193 1.0026227 0.9976621
1.004175 0.9975179 1.0024238 0.9974136 0.9959945 1.0040735 1.0038618 0.99714845
1.0032369 0.99579805 0.99436665 1.0024189 1.0049069 0.9972837 1.0029004 0.9962019
00000000: 6a89 7f3f b73c 7f3f bf34 7f3f 1516 803f
00000010: e073 803f 987a 803f 679f 7f3f 76b5 7e3f
00000020: 9156 803f ab42 803f 64a4 803f 9b1b 7f3f
00000030: d20e 803f ad01 7f3f f155 803f c966 7f3f
00000040: ce88 803f 555d 7f3f 6c4f 803f 7f56 7f3f
00000050: 7ff9 7e3f 7b85 803f 8b7e 803f 1f45 7f3f
00000060: 116a 803f 9fec 7e3f d08e 7e3f 434f 803f
00000070: caa0 803f fc4d 7f3f 0a5f 803f 1607 7f3f

conv2.1.bias f4 [32]
-0.007652647 0.0034108076 -0.0014820956 0.00707731 0.0036978994 0.0016508626 0.005351756 0.0014097099
0.0053689787 0.0075924443 0.0077364244 0.0019221253 0.0014433367 0.00696105 0.006772844 0.005494603
0.0017874782 -0.0022452632 0.0041124932 -0.00047840792 -0.0023356737 0.0061846413 0.0036483707 -0.0009096932
-0.003556581 -0.0068798503 -0.0010768072 0.0076740645 0.0063210437 -0.007151147 -0.0015101309 0.005253243
00000000: 0ec3 fabb db87 5f3b e042 c2ba c7e8 e73b
00000010: 7558 723b c261 d83a c85d af3b 04c6 b83a
00000020: 42ee af3b 0aca f83b d581 fd3b d3ef fb3a
00000030: 582e bd3a 8519 e43b bcee dd3b 120c b43b
00000040: d149 ea3a 4425 13bb 18c2 863b d3d2 fab9
00000050: 1a12 19bb 88a8 ca3b 8119 6f3b 7a78 6eba
00000060: 8715 69bb 5e70 e1bb a723 8dba b876 fb3b
00000070: c220 cf3b 2b54 eabb 96ef c5ba 6523 ac3b

conv2.1.running_mean f4 [32]
0.08912488 -0.051663175 -0.11598336 0.081276715 0.11119564 -0.08198779 0.01194467 -0.06374766
0.0253985 0.09687404 -0.20520994 -0.039851647 -0.06820941 -0.0212744 0.057990745 0.045579728
-0.027904622 -0.13485828 -0.028212324 0.0702907 0.09186742 0.1292239 0.05805091 0.04968701
0.095032856 0.12402163 -0.14795594 0.14961441 0.11108406 -0.0034061745 0.016883714 -0.041025437
00000000: 1b87 b63d c49c 53bd af88 edbd 6874 a63d
00000010: 8aba e33d 37e9 a7bd 94b3 433c 228e 82bd
00000020: 8410 d03c e665 c63d 8e22 52be 7b3b 23bd
00000030: 60b1 8bbd a747 aebc b487 6d3d cfb1 3a3d
00000040: 3c98 e4bc 4a18 0abe 881d e7bc 92f4 8f3d
00000050: fc24 bc3d 4553 043e cac6 6d3d 9b84 4b3d
00000060: 96a0 c23d 0dff fd3d c381 17be 8534 193e
00000070: 0a80 e33d 203a 5fbb b74f 8a3c 4a0a 28bd

conv2.1.running_var f4 [32]
0.46121874 0.4747097 0.63251173 0.44465843 0.4399662 0.4275675 0.41838288 0.42104015
0.47485605 0.5492586 0.75551593 0.51254034 0.4215549 0.4192574 0.4500411 0.47124955
0.42225924 0.6338728 0.46034235 0.43059042 0.4373512 0.818126 0.40063578 0.46352598
0.54495025 0.4779479 0.6024692 0.68783146 0.5440009 0.525287 0.47176844 0.57014763
00000000: dd24 ec3e 260d f33e 4aec 213f 45aa e33e
00000010: 4043 e13e 21ea da3e 4836 d63e 9392 d73e
00000020: 5520 f33e 369c 0c3f 7e69 413f d835 033f
00000030: 0bd6 d73e e8a8 d63e c96b e63e 9f47 f13e
00000040: 5d32 d83e 7d45 223f feb1 eb3e 5976 dc3e
00000050: 7fec df3e b570 513f 2220 cd3e 4753 ed3e
00000060: dc81 0b3f 96b5 f43e 6c3b 1a3f b915 303f
00000070: a543 0b3f 3579 063f a28b f13e 32f5 113f

conv3.0.weight f4 [64, 32, 3, 3]
0.044347174 -0.002041639 0.00058715686 0.033104915 0.016261447 0.015154418 -0.019778183 0.018841688
-0.048173014 -0.020086449 0.054860003 -0.04133658 -0.04671936 -0.022385038 -0.038294513 -0.012056638
0.024134528 -0.030162947 0.0058044917 -0.03100823 -0.009078942 -0.05772481 -0.042140998 -0.047859967
0.03865657 -0.02547779 0.013356492 -0.022715166 0.051597796 -0.033926968 -0.046650525 -0.059869613
-0.04917134 0.033489957 0.022012765 0.016790979 -0.0076377606 -0.049547374 0.029825028 -0.014485479
-0.051569134 0.05589772 -0.026439838 -0.04453826 -0.020753393 0.012124343 -0.05796428 0.019254846
-0.029212356 -0.024083922 -0.03782529 -0.03755117 -0.05251491 0.046851747 0.042835116 -0.026547506
0.060953528 -0.04258443 0.04851642 0.016497316 -0.012755859 0.0059075328 -0.03626629 -0.0041639605
-0.035967644 0.021347567 0.0045344573 -0.03491554 0.031320035 0.054393064 0.00049151736 -0.053170364
0.042343695 -0.04888905 -0.040783834 0.00091706525 -0.052431 -0.035139926 0.022942234 -0.0027262038
0.04454817 -0.032491717 0.028206958 -0.03435409 -0.0019172488 0.053491157 -0.015003872 0.06072855
-0.025264269 0.059750292 0.008610436 0.006935518 -0.02007489 0.050001927 0.022126213 -0.060310643
0.009408155 0.017424742 -0.034065895 -0.053379893 -0.035641905 -0.024101174 0.00533117 0.034741886
0.0233518 0.051723022 0.04862258 0.039225392 -0.00039876753 0.041093767 0.054622725 -0.05934737
-0.013308896 0.06072666 -0.030208595 0.0062049734 -0.026783645 -0.015199635 0.015352196 0.046461653
-0.03335614 -0.060508754 0.052359983 0.0068525425 -0.024888977 0.046294898 -0.046542358 -0.027657099
0.007898264 0.0467745 -0.0427593 -0.03522609 0.03188268 -0.049566083 0.030256132 -0.014051813
-0.0021866418 -0.009802326 -0.009197588 -0.0036098238 0.03790329 -0.02843247 -0.04829898 -0.014475907
0.016457934 -0.052839894 -0.004395172 -0.058510214 0.030912032 -0.035411518 -0.006891769 -0.036067896
0.046038155 -0.023151644 0.0022627981 0.0059817517 -0.044820268 -0.0196431 -0.010944973 0.021273065
-0.014747855 -0.012674176 0.045897212 0.0033215673 0.020772895 -0.0022021704 -0.023137463 -0.027821096
-0.057172175 0.02907364 0.017157996 0.014657847 0.008364719 0.05749864 -0.01967524 -0.05241998
0.006316277 -0.040128108 -0.03898858 0.015915403 -0.040697597 0.038186338 0.05173877 -0.022379855
-0.041106347 0.039235834 0.0390689 0.0054365494 -0.05291029 -0.05389334 0.05487001 0.008474487
0.051609945 -0.019998249 -0.05997616 -0.0032472808 0.039063435 -0.025389498 -0.023024447 -0.032955583
0.04258775 0.0095392205 0.010675943 -0.015643355 -0.051335625 0.04071979 -0.024037886 0.0047184885
0.017643277 0.0026347095 0.048910305 -0.030966856 0.062551096 -0.02072906 0.0500977 -0.051329188
0.04416121 -0.049585726 -0.013585083 0.040845238 0.049995013 -0.012609845 0.045715686 -0.01731176
0.015801923 -0.033841453 -0.03492319 -0.0049055596 0.05012404 0.009973403 0.028962875 0.0059619746
0.05196196 0.024699818 -0.040314715 -0.016114244 0.05933738 -0.051756315 0.013231445 -0.04024405
0.054444592 -0.034443866 -0.021279013 -0.01540514 0.03799333 -0.007395272 0.04770806 0.052477088
0.025882958 -0.039316382 0.032770555 0.030092489 0.04421217 0.044278283 -0.014524222 -0.041944977
00000000: 62a5 353d 05cd 05bb 6eeb 193a 0599 073d
00000010: ba36 853c 3c4a 783c db05 a2bc e259 9a3c
00000020: 1151 45bd 568c a4bc e2b4 603d 8c50 29bd
00000030: cd5c 3fbd d460 b7bc b5da 1cbd 3489 45bc
00000040: c6b5 c53c 4918 f7bc 9b33 be3b f904 febc
00000050: d8bf 14bc da70 6cbd 0a9c 2cbd d008 44bd
00000060: 5a56 1e3d ccb6 d0bc 30d5 5a3c 2815 babc
00000070: 3658 533d 01f7 0abd 9f14 3fbd d739 75bd
00000080: e367 49bd c42c 093d 1d54 b43c 3c8d 893c
00000090: 2e46 fabb 30f2 4abd 9e53 f43c 8154 6dbc
000000a0: 283a 53bd 02f5 643d 5c98 d8bc c06d 36bd
000000b0: 0503 aabc 2ea5 463c f46b 6dbd 57bc 9d3c
000000c0: c04e efbc a54b c5bc b1ee 1abd 41cf 19bd
000000d0: e019 57bd 9ee7 3f3d e073 2f3d 287a d9bc
000000e0: 68aa 793d 036d 2ebd 27b9 463d 6125 873c
000000f0: f3fd 50bc fa93 c13b f68b 14bd d571 88bb
00000100: cf52 13bd 18e1 ae3c c995 943b 9903 0fbd
00000110: 7049 003d 43cb 5e3d 2cd9 003a 2bc9 59bd
00000120: 9570 2d3d e23f 48bd f30c 27bd 3567 703a
00000130: e3c1 56bd e2ee 0fbd 5af1 bb3c 1caa 32bb
00000140: 2478 363d 0916 05bd 4712 e73c e0b6 0cbd
00000150: 324c fbba 8b19 5b3d cdd2 75bc 80be 783d
00000160: 03f7 cebc b9bc 743d c912 0d3c 5743 e33b
00000170: 1974 a4bc d2ce 4c3d 0842 b53c 4b08 77bd
00000180: aa24 1a3c 55be 8e3c ae88 0bbd e0a4 5abd
00000190: 3ffd 11bd d36f c5bc 18b1 ae3b 824d 0e3d
000001a0: 464c bf3c 85db 533d 7828 473d ceaa 203d
000001b0: ac11 d1b9 f051 283d 14bc 5f3d 3a16 73bd
000001c0: 8e0d 5abc 85bc 783d 0478 f7bc 1753 cb3b
000001d0: 6069 dbbc e407 79bc c787 7b3c 934e 3e3d
000001e0: 73a0 08bd 07d8 77bd 6c77 563d 4b8b e03b
000001f0: f8e3 cbbc b89f 3d3d 33a3 3ebd 2491 e2bc
00000200: b867 013c 9e96 3f3d 6024 2fbd 3c49 10bd
00000210: 6a97 023d ce05 4bbd b5db f73c 9339 66bc
00000220: c34d 0fbb ef99 20bc 7bb1 16bc cb92 6cbb
00000230: 7b40 1b3d 36eb e8bc 27d5 45bd 5b2c 6dbc
00000240: cad2 863c a56e 58bd 6005 90bb 68a8 6fbd
00000250: 3b3b fd3c ab0b 11bd 59d4 e1bb eebb 13bd
00000260: 8192 3c3d 84a8 bdbc 744b 143b 9202 c43b
00000270: 7595 37bd 91ea a0bc 8b52 33bc da44 ae3c
00000280: fda0 71bc 59a7 4fbc b7fe 3b3d a7ae 593b
00000290: eb2b aa3c 4a52 10bb c78a bdbc 11e9 e3bc
000002a0: 5f2d 6abd d82b ee3c ed8e 8c3c 7727 703c
000002b0: 2d0c 093c b283 6b3d f82d a1bc 55b6 56bd
000002c0: c6f8 ce3b 5f5d 24bd 7db2 1fbd 0561 823c
000002d0: 86b2 26bd 4769 1c3d 08ec 533d f555 b7bc
000002e0: 215f 28bd c1b5 203d b606 203d 1525 b23b
000002f0: 76b8 58bd 43bf 5cbd 60bf 603d 93d8 0a3c
00000300: f364 533d 5ed3 a3bc 90a9 75bd 55d0 54bb
00000310: fb00 203d a3fd cfbc c49d bcbc 6ffc 06bd
00000320: 7e70 2e3d 644a 1c3c 27ea 2e3c 7e26 80bc
00000330: 4e45 52bd cbc9 263d 1aeb c4bc 8d9d 9a3b
00000340: a288 903c 17ab 2c3b 2c56 483d 34ae fdbc
00000350: ca1a 803d fdcf a9bc 3f33 4d3d 8e3e 52bd
00000360: 63e2 343d 671a 4bbd f893 5ebc 564d 273d
00000370: 92c7 4c3d 8699 4ebc 5f40 3b3d 64d1 8dbc
00000380: 0973 813c 569d 0abd 9e0b 0fbd d1be a0bb
00000390: de4e 4d3d 7c67 233c 8d43 ed3c ab5c c33b
000003a0: 10d6 543d 4657 ca3c 0b21 25bd 0502 84bc
000003b0: c10b 733d 6efe 53bd b4c8 583c f2d6 24bd
000003c0: 4b01 5f3d 0315 0dbd 5351 aebc d765 7cbc
000003d0: e59e 1b3d 0a54 f2bb 8769 433d 37f2 563d
000003e0: 7f08 d43c 370a 21bd 6b3a 063d 8684 f63c
000003f0: d217 353d 255d 353d 01f7 6dbc 7fce 2bbd

conv3.0.bias f4 [64]
-0.016198803 0.008201164 -0.05308361 -0.010916693 -0.0003531841 0.028636625 0.009028035 0.00040983577
0.01356951 0.04838342 -0.01573409 0.015232981 0.03800592 0.056996543 0.045567572 0.029531203
-0.048460465 0.054457467 0.019463515 -0.0068553505 -0.03561417 -0.007671387 0.031248216 0.0014585591
0.050717615 0.009912218 -0.026039727 -0.03661264 -0.0364914 -0.038709782 -0.05868425 -0.009238093
0.03397026 -0.006817035 0.027096242 0.010430542 -0.057764523 -0.004970238 -0.044231534 0.03873013
0.052896794 -0.012765671 -0.049232885 0.015249322 -0.025892047 0.0573033 -0.011165967 0.047880173
-0.053136636 0.054590847 -0.032762025 0.029161219 0.041369114 0.03939739 -0.053709414 -0.044149302
-0.04762055 -0.001671702 -0.05815039 0.01109108 0.009364889 0.028838696 -0.031255174 0.045796968
00000000: 5ab3 84bc 2d5e 063c 336e 59bd eedb 32bc
00000010: 912b b9b9 5b97 ea3c 53ea 133c 3adf d639
00000020: a652 5e3c b12d 463d c7e4 80bc c193 793c
00000030: 18ac 1b3d 3575 693d 10a5 3a3d 6ceb f13c
00000040: 7b7e 46bd cb0e 5f3d f371 9f3c d9a2 e0bb
00000050: 2ae0 11bd 4260 fbbb 42fc ff3c 1f2d bf3a
00000060: 46bd 4f3d db66 223c 4451 d5bc 23f7 15bd
00000070: 0278 15bd 268e 1ebd e55e 70bd 5f5b 17bc
00000080: 6624 0b3d 6f61 dfbb f0f8 dd3c dde4 2a3c
00000090: 7e9a 6cbd 61dd a2bb 202c 35bd 7ca3 1e3d
000000a0: 4faa 583d 1b27 51bc 6ca8 49bd 4bd8 793c
000000b0: 8f1b d4bc ddb6 6a3d 76f1 36bc 001e 443d
000000c0: cda5 59bd a79a 5f3d 7931 06bd 82e3 ee3c
000000d0: a972 293d 285f 213d 67fe 5bbd e6d5 34bd
000000e0: c40d 43bd 031d dbba 1a2f 6ebd 5cb7 353c
000000f0: 316f 193c 213f ec3c 6d05 00bd 9a95 3b3d

conv3.1.weight f4 [64]
0.9943109 0.9969186 0.99625266 0.9962136 0.99545866 0.9997788 0.9963875 1.0045086
1.0024018 0.99780685 1.0045792 0.9988062 0.9967721 0.9946446 0.99311644 1.0021795
0.9987448 0.9963843 0.9971196 1.0040596 1.0044448 1.0065696 1.0014101 0.9993666
1.0031446 1.0026444 1.0033993 0.99636453 1.00514 1.003561 0.9973527 1.002872
1.0029937 0.99817145 1.0009235 1.0036848 1.0048311 1.001658 1.0057467 1.0037578
1.0032682 1.0013571 0.9931987 0.9966764 1.0055252 0.99611294 1.0079383 0.9951592
0.9992725 1.0045604 0.996658 0.995792 0.99929136 1.0066924 1.001736 1.0034419
0.9964099 0.9995333 1.0053077 1.0032047 1.0037557 1.0042573 1.0036067 0.9941123
00000000: 298b 7e3f 0f36 7f3f 6a0a 7f3f db07 7f3f
00000010: 61d6 7e3f 81f1 7f3f 4013 7f3f bd93 803f
00000020: b44e 803f 4570 7f3f 0d96 803f c3b1 7f3f
00000030: 752c 7f3f 07a1 7e3f e13c 7e3f 6b47 803f
00000040: bdad 7f3f 0b13 7f3f 3b43 7f3f 0685 803f
00000050: a691 803f 46d7 803f 352e 803f 7dd6 7f3f
00000060: 0b67 803f a756 803f 636f 803f bf11 7f3f
00000070: 6da8 803f b074 803f 8252 7f3f 1c5e 803f
00000080: 1962 803f 2a88 7f3f 431e 803f be78 803f
00000090: 4e9e 803f 5436 803f 4fbc 803f 237b 803f
000000a0: 186b 803f 782c 803f 4542 7e3f 2f26 7f3f
000000b0: 0db5 803f 4201 7f3f 1f04 813f c1c2 7e3f
000000c0: 53d0 7f3f 6f95 803f fb24 7f3f 39ec 7e3f
000000d0: 8fd1 7f3f 4cdb 803f e338 803f c970 803f
000000e0: b814 7f3f 6ae1 7f3f ecad 803f 0369 803f
000000f0: 117b 803f 818b 803f 2f76 803f 257e 7e3f

conv3.1.bias f4 [64]
-0.0047581564 0.003663269 0.0034239264 0.008091856 -0.0010283513 0.0060333502 0.00021177993 0.006761105
0.00076068525 0.005532659 0.005806227 0.0035751394 -0.0053731124 -0.006609274 0.0043874728 0.00057389506
0.0015602133 -0.0067859087 -0.004004578 0.004661994 0.0011648892 0.0057634986 0.0008630677 -0.00439683
0.0033122792 0.005936017 0.0074462527 -0.0040859184 0.0026951556 0.007617395 -0.0041001434 5.420667e-05
0.0052453703 0.00051395065 -0.00048235466 0.007568728 0.007683291 0.00730452 0.0071171657 0.00621311
0.007861243 0.0008575519 -0.0067737466 0.0037952887 0.006313546 -0.004974827 0.0075783962 -0.00013953907
0.0025362696 0.0048208237 -0.00236103 -0.0024906183 0.006630383 0.0062964987 0.005259554 0.0042846547
-0.0025246025 0.004724775 0.004599633 0.0013335084 0.0010658102 0.004626202 -0.0037705384 -0.0061216936
00000000: 4fea 9bbb 7513 703b f463 603b b493 043c
00000010: bec9 86ba 69b3 c53b 3e11 5e39 428c dd3b
00000020: b968 473a 4f4b b53b 2a42 be3b e34c 6a3b
00000030: ef10 b0bb 9c92 d8bb cac4 8f3b 7271 163a
00000040: 1280 cc3a 545c debb d638 83bb a4c3 983b
00000050: 32af 983a bbdb bc3b 7e3f 623a 4913 90bb
00000060: d312 593b eb82 c23b b2ff f33b 2be3 85bb
00000070: 35a1 303b 579b f93b 7f5a 86bb f85b 6338
00000080: 5be1 ab3b a5ba 063a 8ce4 fcb9 1803 f83b
00000090: 1ec4 fb3b c15a ef3b 1d37 e93b 5897 cb3b
000000a0: 71cc 003c 55cd 603a 4ef6 ddbb 61ba 783b
000000b0: dde1 ce3b e003 a3bb 3254 f83b 3c51 12b9
000000c0: 8b37 263b 00f8 9d3b 83bb 1abb a439 23bb
000000d0: af43 d93b dc52 ce3b 5658 ac3b 4a66 8c3b
000000e0: cd73 25bb 49d2 9a3b 85b8 963b 1ec9 ae3a
000000f0: a8b2 8b3a 6597 973b 231b 77bb 7d98 c8bb

conv3.1.running_mean f4 [64]
-0.06599716 0.18831502 0.06817376 0.04290142 0.24069816 0.09894347 0.16096142 0.08809741
-0.026329411 0.07316528 -0.039906673 0.081183106 -0.0381889 0.24863365 0.113921955 -0.048319783
-0.30874288 -0.025698211 0.008889522 -0.17651203 0.087318234 -0.21009754 -0.071751244 0.17649427
0.004810915 -0.071501754 -0.04331983 -0.09213776 0.1568543 0.08528052 0.25035897 0.10096139
0.16558114 -0.043523796 -0.023112463 -0.22830912 -0.17702274 -0.20279926 0.03739214 0.21540429
0.057163842 -0.13396116 -0.28187653 -0.12234929 -0.14718863 -0.08420059 -0.16112891 0.18404752
-0.09664509 0.16354738 -0.062231343 0.11334397 0.13733844 -0.25237486 0.07840386 0.028139576
-0.03549097 0.21566828 0.066489264 0.1409944 0.089967094 0.16404413 0.11294935 0.06485684
00000000: 8529 87bd a7d5 403e af9e 8b3d 66b9 2f3d
00000010: 9479 763e e0a2 ca3d 12d3 243e 6a6c b43d
00000020: c7b0 d7bc aed7 953d 2e75 23bd 5443 a63d
00000030: f76b 1cbd d299 7e3e ea4f e93d f7ea 45bd
00000040: 8c13 9ebe 0e85 d2bc 5ca5 113c 92bf 34be
00000050: e7d3 b23d cf23 57be 51f2 92bd eaba 343e
00000060: e1a4 9d3b 836f 92bd 2270 31bd b9b2 bcbd
00000070: 6a9e 203e 8ea7 ae3d 0d2f 803e d8c4 ce3d
00000080: 1a8e 293e 0246 32bd 5956 bdbc dec9 69be
00000090: 7345 35be 9caa 4fbe 8028 193d f192 5c3e
000000a0: a224 6a3d 1d2d 09be 1f52 90be 4492 fabd
000000b0: 9eb8 16be 5c71 acbd fafe 24be f476 3c3e
000000c0: dced c5bd f778 273e 4be6 7ebd e220 e83d
000000d0: 73a2 0c3e 4737 81be 3492 a03d f884 e63c
000000e0: fb5e 11bd 25d8 5c3e 862b 883d d660 103e
000000f0: ab40 b83d 2ffb 273e fd51 e73d aad3 843d

conv3.1.running_var f4 [64]
0.44689453 1.0955955 0.52220005 0.50613254 1.161204 0.47402352 0.7060565 0.5102699
0.5530348 0.46604747 0.5194662 0.64753824 0.52912706 1.0049514 0.53749675 0.47679788
1.4321352 0.4566366 0.50624776 0.7528739 0.6597509 1.0383058 0.64658165 0.76199114
0.5512221 0.5218928 0.5515652 0.48802543 0.91082567 0.85876876 1.3532056 0.75342613
0.8783953 0.41660282 0.5042432 1.1093658 0.7174911 0.90370184 0.6215548 1.0694898
0.5458084 0.7858888 1.1384652 0.9059311 0.6621122 0.6106832 0.9559249 0.7046472
0.61613727 0.6578738 0.47903642 0.66319555 0.6140103 1.7975034 0.64158374 0.57584506
0.5555648 1.5889131 0.8588144 0.8482043 0.644396 0.7702392 0.6584459 0.4791556
00000000: 5ccf e43e 793c 8c3f e7ae 053f e791 013f
00000010: 55a2 943f 36b3 f23e 1ec0 343f 0ca1 023f
00000020: b093 0d3f c69d ee3e bdfb 043f 11c5 253f
00000030: df74 073f 3fa2 803f 6399 093f da1e f43e
00000040: 3550 b73f 46cc e93e 7499 013f 58bc 403f
00000050: 6fe5 283f 34e7 843f 6086 253f da11 433f
00000060: e41c 0d3f c49a 053f 6033 0d3f 78de f93e
00000070: df2b 693f 45d8 5b3f d735 ad3f 89e0 403f
00000080: 84de 603f f74c d53e 1516 013f b3ff 8d3f
00000090: 7fad 373f 0159 673f 371e 1f3f 0be5 883f
000000a0: 19ba 0b3f 0230 493f 3ab9 913f 1aeb 673f
000000b0: 2f80 293f bc55 1c3f 7fb7 743f c263 343f
000000c0: 2cbb 1d3f 6b6a 283f 4344 f53e 2fc7 293f
000000d0: c72f 1d3f 9714 e63f d53e 243f 956a 133f
000000e0: 7f39 0e3f 8161 cb3f 43db 5b3f eb23 593f
000000f0: 23f7 243f 652e 453f e98f 283f e253 f53e

conv4.0.weight f4 [128, 64, 3, 3]
0.009147396 -0.0067539667 0.037908424 -0.0067439647 0.031092633 0.006295814 0.00030887622 0.008063787
0.010255187 0.008562599 0.021611363 -0.015453907 -0.012607883 0.007486366 -0.00254705 -0.025347788
-0.0077782795 0.03806402 0.029965099 -0.022530762 0.020106787 0.010372598 -0.02962037 -0.01597969
-0.022804957 -0.0015503481 -0.019429145 -0.030506732 -0.015306243 0.005914402 -0.023924818 -0.005295225
0.00064535986 -0.010210017 -0.025679788 -0.035572924 -0.028614696 -0.006992501 0.03021337 0.03338549
-0.0045154477 -0.005551816 0.040846396 -0.0014164487 0.023723988 0.021264838 -0.004928233 0.040176705
0.015086648 0.0137353605 -0.0254463 0.022373863 -0.013372461 0.03709071 -0.008477655 -0.030560175
-0.0058328127 -0.031073326 -0.0037050245 0.011471589 -0.0055248807 0.0022537524 0.007111902 0.040530942
0.03146344 -0.033773612 0.0091810245 -0.023857765 -0.019306146 0.034959804 0.027841147 0.029403128
0.034696773 -0.040969975 0.0064404164 0.02065262 0.010421458 0.02329088 -0.01848166 0.0014167726
-0.015821952 -0.028199906 0.0046557123 -0.019314192 -0.010533993 -0.014384329 0.028518287 0.010015203
0.0020226464 -0.02422085 -0.013445595 -0.015174498 -0.020994052 -0.021276768 0.0028461036 0.016613632
0.011280256 0.007186793 0.03376334 -0.02901021 -0.035521965 0.006009974 -0.025069775 0.00802686
0.019845288 -0.00968879 -0.005292261 0.015941372 -0.034641568 0.016879857 -0.024595836 0.0011559124
0.009482994 0.040880363 -0.026961524 0.021447968 0.009778603 0.024518266 -0.039984323 -0.039356887
0.025390161 -0.02477808 0.024878727 -0.02592706 0.02131537 -0.0007210495 -0.014250513 0.022839088
0.041115463 0.029026482 -0.03468389 0.006810504 0.015155508 0.014307813 0.014950318 -0.01559452
0.024195284 0.017187867 -0.035591416 0.036246512 -0.02316133 0.010805238 0.0033240884 -0.036029745
-0.046750885 0.03360165 0.002037407 0.031308718 0.032035068 -0.019883353 0.037710156 -0.037231915
0.033186756 -0.036935333 -0.0011312307 -0.016809924 0.0026557883 -0.017782059 0.021768581 0.010359231
-0.023110168 0.015119065 -0.030078659 0.035479244 0.027028048 0.04190005 -0.026673684 -0.03251042
-0.011066723 0.026556317 0.0019336118 -0.018922748 -0.0006423362 -0.019010505 0.015535899 0.0033725866
0.012824162 -0.031490944 -0.0016611932 -0.00038749527 -0.019905273 -0.039330464 0.002879838 -0.0128395315
-0.037565168 -0.016109997 -0.0015250727 0.018844059 -0.026206356 0.0028407692 -0.029277312 -0.040039264
0.024615949 -0.028261978 0.0069008553 -0.005479394 0.011003013 0.017434197 0.014948668 0.020331208
-0.033766035 -0.014870586 0.035231765 0.027600335 0.038025755 -0.0047181477 -0.03449074 -0.027770236
0.02409114 0.023734055 -0.016811995 0.02934167 0.0044707 0.009396707 -0.014054683 -0.0013066
0.013351788 -0.006443461 -0.016273811 0.038854893 -0.03906108 0.015549858 0.042218857 0.040762573
0.043254256 -0.032620553 0.02557749 0.028369255 -0.009726415 -0.04338057 0.024591688 0.02425315
-0.017724343 -0.01805314 -0.013748291 0.03308282 -0.016639844 0.02004801 -0.014752569 -0.00085374294
-0.031214045 -0.008256413 0.026587937 0.014896953 0.034438916 -0.036971092 0.0044901944 0.022639837
0.011836615 -0.038029563 -0.0075056073 0.011498784 0.006607533 0.03807445 -0.03654844 -0.0062812595
00000000: f6de 153c 6150 ddbb dd45 1b3d 7afc dcbb
00000010: fab5 fe3c 1e4d ce3b aaf0 a139 f91d 043c
00000020: 5f05 283c 254a 0c3c 500a b13c 6232 7dbc
00000030: 4b91 4ebc 3150 f53b 68ec 26bb 2aa6 cfbc
00000040: f0e0 febb 05e9 1b3d 5e79 f53c 6f92 b8bc
00000050: fdb6 a43c d4f1 293c 6ba6 f2bc d7e7 82bc
00000060: 76d1 babc 0d35 cbba df29 9fbc 41e9 f9bc
00000070: 09c7 7abc 9acd c13b fbfd c3bc 9183 adbb
00000080: 5e2d 293a ea47 27bc 6b5e d2bc eab4 11bd
00000090: 5e69 eabc 5a21 e5bb 0882 f73c 39bf 083d
000000a0: 52f6 93bb 02ec b5bb 8d4e 273d 22a8 b9ba
000000b0: cf58 c23c 9933 ae3c 047d a1bb 5490 243d
000000c0: fd2d 773c 470a 613c c274 d0bc 6449 b73c
000000d0: 2b18 5bbc 6eec 173d dde5 0abc 5559 fabc
000000e0: 2e21 bfbb 7d8d febc ffcf 72bb 55f3 3b3c
000000f0: 0f0a b5bb b1b3 133b f50a e93b c603 263d
00000100: cfdf 003d 3356 0abd 026c 163c 5c71 c3bc
00000110: ec27 9ebc 0332 0f3d 1e13 e43c d4de f03c
00000120: 341e 0e3d 22d0 27bd 210a d33b af2f a93c
00000130: c3be 2a3c 84cc be3c da66 97bc 00b3 b93a
00000140: 0a9d 81bc 7d03 e7bc f28e 983b cc38 9ebc
00000150: c596 2cbc 40ac 6bbc 2f9f e93c ce16 243c
00000160: 608e 043b ce6a c6bc ea4a 5cbc 759e 78bc
00000170: b8fb abbc 9e4c aebc b285 3a3b 5019 883c
00000180: d3d0 383c 307f eb3b 6e4b 0a3d d2a6 edbc
00000190: 7b7f 11bd 51ef c43b 215f cdbc 1783 033c
000001a0: 9692 a23c bbbd 1ebc b46a adbb 7b97 823c
000001b0: 51e4 0dbd a047 8a3c 357d c9bc fc81 973a
000001c0: 8f5e 1b3c 2b72 273d 6ade dcbc a6b3 af3c
000001d0: 6f36 203c 88da c83c 9ac6 23bd b034 21bd
000001e0: 07ff cf3c 66fb cabc 79ce cb3c fc64 d4bc
000001f0: 929d ae3c d004 3dba fc7a 69bc 0a19 bb3c
00000200: b068 283d f2c8 ed3c b210 0ebd a62a df3b
00000210: cf4e 783c 516b 6a3c 2ef2 743c 2880 7fbc
00000220: 3035 c63c 92cd 8c3c 4ec8 11bd 3977 143d
00000230: d4bc bdbc 7408 313c f3d8 593b ed93 13bd
00000240: db7d 3fbd e2a1 093d 0486 053b 923d 003d
00000250: 3437 033d 6ae2 a2bc f775 1a3d 7e80 18bd
00000260: d6ee 073d 8149 17bd ce45 94ba f7b4 89bc
00000270: bc0c 2e3b aeab 91bc 0654 b23c c4b9 293c
00000280: 8951 bdbc f4b5 773c 8567 f6bc af52 113d
00000290: ed69 dd3c 639f 2b3d c582 dabc a529 05bd
000002a0: 3351 35bc a28c d93c 3f71 fd3a e103 9bbc
000002b0: 7462 28ba ebbb 9bbc 498a 7e3c 9d06 5d3b
000002c0: 6f1c 523c a6fc 00bd 65bc d9ba bc28 cbb9
000002d0: 6210 a3bc fb18 21bd aabb 3c3b e65c 52bc
000002e0: efdd 19bd 1df9 83bc f3e4 c7ba db5e 9a3c
000002f0: b6ae d6bc 332c 3a3b f9d6 efbc 3600 24bd
00000300: 63a7 c93c aa85 e7bc 9220 e23b 7d8c b3bb
00000310: fb45 343c 29d2 8e3c 42eb 743c a28d a63c
00000320: 414e 0abd c2a3 73bc 2f4f 103d 191a e23c
00000330: e5c0 1b3d b19a 9abb 2a46 0dbd 687e e3bc
00000340: c85a c53c ec6d c23c 4fb9 89bc f15d f03c
00000350: f37e 923b a5f4 193c 9d45 66bc 3942 abba
00000360: 75c1 5a3c ab23 d3bb a850 85bc 4f26 1f3d
00000370: 83fe 1fbd d5c4 7e3c aeed 2c3d a8f6 263d
00000380: 602b 313d 219d 05bd e287 d13c a466 e83c
00000390: 8b5b 1fbc d3af 31bd 8274 c93c 8bae c63c
000003a0: a432 91bc 2ee4 93bc 8340 61bc da81 073d
000003b0: 4850 88bc b93b a43c c2b4 71bc b8cd 5fba
000003c0: 99b4 ffbc e845 07bc f2ce d93c 5912 743c
000003d0: d20f 0d3d 006f 17bd 7b22 933b 2e77 b93c
000003e0: 5dee 413c e3c4 1bbd 99f1 f5bb 6565 3c3c
000003f0: 0184 d83b f4f3 1b3d d1b3 15bd 06d3 cdbb

conv4.0.bias f4 [128]
-0.016485766 0.012364336 -0.041743156 0.037478734 -0.034503184 0.024746524 -0.013476465 -0.02670501
-0.041454285 -0.030927869 -0.020149952 0.0039542574 0.039266236 0.0070200693 -0.036269434 -0.03853658
0.00040358375 -0.01939069 0.024239523 -0.038438756 -0.015812974 0.00779175 0.009408545 0.014421739
-0.028631726 0.0059278416 -0.0025706461 0.026102254 0.00349221 -0.018910179 -0.03691211 -0.040126465
-0.0048026093 -0.036593694 -0.025547916 -0.02015891 -0.017371288 0.030113693 0.024762567 0.011209571
-0.006357286 0.02697333 0.031059125 0.0043660733 0.020046497 0.0022480595 0.00817022 -0.008557754
0.0012820918 0.012344404 -0.012238613 0.039144084 0.03842711 0.00489213 -0.0014484016 -0.028364206
-0.013238801 -0.023136748 -0.029662654 -0.0064331167 0.008997318 0.00362215 -0.033948533 0.027437383
0.0022971346 0.017347625 -0.033957656 -0.0010429799 0.01764837 -0.014261546 0.023752684 0.018171944
0.033343334 -0.02838001 -0.004375876 0.022352176 -0.01465133 0.013013954 0.036443017 -0.0058059497
-0.017041227 0.019169439 0.023495669 0.012555663 -0.038483884 0.015116777 0.008652875 0.03902813
0.0339581 -0.01783726 0.040908746 0.015923684 -0.039343655 -0.023146313 0.04018786 -0.03284179
0.0040090573 0.014286851 -0.03325405 -0.01769238 -0.029396085 -0.032581516 -0.005258709 0.0389073
0.000540469 0.012090574 0.010774222 -0.037731867 -0.008276639 0.007227794 -0.011005391 -0.027102808
0.029209584 -0.012473682 0.010308158 0.013722467 -0.021472698 0.023859724 -0.032572754 0.01985191
0.008240296 0.024992619 0.04004441 -0.01540107 -0.036124036 0.034576613 0.035798486 0.007052541
00000000: 280d 87bc c993 4a3c dffa 2abd 4d83 193d
00000010: 3653 0dbd 39b9 ca3c 64cc 5cbc 77c4 dabc
00000020: f8cb 29bd 715c fdbc 8311 a5bc b792 813b
00000030: a2d5 203d 9c08 e63b 428f 14bd 88d8 1dbd
00000040: 1898 d339 39d9 9ebc f791 c63c f571 1dbd
00000050: 368a 81bc f051 ff3b 4c26 1a3c 2849 6c3c
00000060: 158d eabc 573e c23b 4978 28bb 65d4 d53c
00000070: 90dd 643b 85e9 9abc 2731 17bd a65b 24bd
00000080: 355f 9dbb 45e3 15bd dd49 d1bc 4c24 a5bc
00000090: 3b4e 8ebc feb0 f63c deda ca3c 59a8 373c
000000a0: c850 d0bb 2cf7 dc3c b56f fe3c 4711 8f3b
000000b0: 8d38 a43c 2e54 133b 63dc 053c d235 0cbc
000000c0: dd0b a83a 2f40 4a3c 7784 48bc 8c55 203d
000000d0: bf65 1d3d 294e a03b 4bd8 bdba 0d5c e8bc
000000e0: 8ee7 58bc 4789 bdbc 18ff f2bc e5cc d2bb
000000f0: 7d69 133c 9861 6d3b 9e0d 0bbd 5dc4 e03c
00000100: 868b 163b 9b1c 8e3c 2f17 0bbd 99b4 88ba
00000110: 5093 903c 42a9 69bc fd94 c23c 54dd 943c
00000120: 0593 083d 327d e8bc 8263 8fbb e91b b73c
00000130: 220c 70bc 7b38 553c 4645 153d d63f bebb
00000140: 0b9a 8bbc 3a09 9d3c fd79 c03c 44b6 4d3c
00000150: 47a1 1dbd 5cac 773c cac4 0d3c f6db 1f3d
00000160: a617 0b3d 721f 92bc ee8f 273d 6372 823c
00000170: d026 21bd 569d bdbc 079c 243d 1d85 06bd
00000180: 695e 833b 6513 6a3c 6635 08bd 9cef 90bc
00000190: 0fd0 f0bc 3274 05bd 4051 acbb 435d 1f3d
000001a0: 43ae 0d3a 8b17 463c 5d86 303c bb8c 1abd
000001b0: bd9a 07bc 21d7 ec3b f54f 34bc b506 debc
000001c0: f048 ef3c 6a5e 4cbc 8ce3 283c 33d4 603c
000001d0: 83e7 afbc 7875 c33c 026b 05bd 79a0 a23c
000001e0: 4e02 073c 52bd cc3c 9b05 243d c554 7cbc
000001f0: ccf6 13bd 35a0 0d3d 6fa1 123d 0019 e73b

conv4.1.weight f4 [128]
0.9982833 0.995904 0.99754786 1.0035 1.0027813 0.999329 1.0072749 0.99830097
0.9980098 1.0001061 1.0042443 1.0005794 0.99912935 1.0034722 1.0039471 0.9991497
0.9968439 0.9958104 1.0043432 1.007983 1.0039648 1.0073208 1.0040334 1.0071092
1.0004648 0.9968551 0.9967839 0.9995581 1.0048639 0.9964315 0.99548984 1.003643
1.0039015 1.0020674 1.0064342 1.0055029 1.0036638 0.99727213 0.99703467 0.9974041
0.9984433 1.0014281 0.99720484 0.9964271 0.99878937 1.0066897 1.0076941 0.99679327
1.0083786 1.0016683 1.0056615 1.0049309 1.0032867 1.0058799 0.9930443 1.0076449
0.99649227 1.006929 0.99838835 1.0030969 1.0041322 0.9956771 0.99921936 1.0042813
0.9984265 0.99596107 1.003452 1.0038744 0.9956858 1.0028718 1.0001068 0.99773186
0.9978416 1.0031246 1.0065126 1.0058256 0.9960552 0.9963981 1.0035652 0.9940202
0.9966209 1.0051594 1.0020119 1.0077014 1.0038496 1.0029602 0.9965907 1.0043441
0.99892706 1.0007114 0.9977673 0.99616283 0.9941909 0.9953167 1.0043335 0.994744
1.0025905 1.0028609 0.9968393 1.0018113 1.0044775 0.9974477 0.99750715 0.9998916
1.0022795 0.9977929 0.99479926 0.9962967 1.0083269 1.0074407 1.0075952 1.0051811
0.99637794 0.9959062 1.0023006 1.0033284 0.99881434 1.0060291 0.9995821 1.003084
0.995597 0.99915123 1.00419 1.0041714 1.0041163 1.0074035 0.99853665 0.9950783
00000000: 7f8f 7f3f 91f3 7e3f 4c5f 7f3f b072 803f
00000010: 235b 803f 06d4 7f3f 62ee 803f a790 7f3f
00000020: 927d 7f3f 7a03 803f 148b 803f fc12 803f
00000030: f1c6 7f3f c771 803f 5781 803f 46c8 7f3f
00000040: 2931 7f3f 6eed 7e3f 518e 803f 9605 813f
00000050: eb81 803f e3ef 803f 2b84 803f f4e8 803f
00000060: 3b0f 803f e531 7f3f 3b2d 7f3f 0ae3 7f3f
00000070: 619f 803f 2316 7f3f 6cd8 7e3f 6077 803f
00000080: d87f 803f bf43 803f d6d2 803f 52b4 803f
00000090: 0e78 803f 3a4d 7f3f aa3d 7f3f e055 7f3f
000000a0: fb99 7f3f cc2e 803f d148 7f3f d915 7f3f
000000b0: a9b0 7f3f 35db 803f 1ffc 803f d82d 7f3f
000000c0: 8d12 813f ab36 803f 84b9 803f 93a1 803f
000000d0: b36b 803f acc0 803f 2738 7e3f 82fa 803f
000000e0: 1e1a 7f3f 0de3 803f 6196 7f3f 7b65 803f
000000f0: 6787 803f b2e4 7e3f d7cc 7f3f 4a8c 803f
00000100: e198 7f3f 4ef7 7e3f 1d71 803f f57e 803f
00000110: 44e5 7e3f 1a5e 803f 8003 803f 5b6b 7f3f
00000120: 8c72 7f3f 6366 803f 68d5 803f e5be 803f
00000130: 79fd 7e3f f213 7f3f d374 803f 1c78 7e3f
00000140: 8c22 7f3f 10a9 803f ed41 803f 5cfc 803f
00000150: 257e 803f 0061 803f 9120 7f3f 598e 803f
00000160: afb9 7f3f 5017 803f ae6d 7f3f 8704 7f3f
00000170: 4b83 7e3f 13cd 7e3f 008e 803f 8ba7 7e3f
00000180: e354 803f bf5d 803f dc30 7f3f 5a3b 803f
00000190: b892 803f bc58 7f3f a15c 7f3f e5f8 7f3f
000001a0: b24a 803f 5b6f 7f3f 2aab 7e3f 4d0d 7f3f
000001b0: db10 813f d1f3 803f e1f8 803f c6a9 803f
000001c0: a012 7f3f b5f3 7e3f 634b 803f 116d 803f
000001d0: 4cb2 7f3f 90c5 803f 9de4 7f3f 0e65 803f
000001e0: 72df 7e3f 60c8 7f3f 4c89 803f b088 803f
000001f0: e286 803f 99f2 803f 19a0 7f3f 74bd 7e3f

conv4.1.bias f4 [128]
-0.0020334725 -0.0063245725 0.0023343172 0.0028787244 0.00015888328 0.0045986623 0.007326327 -0.00183137
0.005680034 0.004687835 -0.0018443142 -0.0030371721 -7.951709e-05 0.0021586004 0.00388788 0.007402918
0.0003107951 -0.0048842807 0.0025454166 0.007774732 0.004046211 0.0076943925 0.0036360906 0.0040089698
-0.0062635136 -0.0032834578 0.0015849941 -0.00094072305 0.007756387 0.00082584715 -0.0067006056 -0.0005561556
-0.0022134497 0.0059790565 0.0052778814 0.006302874 0.0007372409 0.00019013126 -0.004215088 0.00055621366
0.0077523813 0.0075827786 -0.0036763554 -0.0010360436 -0.0037820092 0.006877474 0.0047121267 -0.0022898293
0.008200756 0.005399441 0.00024796824 -0.0050146463 -0.003677974 0.0008127561 -0.002545429 0.00732429
-0.001824403 0.008116057 -0.0043648784 -0.000121803256 0.0017695299 -0.0062856246 -0.00056580716 0.005684323
0.0034087542 -0.0054788482 0.0005946091 -0.0035154442 -0.00670197 0.0001088313 0.002978344 -0.0030688436
0.0069765025 0.0015898012 0.006053586 0.001146739 -0.0051616994 -0.0044627395 -0.0020710835 -0.007392917
-0.0064089773 0.0027822538 -0.004821451 0.004941879 -0.0007934252 0.0016125254 0.0036247727 -0.0032424754
0.0052020443 0.0033068922 0.0018685482 -0.0046097143 -0.0065045278 -0.007736808 6.229704e-05 -0.0042689703
-0.0018749626 -0.00035011763 0.0037593506 -0.00057814526 0.005301914 -0.0035798762 0.0019695468 -0.0002775708
-0.0016380817 -0.0020964106 -0.0060356827 -0.0020143962 0.008071366 0.007051924 0.007499532 0.008033178
0.00041119923 -0.006234635 0.0012950888 0.0045788926 -0.0021304712 0.0073818467 -0.0036779917 0.00038327204
0.00021740323 0.007824971 0.0073947324 -0.0028285377 -0.00057726185 0.0019828419 -0.0048871995 -0.0053138193
00000000: 0244 05bb 5c3e cfbb 58fb 183b fba8 3c3b
00000010: e899 2639 60b0 963b af11 f03b 950a f0ba
00000020: 941f ba3b 699c 993b eabc f1ba 4b0b 47bb
00000030: 6ac2 a6b8 4e77 0d3b cdcb 7e3b 2d94 f23b
00000040: 36f2 a239 510c a0bb 01d1 263b 2ec3 fe3b
00000050: 1496 843b 3e21 fc3b 7a4b 6e3b ad5d 833b
00000060: 293e cdbb 482f 57bb 94bf cf3a db9a 76ba
00000070: 4a29 fe3b aa7d 583a c190 dbbb f8ca 11ba
00000080: 860f 11bb f6eb c33b 14f2 ac3b 5788 ce3b
00000090: 6643 413a f95d 4739 b91e 8abb dece 113a
000000a0: b007 fe3b f578 f83b 02ef 70bb dbcb 87ba
000000b0: 96db 77bb 6f5c e13b 2f68 9a3b f610 16bb
000000c0: 775c 063c cbed b03b bc01 8239 e751 a4bb
000000d0: 2a0a 71bb 230f 553a 36d1 26bb 9900 f03b
000000e0: ce20 efba 36f9 043c 4107 8fbb a070 ffb8
000000f0: 92ef e73a a4f7 cdbb ad52 14ba 8f43 ba3b
00000100: 6865 5f3b e987 b3bb 8bdf 1b3a 5e63 66bb
00000110: 339c dbbb 5c3c e438 5230 433b a71e 49bb
00000120: 259b e43b e060 d03a 295d c63b 2d4e 963a
00000130: 7923 a9bb 2c3c 92bb 04bb 07bb 4840 f2bb
00000140: 6602 d2bb 7956 363b 43fd 9dbb 7cef a13b
00000150: ddfd 4fba 605b d33a 988d 6d3b b67f 54bb
00000160: e975 aa3b 72b8 583b 13ea f43a 160d 97bb
00000170: ef23 d5bb 0d85 fdbb 78a5 8238 b8e2 8bbb
00000180: 4ec1 f5ba fe8f b7b9 705f 763b ac8e 17ba
00000190: aebb ad3b 5b9c 6abb 8313 013b ec86 91b9
000001a0: e7b4 d6ba ef63 09bb fac6 c5bb f603 04bb
000001b0: c33d 043c d313 e73b a2be f53b 979d 033c
000001c0: 3a96 d739 e94b ccbb f8bf a93a 890a 963b
000001d0: 609f 0bbb 6be3 f13b 760a 71bb e7f1 c839
000001e0: bcf6 6339 4f34 003c 834f f23b fd5e 39bb
000001f0: 6353 17ba 91f2 013b cd24 a0bb 8c1f aebb

conv4.1.running_mean f4 [128]
-0.010444493 0.2727402 -0.18731612 0.21856907 0.09773621 -0.31579494 -0.062405985 0.07489869
-0.23585926 -0.021143558 0.0732567 0.048870273 0.061200082 0.25433558 0.19331428 -0.33476505
-0.31733787 0.16675013 0.21810104 -0.13472193 -0.108321115 0.029649615 0.21980157 0.031333283
-0.014720205 -0.19405058 0.12039134 0.238586 0.11482522 -0.2602345 0.13640058 0.05491008
0.21791662 -0.25462392 0.12984307 -0.22531985 0.23967701 -0.18516809 0.057382148 -0.03680525
-0.14218616 -0.29293606 0.1220032 0.058665153 0.08768605 0.042984597 -0.0009077941 -0.04952276
-0.09037676 -0.06042745 0.16968964 0.10260007 -0.04234788 0.06666244 -0.0969482 -0.24992815
-0.10415512 0.07845529 0.051223587 -0.08347158 0.048874103 0.18093747 0.11185674 0.21558118
-0.20382243 0.26639387 0.061052628 0.10167585 0.1843796 0.20393355 -0.062247667 -0.18813269
0.18342093 -0.015859943 0.11021286 0.074222215 -0.043866497 -0.18448998 0.20196532 0.16232444
-0.1247249 0.06492162 -0.0856631 0.017330587 -0.08363974 0.037167076 -0.00020855607 0.10856718
-0.23220654 -0.27846634 -0.14559512 0.19473588 -0.1548263 -0.06787724 0.12356313 0.1126346
0.17050602 -0.1009187 -0.30757833 0.07665756 0.110404074 0.20422047 -0.3184283 -0.11311637
0.03505647 -0.024985585 0.13180393 -0.3275981 -0.16223186 0.08764402 -0.008864303 0.12797312
-0.18925354 0.15836883 -0.25162423 -0.00528059 -0.23907326 0.16423854 -0.04048255 0.22384933
-0.13735649 -0.32193667 0.23474364 0.10061252 0.2063399 -0.01892429 -0.050791014 0.16971545
00000000: 611f 2bbc 9aa4 8b3e cccf 3fbe 92d0 5f3e
00000010: ec29 c83d e0af a1be 6b9d 7fbd 7c64 993d
00000020: 1785 71be 4135 adbc 9c07 963d 322c 483d
00000030: f0ac 7a3d 4638 823e 2ef4 453e 5366 abbe
00000040: 1c7a a2be 8cc0 2a3e e155 5f3e 8cf4 09be
00000050: 76d7 ddbd c0e3 f23c aa13 613e 5457 003d
00000060: 042d 71bc 32b5 46be bc8f f63d e34f 743e
00000070: 7c29 eb3d 753d 85be 98ac 0b3e 64e9 603d
00000080: 8925 5f3e 115e 82be 95f5 043e 3fba 66be
00000090: e46d 753e b49c 3dbe 8b09 6b3d 1ac1 16bd
000000a0: 4099 11be b7fb 95be d0dc f93d df4a 703d
000000b0: be94 b33d 9e10 303d 08f9 6dba 61d8 4abd
000000c0: 7317 b9bd c682 77bd 1fc3 2d3e fc1f d23d
000000d0: f874 2dbd 5186 883d c78c c6bd 2aed 7fbe
000000e0: 484f d5bd 2bad a03d d3cf 513d 26f3 aabd
000000f0: 3630 483d ac47 393e 2615 e53d 50c1 5c3e
00000100: d4b6 50be c764 883e 5212 7a3d 6e3b d03d
00000110: 02ce 3c3e f5d3 503e 69f7 7ebd dba5 40be
00000120: b2d2 3b3e b6ec 81bc 48b7 e13d d101 983d
00000130: 5bad 33bd f1ea 3cbe ffcf 4e3e 6138 263e
00000140: c56f ffbd a0f5 843d 2370 afbd e0f8 8d3c
00000150: 504b abbd 813c 183d d8af 5ab9 7858 de3d
00000160: 8dc7 6dbe 2493 8ebe e316 15be d868 473e
00000170: c98a 1ebe 3903 8bbd ab0e fd3d f8ac e63d
00000180: 2199 2e3e 77ae cebd e87a 9dbe a4fe 9c3d
00000190: 881b e23d 2c1f 513e 0909 a3be 8ea9 e7bd
000001a0: 6097 0f3d 92ae ccbc 9cf7 063e f0ba a7be
000001b0: 1c20 26be b57e b33d 953b 11bc 630b 033e
000001c0: aecb 41be 702b 223e e4d4 80be cd08 adbb
000001d0: 9fcf 74be 262e 283e 08d1 25bd c238 653e
000001e0: 2ea7 0cbe e2d4 a4be a360 703e f00d ce3d
000001f0: c44a 533e 1d07 9bbc 3d0a 50bd e3c9 2d3e
